owlyshield_predict/models/model.tflite (tflite, 481952 bytes, 38 tensors)

sequential/lstm/TensorArrayV2_1 f4 [1, 1, 80]
0	0x00000000	0.0
1	0x00000000	0.0
2	0x00000000	0.0
3	0x00000000	0.0
4	0x00000000	0.0
5	0x00000000	0.0
6	0x00000000	0.0
7	0x00000000	0.0
8	0x00000000	0.0
9	0x00000000	0.0
10	0x00000000	0.0
11	0x00000000	0.0
12	0x00000000	0.0
13	0x00000000	0.0
14	0x00000000	0.0
15	0x00000000	0.0
16	0x00000000	0.0
17	0x00000000	0.0
18	0x00000000	0.0
19	0x00000000	0.0
20	0x00000000	0.0
21	0x00000000	0.0
22	0x00000000	0.0
23	0x00000000	0.0
24	0x00000000	0.0
25	0x00000000	0.0
26	0x00000000	0.0
27	0x00000000	0.0
28	0x00000000	0.0
29	0x00000000	0.0
30	0x00000000	0.0
31	0x00000000	0.0
32	0x00000000	0.0
33	0x00000000	0.0
34	0x00000000	0.0
35	0x00000000	0.0
36	0x00000000	0.0
37	0x00000000	0.0
38	0x00000000	0.0
39	0x00000000	0.0
40	0x00000000	0.0
41	0x00000000	0.0
42	0x00000000	0.0
43	0x00000000	0.0
44	0x00000000	0.0
45	0x00000000	0.0
46	0x00000000	0.0
47	0x00000000	0.0
48	0x00000000	0.0
49	0x00000000	0.0
50	0x00000000	0.0
51	0x00000000	0.0
52	0x00000000	0.0
53	0x00000000	0.0
54	0x00000000	0.0
55	0x00000000	0.0
56	0x00000000	0.0
57	0x00000000	0.0
58	0x00000000	0.0
59	0x00000000	0.0
60	0x00000000	0.0
61	0x00000000	0.0
62	0x00000000	0.0
63	0x00000000	0.0
64	0x00000000	0.0
65	0x00000000	0.0
66	0x00000000	0.0
67	0x00000000	0.0
68	0x00000000	0.0
69	0x00000000	0.0
70	0x00000000	0.0
71	0x00000000	0.0
72	0x00000000	0.0
73	0x00000000	0.0
74	0x00000000	0.0
75	0x00000000	0.0
76	0x00000000	0.0
77	0x00000000	0.0
78	0x00000000	0.0
79	0x00000000	0.0

sequential/dense/MatMul f4 [1, 50]
0	0x3e7232f2	0.23652247
1	0xbe8e0a74	-0.2774235
2	0x3f20bc4b	0.6278731
3	0xbefdb22b	-0.49549994
4	0xbf053917	-0.5204024
5	0xbee3af2c	-0.44469583
6	0xbe8452e9	-0.25844505
7	0xbe95edcd	-0.2928299
8	0x3e4d861b	0.20070688
9	0x3f3462a2	0.70463
10	0x3ebd2eb6	0.369497
11	0xbeb92c57	-0.3616664
12	0x3efa7f37	0.48925182
13	0xbee9378b	-0.45550188
14	0xbe74fcef	-0.23924612
15	0xbe8a409c	-0.27002418
16	0x3e9a52f2	0.30141407
17	0x3ec7a7e1	0.3899527
18	0xbebc4214	-0.36769164
19	0xbead2bcf	-0.33822486
20	0x3ead6669	0.33867195
21	0xbe42eee7	-0.19036447
22	0x3eb4fe0b	0.3535007
23	0x3eb05dbc	0.34446514
24	0x3e6ca343	0.23109154
25	0x3e8ceeed	0.27526036
26	0xbec1b449	-0.3783286
27	0xbe593d6f	-0.21214841
28	0xbe461e1a	-0.1934742
29	0xbea09d22	-0.31369883
30	0xbea25769	-0.31707314
31	0xbe6c474e	-0.23074076
32	0xbea92dfb	-0.33042893
33	0xbf1cfc08	-0.6132207
34	0xbe7c8497	-0.24659954
35	0x3f442f0e	0.766343
36	0x3e9951c7	0.29945204
37	0x3ede4ad4	0.43416464
38	0xbe47cb94	-0.19511253
39	0x3e0cb92f	0.13742517
40	0x3ef1a9eb	0.4719995
41	0x3e86cf71	0.2633014
42	0x3eb51605	0.35368362
43	0x3e9e16bf	0.3087673
44	0xbf08639d	-0.53277
45	0x3e91dbed	0.28488103
46	0xbe9b30ea	-0.30310756
47	0xbdf1b59d	-0.11802218
48	0x3ec51fe0	0.3850088
49	0x3e932df2	0.2874599

sequential/lstm/while/lstm_cell/MatMul_7 f4 [80, 80]
0	0xbd803608	-0.06260306
1	0x3de99e01	0.1140709
2	0x3df30bae	0.11867462
3	0xbde874bb	-0.113503896
4	0xbd4055a4	-0.046956673
5	0x3c6d2418	0.014473937
6	0xbd966202	-0.07342912
7	0x3cab084e	0.020877983
8	0xbc978bbd	-0.01849925
9	0x3d9df9f0	0.077136874
10	0xbcfed914	-0.03110937
11	0xbdeccd57	-0.11562603
12	0xbe20eb98	-0.15714872
13	0xbcca3a22	-0.024685923
14	0xbbd6cba0	-0.0065550357
15	0x3c191c9a	0.009345198
16	0x3d7f9b49	0.06240395
17	0x3d4baebf	0.049727198
18	0xbc89070e	-0.016726997
19	0x3d84899d	0.0647156
20	0x3db5dd17	0.0888006
21	0xbdb6fc0c	-0.08934793
22	0x3d871d54	0.06597391
23	0xbde66a42	-0.11250736
24	0x3d641cf5	0.055691678
25	0x3e1c64d1	0.15272833
26	0x3d21e60b	0.039526027
27	0xbdf88214	-0.121341854
28	0x3bdb6068	0.006694842
29	0x3cfeb649	0.03109278
30	0xbd17dd6e	-0.037076406
31	0x3c948f4c	0.018134736
32	0xbde66eb6	-0.11251585
33	0xbcf3447c	-0.029695742
34	0xbced1114	-0.028938808
35	0xbdc8681f	-0.097854845
36	0xbccbd491	-0.024881633
37	0x3db2ca61	0.08730007
38	0xbd89e664	-0.06733397
39	0x3a51b2bc	0.0007999351
40	0xbc3c0fb6	-0.011478355
41	0x3c93b7e0	0.018032014
42	0x3dae1c9f	0.08501553
43	0xbcb91ef0	-0.02259776
44	0xbce08ca0	-0.027410805
45	0xbb8d39ec	-0.0043098833
46	0xbc0203aa	-0.007935444
47	0x3cf03312	0.029321227
48	0x3d0bf99c	0.034173593
49	0xbcbb978c	-0.022899412
50	0x3d77e95a	0.060525276
51	0xbd81abe5	-0.063316144
52	0x3c253a8a	0.010084758
53	0x3d590d6f	0.052991327
54	0xbd027520	-0.03184998
55	0xbc9906dc	-0.018680029
56	0xbd94ec5b	-0.07271644
57	0x3d6d1eec	0.057890818
58	0xbd2327fc	-0.039833054
59	0x3dc80106	0.0976582
60	0x3d0c998e	0.03432613
61	0x3d13eb7b	0.036113244
62	0xbc8b8019	-0.017028855
63	0x3d41a652	0.047277756
64	0x3bfd8850	0.007737197
65	0x3d8b95c5	0.06815676
66	0xbd8b8a02	-0.06813432
67	0x3d621453	0.055195164
68	0xbcfc8e2c	-0.030829512
69	0x3d192461	0.03738821
70	0x3d44036c	0.047854826
71	0x3decb2d1	0.11557544
72	0x3d7f8fb4	0.062392905
73	0x3bede1b0	0.00725957
74	0xbd6b2eff	-0.057417866
75	0xbb2098a2	-0.0024505039
76	0x3c391d54	0.011298496
77	0x3bcf5040	0.006326705
78	0xbc6d5d10	-0.01448752
79	0x3d901078	0.07034391
80	0xbccf9721	-0.025340619
81	0xbdc9af32	-0.09847869
82	0xbd3a2606	-0.04544642
83	0x3cf2acdf	0.029623447
84	0x3cd3bb11	0.025846036
85	0x3d079de7	0.03310957
86	0x3d945e88	0.07244593
87	0xbccd6eb8	-0.025077209
88	0x3dac7ee9	0.08422644
89	0x3dc640e4	0.09680346
90	0xbcbfc7d0	-0.023410708
91	0xbc928e33	-0.017890071
92	0x3d9b7f63	0.075926565
93	0xbc37d73b	-0.011220749
94	0xbe2f6400	-0.1712799
95	0xbde629f1	-0.112384684
96	0x3d799029	0.060928497
97	0x3db6881a	0.08912678
98	0xbd332590	-0.043736994
99	0xbcf30acf	-0.02966824
100	0x3d6e69da	0.058206417
101	0xbd5493ea	-0.051898874
102	0xbc3bc01f	-0.011459379
103	0xbd9e5385	-0.07730774
104	0xbd1d9de5	-0.038480658
105	0x3d2c9038	0.042129725
106	0x3cdecaad	0.027196253
107	0xbd498eea	-0.04920856
108	0xbc636d44	-0.013881031
109	0x3bd5241c	0.0065045487
110	0xbdcb8d26	-0.09939031
111	0x3db08257	0.0861861
112	0xbd43a3dc	-0.04776369
113	0x3b9638fa	0.004584429
114	0x3d0bbc03	0.03411485
115	0x3d9a0f4d	0.0752245
116	0xbd65b7ce	-0.056083493
117	0x3d234569	0.039861117
118	0xbd55168a	-0.052023448
119	0x3d6910f3	0.05690093
120	0x3bfa274d	0.0076340795
121	0x3c4ffb9e	0.012694268
122	0xbdc7e8ab	-0.09761175
123	0x3bd8ef18	0.006620299
124	0x3d07c6d0	0.033148587
125	0x3d12edd9	0.03587136
126	0xbe11e4c4	-0.14247423
127	0x3c5c2234	0.013435889
128	0x3d3a38f4	0.04546447
129	0x3d261982	0.04055167
130	0x3ba056c0	0.004893154
131	0x3dd204b9	0.10254807
132	0xbd7e572a	-0.062094845
133	0x3d5c6b41	0.053813223
134	0xbd27d3a4	-0.04097332
135	0xbcfaed40	-0.030630708
136	0xbd7c6f0b	-0.061629336
137	0x3dbf6772	0.093459025
138	0xbc9a72c0	-0.018853545
139	0x3c5e6af8	0.013575308
140	0xbc9c0286	-0.019044172
141	0xbd75c183	-0.059999
142	0xbd91e2b6	-0.0712332
143	0x3d8b77b2	0.068099394
144	0xbd63d2b6	-0.05562087
145	0x3d6fe746	0.05857017
146	0xbb5cd182	-0.0033694212
147	0x3db4a2dd	0.08820126
148	0xbc8c7cc3	-0.017149335
149	0x3da67bcc	0.08129081
150	0xba966960	-0.0011475496
151	0xbcd9c2de	-0.026582178
152	0x3d6d6be4	0.05796422
153	0xbe0afea0	-0.13573694
154	0xbb8b3898	-0.00424869
155	0xbce86284	-0.028367288
156	0x3c95b936	0.018276792
157	0x3c5e5fe8	0.0135726705
158	0x3cea6d9c	0.028616719
159	0xbce2b484	-0.027673967
160	0x3c333c4a	0.010939667
161	0x3c9f7eb6	0.0194696
162	0x3c6feb13	0.014643448
163	0x3cd1c0de	0.025604662
164	0x3c194756	0.009355387
165	0xbd2a6e08	-0.04160884
166	0x3d6c347b	0.057667237
167	0x3d00f0be	0.03147959
168	0xbc8d1253	-0.017220652
169	0x3d5c35e7	0.053762343
170	0x3d45591d	0.04818069
171	0x3d858b86	0.065207526
172	0xba9845e8	-0.0011617513
173	0x3ccf8628	0.025332525
174	0xbd3a9d6b	-0.04556028
175	0x3c0efec8	0.008727737
176	0xbdd3a9c6	-0.10335116
177	0x3d4c4b9e	0.0498768
178	0x3ce342b3	0.027741766
179	0xbb012240	-0.0019704252
180	0xbd17693a	-0.036965586
181	0xbbc3143e	-0.005953341
182	0x3d17aa45	0.037027616
183	0xba094880	-0.00052369386
184	0x3b33fc48	0.0027463604
185	0x3b73b574	0.0037187012
186	0xbd95e6ea	-0.07319434
187	0x3d3e03f0	0.046390474
188	0x3cfa6a5b	0.030568292
189	0xbbc2c712	-0.005944141
190	0xbdb39d6f	-0.087702624
191	0xbd7d6e21	-0.061872605
192	0xbdb50012	-0.08837904
193	0x3d530f15	0.051528055
194	0xbbbb7bf8	-0.0057215653
195	0x3bb04e17	0.005380403
196	0xbc285006	-0.010272985
197	0xbc83e9c7	-0.016102685
198	0xbd04d199	-0.03242645
199	0x3cdf45c6	0.02725495
200	0x3df63bda	0.120231345
201	0xbd9c8f51	-0.07644523
202	0x3cb217c0	0.02173984
203	0x3cfacaeb	0.030614337
204	0xb9e4f5a0	-0.00043670554
205	0xbbdccc00	-0.006738186
206	0x3c32e686	0.010919219
207	0xbd7a7d3a	-0.06115458
208	0x3ce0ecda	0.02745669
209	0x3d9010e7	0.07034474
210	0xbd46ac22	-0.048504002
211	0x3d885e3e	0.066586
212	0xbc2b507a	-0.010456199
213	0xbd2b8658	-0.041876167
214	0x3be363a8	0.00693937
215	0x3d247aaa	0.040156044
216	0xbd966086	-0.07342629
217	0xbd673d67	-0.056455042
218	0xbd8d5904	-0.06901744
219	0x3d905baa	0.070487335
220	0xbd84f7e3	-0.06492593
221	0x3c251938	0.010076813
222	0x3cbd0369	0.023072915
223	0x3d02ca0b	0.031930964
224	0xbafd4a49	-0.0019324507
225	0xbc960a0b	-0.018315336
226	0xbdaa0fdd	-0.08303807
227	0x3d757ff3	0.059936475
228	0xbdc1f21b	-0.09470006
229	0x3c059706	0.008153683
230	0xbd89d50d	-0.06730089
231	0xbc4d098a	-0.012514481
232	0x3d43a59a	0.04776535
233	0x3aa139c8	0.0012300545
234	0x3d2caa23	0.042154443
235	0x3d42a6e2	0.047522433
236	0xbd0a2502	-0.0337267
237	0xbd3084b2	-0.043095298
238	0x3cce2a3d	0.025166625
239	0xbddcaa20	-0.10774636
240	0xbcb9d16f	-0.022682874
241	0xbce1d695	-0.027568141
242	0x3d58435e	0.05279862
243	0xbd016a63	-0.0315956
244	0xbd5eb941	-0.05437589
245	0xbdf916a6	-0.12162523
246	0x3d78e24e	0.060762696
247	0xbd433a66	-0.047663115
248	0xbcc96110	-0.024582416
249	0xbda09753	-0.07841363
250	0x3cb73586	0.02236439
251	0x3d98bd03	0.07457926
252	0x3cf722ee	0.030168023
253	0x3d8ef0ec	0.06979546
254	0x3d7bfc22	0.06151975
255	0xbd198f4e	-0.03749018

sequential/lstm/while/lstm_cell/MatMul_6 f4 [80, 80]
0	0xbd84313f	-0.064547054
1	0xbc252d55	-0.010081609
2	0x3d0e3f00	0.03472805
3	0xbca99c80	-0.020704508
4	0x3dbb627f	0.09149646
5	0x3d3db6d0	0.04631692
6	0x3dd34c6f	0.10317313
7	0x3d906ce3	0.070520185
8	0xbb98146e	-0.0046411073
9	0x3d5e4dd5	0.054273445
10	0x3db0d84e	0.08635007
11	0xbe314bf0	-0.17314124
12	0x3d18cd83	0.037305366
13	0xbd421216	-0.04738053
14	0x3c868d9e	0.01642495
15	0xbbf7e748	-0.0075654127
16	0xbc32def6	-0.010917416
17	0x3ce11098	0.027473733
18	0xbd55a637	-0.052160468
19	0x3b3d4d9c	0.002888537
20	0xbd310540	-0.043217897
21	0x3d77d145	0.06050231
22	0x3d9faa58	0.07796162
23	0xbd73b25d	-0.059496272
24	0x3b3f962c	0.0029233797
25	0x3def4c3a	0.11684461
26	0x3b15ff50	0.0022887774
27	0xbce39ba4	-0.027784176
28	0xbd2066b3	-0.03916044
29	0x3ce6913c	0.028145425
30	0xbc7678f4	-0.015043486
31	0xbd66e6e6	-0.056372546
32	0x3def3d1b	0.11681577
33	0x3d2f31e0	0.042772174
34	0x3d977930	0.073961616
35	0x3c725ca0	0.014792591
36	0xbd7e1206	-0.062028907
37	0xbd94c05d	-0.07263253
38	0x3c0b8280	0.008515
39	0x3cfb4d5a	0.030676533
40	0x3d0396eb	0.03212635
41	0x3cf5a676	0.029986601
42	0x3d977ca2	0.07396819
43	0xbc68b6c2	-0.014203729
44	0x3db875da	0.090068534
45	0x3cb23c0a	0.021757144
46	0x3de4d489	0.1117335
47	0x3dd0ddd6	0.10198562
48	0x3c688258	0.014191233
49	0x3d08ba0e	0.03338056
50	0xbc0ec94e	-0.008714987
51	0x3d841a60	0.06450343
52	0xbcaf0227	-0.021363331
53	0xbdd29766	-0.10282783
54	0x3da1a91c	0.07893583
55	0x3d0bfa55	0.034174282
56	0xbd0e9f26	-0.034819745
57	0x3d8544c4	0.065072566
58	0xbd885a5b	-0.06657859
59	0xbb4bd10a	-0.0031099939
60	0x3c5683a8	0.013092913
61	0x3dcdb608	0.10044485
62	0xbd337e61	-0.043821696
63	0x3c89d6ba	0.016826022
64	0xbc9a68fc	-0.018848889
65	0xbda042a6	-0.07825212
66	0xbd37ec72	-0.044903226
67	0xbc8501bb	-0.016236177
68	0x3db09ace	0.08623277
69	0xbd52ccb5	-0.051464755
70	0x3b7d6c60	0.0038669333
71	0x3d17a7d7	0.0370253
72	0xbc486160	-0.012230247
73	0x3d03a61d	0.03214084
74	0x3d3fff28	0.046874195
75	0x3d98455b	0.074351035
76	0xbc0a2eae	-0.008433981
77	0xbd864638	-0.06556362
78	0xbdabb1c6	-0.08383517
79	0x3ccb9261	0.024850072
80	0xbc9eea7d	-0.019398922
81	0x3c58bca7	0.013228572
82	0x3d27362f	0.040823158
83	0x3b13fc98	0.0022580978
84	0x3cfe9acd	0.031079674
85	0xbd2e5331	-0.042559806
86	0x3c3b4fbd	0.011432585
87	0x3dbed787	0.09318452
88	0xbc253c7c	-0.010085221
89	0x3cc8db72	0.024518702
90	0x3d07fe8d	0.033201743
91	0x3d6e2bf8	0.0581474
92	0xbcce1244	-0.025155194
93	0xbd22f56c	-0.039784834
94	0x3c3623b4	0.011116911
95	0x3c02bb94	0.007979292
96	0xbda196df	-0.078901045
97	0xbd7174b1	-0.058949176
98	0xbd6ffe72	-0.058592267
99	0x3db5b4f5	0.088724054
100	0x3c741588	0.014897712
101	0x3dc62a71	0.09676064
102	0x3dac6d2a	0.08419259
103	0xbd238355	-0.03992017
104	0xbd72562e	-0.05916422
105	0xbc7ab942	-0.015302958
106	0xbdc94190	-0.09826958
107	0xbb8117bf	-0.0039395983
108	0xbced6e98	-0.0289834
109	0xbc891eb6	-0.016738277
110	0xbc6d5fd0	-0.0144881755
111	0xbda61a98	-0.08110541
112	0x3c00dd9e	0.007865338
113	0xbe1b4092	-0.1516135
114	0x3d14125e	0.03615033
115	0x3d89a1c6	0.06720309
116	0xbc5a9418	-0.013340972
117	0xbd98e6ed	-0.074659206
118	0x3c26ef7c	0.010188933
119	0xb9a92e80	-0.00032268837
120	0xbbc7e754	-0.0061005745
121	0x3d093efe	0.03350734
122	0xbd4196ea	-0.047263063
123	0x3db98d5e	0.09060167
124	0xbcf5d125	-0.030006954
125	0xbd2a1bb8	-0.04153034
126	0xbda3302a	-0.07968171
127	0x3bfd243a	0.007725266
128	0x3d5735ce	0.052541547
129	0x3d3ff885	0.046867866
130	0x3b180125	0.0023194042
131	0xbd94a4b2	-0.07257976
132	0xbc2d63e5	-0.010582899
133	0x3e1baaad	0.15201826
134	0x3e170dd7	0.14751373
135	0x3c7e30a4	0.0155145265
136	0x3d205d4a	0.039151467
137	0x3c983832	0.018581484
138	0x3d0a4fa3	0.033767354
139	0x3d3900f0	0.04516691
140	0x3d85f20a	0.06540306
141	0xbd362640	-0.04447007
142	0x3d5b0228	0.053468853
143	0x3ca28039	0.019836532
144	0xbca5d628	-0.02024372
145	0x3d8da841	0.069168575
146	0x3d381add	0.044947494
147	0xbbc5946e	-0.006029657
148	0xbc2b55dc	-0.010457482
149	0xbd602c42	-0.054729708
150	0xbdab802f	-0.083740585
151	0xbd38157a	-0.044942357
152	0x3d658e3d	0.056043852
153	0x3d35c660	0.04437864
154	0xbc957319	-0.01824336
155	0x3c37e42e	0.011223836
156	0xbc17cc14	-0.009264965
157	0xbd386d06	-0.045025848
158	0xbd63532c	-0.05549924
159	0xbcd5e610	-0.026110679
160	0xbcee3b7f	-0.029081104
161	0x3d93f13b	0.072237454
162	0xbc6e3a27	-0.014540232
163	0xbe2987f0	-0.16555762
164	0x3d3a849c	0.045536622
165	0xbd79902f	-0.06092852
166	0xbd895e5a	-0.06707449
167	0xbd9554b2	-0.07291545
168	0x3dbf7c36	0.09349863
169	0x3d817cb7	0.063226156
170	0xbdbbf198	-0.0917694
171	0x3b1a682d	0.0023560629
172	0x3d5fd345	0.05464484
173	0x3c2c7b56	0.010527452
174	0xbd278d14	-0.040906027
175	0x3da4ef0e	0.080534086
176	0x3d8ad243	0.067783855
177	0x3cad144d	0.021127844
178	0xbdb69efa	-0.08917041
179	0xbc23944b	-0.009984086
180	0x3d0ac8e6	0.033882998
181	0x3c8f8638	0.017520055
182	0x3df52022	0.119690195
183	0xbd6cacbc	-0.05778192
184	0xbc7a86ca	-0.015290925
185	0xbd57e7d8	-0.052711338
186	0xbc52ecd0	-0.012873843
187	0xbdd7e59c	-0.105418414
188	0x3ce3143d	0.027719611
189	0xbd79ad80	-0.060956478
190	0x3d320776	0.043464147
191	0x3c64552a	0.01393632
192	0xbb9507cc	-0.0045480486
193	0xbd217046	-0.039413713
194	0xbdab9883	-0.08378699
195	0x3d09479d	0.03351556
196	0x3deee09e	0.11663936
197	0xbd37c611	-0.044866625
198	0x3d20c713	0.039252352
199	0xbc1adb82	-0.009451749
200	0xbbe70a80	-0.0070508122
201	0x3c9cc1d5	0.019135395
202	0x3cd04dba	0.025427688
203	0xbdd219ba	-0.10258813
204	0x3d9e597d	0.07731912
205	0xbd55ce92	-0.052198954
206	0x3c4fa97b	0.012674685
207	0x3d6f3864	0.058403388
208	0x3c5ffa70	0.013670549
209	0x3cb578ee	0.02215239
210	0x39c6e780	0.00037937984
211	0x3db36d6c	0.08761105
212	0x3d87f82c	0.06639132
213	0x3d278162	0.040894873
214	0x3c0c5135	0.008564283
215	0x3d40fe84	0.047117725
216	0xbc9437d4	-0.018093027
217	0x3ca415a9	0.02002986
218	0xbd9c619c	-0.07635805
219	0xbdbb5c33	-0.09148445
220	0x3df8a96e	0.12141691
221	0xbd027b72	-0.031856008
222	0xbd108879	-0.0352864
223	0x3d06f56b	0.032948893
224	0x3d3352d0	0.043780148
225	0xbaf42520	-0.0018626787
226	0x3dc85003	0.09780886
227	0xbd9b63ce	-0.075873956
228	0xbc6e9dbc	-0.014563974
229	0xbd10031e	-0.035159223
230	0x3d15ca55	0.036569912
231	0xbd01a8d0	-0.031655133
232	0xbc8df9a9	-0.017330961
233	0x3d9aeffb	0.07565304
234	0xbd08e94c	-0.033425614
235	0xbac83850	-0.0015275571
236	0x3ceba8af	0.028766958
237	0x3c4767f4	0.01217078
238	0xbc10bee0	-0.008834571
239	0xbd3090e6	-0.043106936
240	0xbb815c90	-0.003947802
241	0x3c913cd6	0.017729204
242	0x3d805eaa	0.06268056
243	0x3cafe3e5	0.021470973
244	0x3cd8822d	0.02642926
245	0x3e182f9a	0.14861909
246	0xbe2df08f	-0.16986297
247	0x3cc7e38d	0.024400497
248	0xbdb8898a	-0.090106085
249	0x3bdb5132	0.006693029
250	0xbd17dd98	-0.037076563
251	0x3e0d99fe	0.13828275
252	0xbe1e409a	-0.15454331
253	0xbd3fe5d1	-0.04685003
254	0x3a338b7c	0.0006849093
255	0xbd2a67a8	-0.04160276

sequential/lstm/while/lstm_cell/MatMul_5 f4 [80, 80]
0	0x3dceefc7	0.10104328
1	0x3d373feb	0.04473869
2	0xbcf9e986	-0.03050686
3	0x3c068121	0.008209498
4	0x3e0a4537	0.13502966
5	0xbdbd0b8c	-0.09230718
6	0xbe0bd803	-0.1365662
7	0xbc6353fc	-0.013875004
8	0x3c57852f	0.013154312
9	0xbc4b29a2	-0.012400063
10	0x3d1885bd	0.037236918
11	0xbbe2fd08	-0.0069271363
12	0x3d3b5eba	0.045744635
13	0xba9c92b0	-0.0011945572
14	0xbc608058	-0.013702475
15	0x3d61300c	0.05497746
16	0xbd9ebcb0	-0.07750833
17	0x3cc9e53e	0.024645444
18	0x3d54fd52	0.051999398
19	0xbcaeaf04	-0.021323688
20	0x3ce3120a	0.027718563
21	0xbc208caa	-0.009799162
22	0x3d1ccb8f	0.038280066
23	0xbd36fd9a	-0.044675447
24	0x3c7b5ee6	0.01534245
25	0xbd684f50	-0.056716263
26	0xbcc7fa77	-0.024411423
27	0xbd8705a4	-0.06592873
28	0xbdcfc83e	-0.10145615
29	0xbcbd3432	-0.023096178
30	0xbc516470	-0.012780294
31	0xbcbe0f88	-0.023200765
32	0xbd9dc391	-0.07703317
33	0x3ceb185c	0.028698139
34	0x3d584b56	0.05280622
35	0x3d3a7bc8	0.045528203
36	0x3d2bfb82	0.041987903
37	0x3c891210	0.016732246
38	0x3c93a808	0.01802446
39	0xbd048fcc	-0.032363698
40	0x3d8b720c	0.06808862
41	0x3da577a9	0.08079464
42	0xbcfcc969	-0.030857759
43	0xbd2caeff	-0.042159077
44	0xbd948087	-0.07251077
45	0xbcc88dbc	-0.024481647
46	0xbd4804c7	-0.04883268
47	0xbdbb954f	-0.09159338
48	0x3d5d8612	0.054082938
49	0x3c2943c2	0.010331096
50	0xbd0f3640	-0.034963846
51	0xbd66e2fb	-0.05636881
52	0xbb3c008c	-0.002868685
53	0xbd428ed6	-0.0474995
54	0x3c95dfb1	0.018295141
55	0x3a95a5a0	0.0011417158
56	0xbd209857	-0.039207783
57	0x3d95d4d4	0.07315984
58	0x3dac9069	0.084259816
59	0x3a891570	0.0010458659
60	0xbde9d6be	-0.11417912
61	0x3d497224	0.04918112
62	0x3da2c803	0.079483055
63	0xbd83f296	-0.06442754
64	0xbd619c89	-0.055080924
65	0x3cdc4760	0.026889503
66	0xbd61252b	-0.054967087
67	0xbd359d28	-0.04433933
68	0x3df33b1e	0.1187651
69	0x3cea417e	0.028595682
70	0xbc8103f8	-0.015748963
71	0xbcf86e26	-0.03032596
72	0x3c079405	0.008275037
73	0xbccc23b6	-0.024919372
74	0x3c2d89d4	0.010591943
75	0xbd107b53	-0.03527386
76	0x3db14ccc	0.08657226
77	0xbd8785c2	-0.06617309
78	0x3d84286e	0.06453024
79	0xbd81f8aa	-0.06346257
80	0xbaf2525f	-0.0018487683
81	0xbd264753	-0.040595364
82	0xbccf1f8a	-0.025283594
83	0xbdad05d3	-0.084483765
84	0xbc10c10e	-0.00883509
85	0xbd67cd5a	-0.056592323
86	0xbbe78542	-0.007065446
87	0x3dc511f6	0.096225664
88	0x3d8208b1	0.06349314
89	0xbad72f60	-0.0016417317
90	0xbdb2d8ae	-0.087327346
91	0x3d54e98c	0.05198054
92	0x3d4f0158	0.05053839
93	0x3d899f3e	0.06719826
94	0xbd8dd43d	-0.06925247
95	0xbc547cce	-0.012969209
96	0x3cba36d0	0.022731215
97	0xbdae3e95	-0.0850803
98	0x3d1629cf	0.036660966
99	0x3d424f78	0.04743907
100	0x3bc99d02	0.00615275
101	0x3df18f79	0.11794943
102	0x3d2e1ead	0.042509723
103	0xbd127234	-0.035753444
104	0x3d18406a	0.037170805
105	0x3d129722	0.035788663
106	0xbd9ce637	-0.076610975
107	0xbc5499ef	-0.012976154
108	0x3b03e270	0.002012398
109	0x3d949bf7	0.072563104
110	0x3c2ff798	0.010740183
111	0x3d45810e	0.04821878
112	0x3d82c855	0.063858666
113	0xbd70d11d	-0.058793176
114	0x3d0970c4	0.033554807
115	0x3d1bc1ba	0.03802655
116	0xbdb34aec	-0.087545246
117	0xbd6eaa90	-0.05826813
118	0x3ccc0527	0.0249048
119	0x3dbb3cda	0.09142466
120	0x3bb1fd2c	0.005431792
121	0xbd09a5ea	-0.033605494
122	0x3d2fc478	0.042911977
123	0x3d730a20	0.059335828
124	0xbc91412a	-0.017731268
125	0xbd8d3c81	-0.06896306
126	0xbd857ae4	-0.0651758
127	0x3d5b2b0c	0.05350785
128	0xbd7b540c	-0.06135945
129	0x3d2afa33	0.041742515
130	0x3ca0c4af	0.019625036
131	0xbc5caef0	-0.013469443
132	0x3b1cc528	0.0023921225
133	0xbdb8881f	-0.09010338
134	0xbd8cb554	-0.06870523
135	0x3d691539	0.056905005
136	0x3d2c387f	0.042046066
137	0x3de81230	0.11331594
138	0xbc963ade	-0.018338617
139	0x3d1d4656	0.038397156
140	0x3d30622a	0.043062367
141	0xbd373b42	-0.044734247
142	0x3e1399f8	0.14414203
143	0xbd3298f7	-0.04360291
144	0x3dc367a7	0.095412545
145	0x3cfbfd60	0.030760467
146	0x3d8055b6	0.06266348
147	0xbd6ac33a	-0.05731509
148	0x3d67a387	0.056552436
149	0x3d5a96ef	0.053366598
150	0x3d37e7ca	0.044898786
151	0xbcc3887e	-0.023868795
152	0xbd81dbb2	-0.06340732
153	0x3dbecdc2	0.09316589
154	0xbba54a58	-0.005044263
155	0xbd22994c	-0.039696977
156	0x3d810d94	0.06301418
157	0xbd785ea5	-0.060637135
158	0xbcfc9190	-0.030831128
159	0x3c199ab6	0.009375265
160	0x3d269443	0.040668737
161	0xbcf3ecc4	-0.029775985
162	0x3c84f180	0.016228437
163	0x3959e188	0.0002077875
164	0xbccb96c7	-0.02485217
165	0x3d62bdaf	0.055356678
166	0x3db7571c	0.08952162
167	0xbdd224b2	-0.10260905
168	0x3b138e6c	0.002251531
169	0xbd2dc370	-0.04242271
170	0xb972e600	-0.000231646
171	0x3d8f7776	0.07005207
172	0x3cb1a12e	0.021683302
173	0x3c1a1468	0.009404279
174	0x3c7db6ba	0.01548546
175	0xbcb9cd42	-0.022680882
176	0xbbcac14e	-0.0061875945
177	0x3c430a4b	0.0119043095
178	0xbdb8f1ec	-0.09030518
179	0xbd29f13d	-0.04148983
180	0xbd61d38a	-0.05513338
181	0xbbb922fc	-0.0056499224
182	0x3ca68cc9	0.020330803
183	0x3c47cfcc	0.012195539
184	0xbd043a1d	-0.032281984
185	0xbc476e0d	-0.012172234
186	0x3d1d2cee	0.038372926
187	0x3ce8c7e0	0.02841562
188	0x3d8300aa	0.06396611
189	0x3cbd2548	0.023089066
190	0x3d8bccb2	0.06826152
191	0xbdd5f89c	-0.10447809
192	0xbda11380	-0.078650475
193	0xbd3416aa	-0.043966927
194	0xbb7761f2	-0.003774759
195	0x3d7789b2	0.06043405
196	0xbd71622c	-0.058931515
197	0xbcfb3e3b	-0.030669322
198	0x3ba48480	0.005020678
199	0xbe0736cb	-0.13204496
200	0x3c878bb4	0.016546108
201	0x3cf8c4a6	0.030367207
202	0x3dc74552	0.09730019
203	0x3e09128f	0.13385986
204	0x3c7c6be3	0.015406582
205	0xbd4ee1fc	-0.050508484
206	0xbd5e73cc	-0.05430965
207	0x3dccf747	0.10008102
208	0x3ba93420	0.0051636845
209	0x3b98d319	0.0046638367
210	0x3e2ebf9b	0.17065279
211	0x3ce67f0a	0.028136749
212	0xbce05404	-0.027383812
213	0x3d8b45db	0.06800433
214	0x3aa86b90	0.0012849439
215	0x3d8ed674	0.069744974
216	0xbd692766	-0.05692234
217	0x3de38a88	0.11110407
218	0x3c7ccf58	0.015430294
219	0x3d6e7362	0.058215506
220	0x39869700	0.00025670975
221	0xbd719f2f	-0.0589897
222	0x3d6e1997	0.058129873
223	0xbd368aec	-0.04456608
224	0x3d1bc926	0.038033627
225	0x3e0a074a	0.13479343
226	0xbd95e9de	-0.07319997
227	0x3cc7538c	0.02433183
228	0x3b8f73c0	0.004377812
229	0x3c1914a8	0.009343304
230	0x3d568ee4	0.052382365
231	0xbd0cea9b	-0.034403425
232	0x3d859cae	0.06524025
233	0x3cc9b1a4	0.024620838
234	0x3dad9f96	0.08477704
235	0x3de6b8e2	0.11265732
236	0x3cafc2a6	0.02145512
237	0xbd3c8cfd	-0.046032894
238	0x3db4a56d	0.08820615
239	0xbd909b45	-0.07060865
240	0x3cf38f81	0.029731514
241	0x3ca89de0	0.020583093
242	0xbd58b50a	-0.052907027
243	0x3d235dda	0.039884426
244	0xbe0dbe0a	-0.13842025
245	0x3d36bfbb	0.044616442
246	0xbc902026	-0.017593455
247	0xbc6f898d	-0.014620197
248	0xbde04348	-0.10950333
249	0xbd571f1c	-0.052519903
250	0x3dd3d9ce	0.10344277
251	0xbd553629	-0.052053604
252	0xbd2ab5eb	-0.041677397
253	0xbc30c5d2	-0.010789352
254	0xbda64740	-0.081190586
255	0xbd8518e1	-0.06498886

sequential/lstm/while/lstm_cell/MatMul_4 f4 [80, 80]
0	0xbd9bd940	-0.076097965
1	0x3cf6b438	0.030115232
2	0x3d24a8d6	0.040200077
3	0x3bd4da9c	0.006495787
4	0x3e0791a8	0.13239157
5	0x3b576050	0.0032863803
6	0xbd8c42fd	-0.068487145
7	0x3db1d816	0.08683793
8	0x3c025d90	0.007956877
9	0x3a8e92e0	0.0010877512
10	0x3c0055c8	0.007832952
11	0x3c038038	0.008026175
12	0x3c310b9e	0.010805992
13	0x3c27233c	0.010201272
14	0xbd2be0f3	-0.041962575
15	0x3e0ed538	0.13948524
16	0x3ce59518	0.028025195
17	0x3d4df1a2	0.050279267
18	0xbc1a7060	-0.009426206
19	0xbcd59fd6	-0.026077192
20	0x3c5f6de0	0.013637036
21	0xbd56b318	-0.05241689
22	0x3cf92aea	0.03041597
23	0xbd3aec77	-0.045635667
24	0x3dc787cf	0.097427
25	0xbc46b16f	-0.012127264
26	0xbc47cf30	-0.012195393
27	0xbd00cc5a	-0.031444885
28	0xbcf052da	-0.029336382
29	0xbc9887fe	-0.018619534
30	0xbc3d608a	-0.011558661
31	0xbd958bbc	-0.07302043
32	0x3d088daa	0.033338226
33	0xbbd0a3f0	-0.006367199
34	0xbd5088a8	-0.050911576
35	0x3c25c2a0	0.010117203
36	0xbcb959c0	-0.022625804
37	0xbd97e59d	-0.07416842
38	0x3daf14ee	0.08548914
39	0xbd4ea5e0	-0.05045116
40	0x3d36ca8d	0.04462676
41	0xbcc9d6d4	-0.02463857
42	0xbaa0f378	-0.0012279591
43	0xbd54e706	-0.051978134
44	0xbd215258	-0.03938517
45	0xbdbb9823	-0.09159877
46	0xbce2b7fb	-0.02767562
47	0xbca0f77d	-0.019649262
48	0x3c34fb81	0.011046291
49	0x3c6f4e2c	0.01460604
50	0xbc10dff7	-0.00884246
51	0x3cbb4274	0.022858836
52	0x3d3ef635	0.04662152
53	0x3dff285c	0.1245887
54	0xbd2e0164	-0.042481795
55	0xbca5d56f	-0.020243375
56	0xbd09eb42	-0.033671625
57	0x3d31b454	0.043384865
58	0xba05508c	-0.000508555
59	0xbce75afc	-0.028241627
60	0xbd9f9327	-0.07791739
61	0x3de491b2	0.11160602
62	0xbd9e274d	-0.0772234
63	0x3d0a21b6	0.033723556
64	0xbda2ba48	-0.079456866
65	0xbd1c2d02	-0.03812886
66	0x3c3cde80	0.0115276575
67	0x3d804415	0.062629856
68	0x3c78812e	0.015167518
69	0xbcbce4e6	-0.023058366
70	0xbdbf4296	-0.09338872
71	0x3dabbb8a	0.083853796
72	0x3d53cfa0	0.05171168
73	0x3c0bb563	0.008527133
74	0x3d86f19c	0.06589052
75	0xbd8b11c4	-0.06790498
76	0x3db18445	0.086678065
77	0x3da3acd5	0.079919495
78	0x3d345445	0.04402568
79	0xbcd2c7af	-0.025729982
80	0x3da6d75f	0.081465475
81	0x3d586320	0.052828908
82	0x3ca28262	0.019837562
83	0xbd8c478c	-0.06849584
84	0x3ca1e96c	0.019764625
85	0x3d3016c9	0.04299048
86	0xbd3f11ff	-0.04664802
87	0xbd303208	-0.043016464
88	0x3cd5316e	0.026024546
89	0xbd86ea7f	-0.06587695
90	0x3afcf7b8	0.00192999
91	0x3d111054	0.035415962
92	0x3d388469	0.04504815
93	0x3c077674	0.0082679875
94	0x3cc1620c	0.023606323
95	0xbdfe36d4	-0.124128014
96	0xbdbde757	-0.0927264
97	0xbc81b7a9	-0.015834646
98	0xbb735ca4	-0.0037134076
99	0xbd8eacbe	-0.06966542
100	0xbc0fc36b	-0.008774619
101	0x3d9e22b2	0.07721461
102	0xbc70cf6a	-0.014697889
103	0xbd8c8688	-0.06861597
104	0x3ccb8960	0.024845779
105	0xbcfeee8b	-0.031119606
106	0xbc84e423	-0.016222065
107	0x3d448f34	0.04798813
108	0xbd85ccdc	-0.065332144
109	0x3da4fec6	0.08056407
110	0x3c92e175	0.017929772
111	0x3ce2533e	0.027627584
112	0xbd1ca0ea	-0.038239397
113	0xbd24aec3	-0.04020573
114	0xbd313123	-0.04325975
115	0x3d20aafa	0.039225556
116	0x3d353678	0.0442414
117	0x3d9c3a9a	0.07628365
118	0x3b433866	0.0029788255
119	0x3a2d296c	0.00066055986
120	0xbcd11f64	-0.025527664
121	0xbd6198ba	-0.055077292
122	0x3d0a621b	0.033784967
123	0x3c5cdcd3	0.013480383
124	0x3d8be805	0.068313636
125	0xbd4e2996	-0.05033263
126	0xbd8b3da7	-0.067988686
127	0x3d811b37	0.06304019
128	0x3d36c628	0.04462257
129	0xbd74d9e8	-0.059778124
130	0xbce290f5	-0.027657012
131	0x3d479de6	0.048734568
132	0xbd28449d	-0.04108106
133	0xbd4326c6	-0.0476444
134	0x3d3e4436	0.04645177
135	0xbd44227b	-0.047884446
136	0x3d8c7f26	0.06860189
137	0x3d9a295e	0.075274214
138	0xbd767525	-0.06017031
139	0x3d8eece6	0.069787785
140	0x3afc6d18	0.0019258587
141	0xbcecbd80	-0.028898954
142	0x3c3a61e4	0.011375878
143	0xbd36f52c	-0.044667408
144	0xbd5e554d	-0.054280568
145	0x3cb313d8	0.021860048
146	0x3dddb9b0	0.10826433
147	0x3d80b7b0	0.062850356
148	0xbd60849d	-0.05481397
149	0xbddc6be4	-0.10762766
150	0x3e008606	0.12551126
151	0x3cdd819c	0.027039342
152	0xbce09416	-0.027414363
153	0x3cdf6beb	0.027273139
154	0x3d96c8ec	0.073625416
155	0xbace7378	-0.0015750965
156	0xbcfdd48a	-0.030985136
157	0xbc268e9f	-0.010165839
158	0x3bc70fc0	0.0060748756
159	0x3db9497d	0.0904722
160	0x3c41daa4	0.011831913
161	0x3d90c7bc	0.07069346
162	0xbd0546a0	-0.032538056
163	0x3a889ee4	0.001042333
164	0x3d3fce42	0.046827562
165	0xbd55642e	-0.052097492
166	0x3ca4668c	0.02006843
167	0x3d26ac4b	0.040691655
168	0xbba7e327	-0.005123514
169	0xba7e6bd8	-0.0009705401
170	0xbba5bdc3	-0.0050580218
171	0xbce79545	-0.02826942
172	0x3db91d64	0.09038809
173	0xbd50d650	-0.050985634
174	0xbce3235e	-0.027726825
175	0xbdc44ab2	-0.095845595
176	0xbd6e0565	-0.058110613
177	0x3cfca554	0.030840553
178	0x3c5c1eab	0.013435046
179	0x3d58da39	0.05294249
180	0x3ce606e5	0.02807946
181	0xbd9d3791	-0.07676614
182	0xbc6f1277	-0.014591805
183	0x3d858f32	0.06521453
184	0x3dca2652	0.0987059
185	0xbdb96b44	-0.090536624
186	0xbd2f0962	-0.042733558
187	0x3ce730f5	0.028221587
188	0x3e46215f	0.19348668
189	0x3b8e67b7	0.00434586
190	0xbdaa1733	-0.08305206
191	0x3ccf0939	0.025272952
192	0x3cea2bfd	0.028585428
193	0xbd9b53e4	-0.0758436
194	0xbd572ccb	-0.052532952
195	0xbdc74d9d	-0.097316004
196	0xbb355488	-0.0027668793
197	0xbd794c35	-0.060863692
198	0xbddedefc	-0.10882375
199	0x3cc33ce9	0.023832755
200	0xbccaf5d3	-0.024775421
201	0xbc1e6b66	-0.0096691605
202	0xbd46b830	-0.0485155
203	0x3d148028	0.03625503
204	0x3ddb5409	0.10709388
205	0xbd87c6f0	-0.06629741
206	0x3db3961b	0.08768865
207	0xbd19269a	-0.03739033
208	0xbd1d6008	-0.03842166
209	0xbd096c8a	-0.033550777
210	0x3d572113	0.052521776
211	0xbc9e00dc	-0.01928752
212	0x3db17e4e	0.08666669
213	0xbd4bb3f0	-0.04973215
214	0xbb6156fa	-0.0034384117
215	0x3d4257eb	0.047447126
216	0x3de5e59b	0.112254344
217	0xbb98448b	-0.004646843
218	0xbceb9a58	-0.02876012
219	0x3d7b50a6	0.06135621
220	0xbbc67b42	-0.006057174
221	0xbe27208b	-0.16321008
222	0x3c5432a6	0.012951529
223	0xbd121b57	-0.035670605
224	0xbd279e49	-0.040922437
225	0x3c9b933b	0.018991103
226	0xbda9cbc0	-0.08290815
227	0x3c8536a2	0.016261403
228	0xbd1b45d7	-0.0379084
229	0xbdc5a346	-0.096502826
230	0xbd6fe3e2	-0.058566935
231	0x3d78017c	0.06054829
232	0x3cb3a6e4	0.021930166
233	0xbbe1f26d	-0.0068953545
234	0xbd26f340	-0.040759325
235	0xbd1a07b0	-0.037604988
236	0x3d9d8b9e	0.076926455
237	0x3d758a4c	0.059946343
238	0x3d7707dd	0.060310233
239	0x3ca9cff4	0.020729043
240	0xbc9b94ed	-0.018991912
241	0xbc1835f8	-0.009290211
242	0xbd2a4a71	-0.0415749
243	0xb8b18000	-8.4638596e-05
244	0x3d75b776	0.059989415
245	0x3d8378b0	0.06419504
246	0xbd41b8bc	-0.047295317
247	0xbc0a089c	-0.008424904
248	0xbd8c4aeb	-0.06850227
249	0xbbcbbec1	-0.006217808
250	0x3d4c02dd	0.04980742
251	0x3c748c47	0.014926023
252	0x3db2d8df	0.08732771
253	0xbd908125	-0.07055882
254	0x3a9d9168	0.0012021484
255	0xbb4c7c17	-0.0031201893

sequential/lstm/while/lstm_cell/split_1 f4 [80]
0	0x3e52c268	0.20581973
1	0xbe7333ba	-0.23750201
2	0x3d95e5c4	0.07319215
3	0xbe4defcc	-0.20111006
4	0xbd84318f	-0.06454765
5	0x3ecc958d	0.39957848
6	0x3df06762	0.11738469
7	0x3e7aa354	0.24476367
8	0x3de920e6	0.11383228
9	0x3eea4acf	0.457602
10	0x3eb71c81	0.35763934
11	0xbca833e5	-0.020532558
12	0x3cadb399	0.021203803
13	0x3ded7cc8	0.11596066
14	0xbd980382	-0.07422544
15	0x3e35afef	0.17742895
16	0x3de48301	0.111577995
17	0x3e4e8eb1	0.2017162
18	0xbc8dd40d	-0.017313028
19	0xbdfabc57	-0.12242954
20	0xbcbd1372	-0.023080561
21	0xbe44aa38	-0.19205558
22	0xbe9ff780	-0.31243515
23	0x3ec44f58	0.38341784
24	0x3e5ab11f	0.21356629
25	0x3f07c327	0.53032154
26	0x3e84c422	0.25930887
27	0x3e66c29b	0.22535174
28	0x3c8a468d	0.016879344
29	0xbd930140	-0.07177973
30	0x3dc847b7	0.097793035
31	0x3ed62598	0.41825557
32	0x3f124448	0.5713544
33	0x3f12ccaf	0.5734357
34	0x3e3f0f75	0.1865824
35	0x3e86bba7	0.26315042
36	0xbdba4374	-0.09094897
37	0x3ed3fa87	0.41402075
38	0x3e4662f0	0.19373679
39	0x3ea62673	0.3245121
40	0x3f75a348	0.9595227
41	0xbde30fc2	-0.1108699
42	0x3f1a859b	0.60360116
43	0x3e09e708	0.13467038
44	0x3f539b11	0.8265849
45	0xbe93cc7f	-0.28866956
46	0x3e173f99	0.14770354
47	0xbe94c26f	-0.2905459
48	0xbd4df99d	-0.050286878
49	0x3e9fa989	0.31184033
50	0x3e198f39	0.14996041
51	0x3ebe02ab	0.3711141
52	0x3ef8e7cd	0.4861435
53	0x3e96f7ef	0.29486033
54	0xbd8e1b2c	-0.069387764
55	0xbe23a0a5	-0.1597925
56	0xbe0a4628	-0.13503325
57	0xbe03b076	-0.12860283
58	0x3eb9e153	0.3630472
59	0x3e8da53a	0.2766512
60	0x3d9d65ba	0.076854184
61	0x3caebf8e	0.021331575
62	0x3d0c3e84	0.034239307
63	0x3e8c1ee0	0.27367306
64	0xbe0f1cc1	-0.13975812
65	0x3e7f5094	0.24933082
66	0x3f4b752b	0.7947566
67	0x3e948004	0.29003918
68	0xbd1a997a	-0.037744023
69	0x3e635b2c	0.22202748
70	0x3df42b27	0.11922293
71	0x3e1ca287	0.15296374
72	0x3dc83954	0.097765595
73	0x3f248b90	0.64275455
74	0x3ed33018	0.4124763
75	0x3e95390c	0.29145086
76	0xbe4a5716	-0.19759783
77	0x3dffafa4	0.12484673
78	0x3f28d70e	0.6595315
79	0xbedf6d25	-0.43637958

sequential/lstm/while/lstm_cell/split_11 f4 [80]
0	0x3f800000	1.0
1	0x3f800000	1.0
2	0x3f800000	1.0
3	0x3f800000	1.0
4	0x3f800000	1.0
5	0x3f800000	1.0
6	0x3f800000	1.0
7	0x3f800000	1.0
8	0x3f800000	1.0
9	0x3f800000	1.0
10	0x3f800000	1.0
11	0x3f800000	1.0
12	0x3f800000	1.0
13	0x3f800000	1.0
14	0x3f800000	1.0
15	0x3f800000	1.0
16	0x3f800000	1.0
17	0x3f800000	1.0
18	0x3f800000	1.0
19	0x3f800000	1.0
20	0x3f800000	1.0
21	0x3f800000	1.0
22	0x3f800000	1.0
23	0x3f800000	1.0
24	0x3f800000	1.0
25	0x3f800000	1.0
26	0x3f800000	1.0
27	0x3f800000	1.0
28	0x3f800000	1.0
29	0x3f800000	1.0
30	0x3f800000	1.0
31	0x3f800000	1.0
32	0x3f800000	1.0
33	0x3f800000	1.0
34	0x3f800000	1.0
35	0x3f800000	1.0
36	0x3f800000	1.0
37	0x3f800000	1.0
38	0x3f800000	1.0
39	0x3f800000	1.0
40	0x3f800000	1.0
41	0x3f800000	1.0
42	0x3f800000	1.0
43	0x3f800000	1.0
44	0x3f800000	1.0
45	0x3f800000	1.0
46	0x3f800000	1.0
47	0x3f800000	1.0
48	0x3f800000	1.0
49	0x3f800000	1.0
50	0x3f800000	1.0
51	0x3f800000	1.0
52	0x3f800000	1.0
53	0x3f800000	1.0
54	0x3f800000	1.0
55	0x3f800000	1.0
56	0x3f800000	1.0
57	0x3f800000	1.0
58	0x3f800000	1.0
59	0x3f800000	1.0
60	0x3f800000	1.0
61	0x3f800000	1.0
62	0x3f800000	1.0
63	0x3f800000	1.0
64	0x3f800000	1.0
65	0x3f800000	1.0
66	0x3f800000	1.0
67	0x3f800000	1.0
68	0x3f800000	1.0
69	0x3f800000	1.0
70	0x3f800000	1.0
71	0x3f800000	1.0
72	0x3f800000	1.0
73	0x3f800000	1.0
74	0x3f800000	1.0
75	0x3f800000	1.0
76	0x3f800000	1.0
77	0x3f800000	1.0
78	0x3f800000	1.0
79	0x3f800000	1.0

sequential/lstm/while/lstm_cell/split_12 f4 [80]
0	0x3e48b8da	0.19601765
1	0x3e8abbc5	0.27096382
2	0xbe6ba4c3	-0.2301207
3	0x3de26b62	0.11055638
4	0x3d373101	0.04472447
5	0xbc878860	-0.01654452
6	0x3e95c173	0.29249153
7	0xbc0a46c4	-0.008439723
8	0xbd950c31	-0.07277716
9	0x3cef9b03	0.02924872
10	0xbe33c532	-0.17555693
11	0xbd402c5c	-0.046917304
12	0x3c7d3039	0.015453392
13	0xbdebbd55	-0.115107216
14	0xbc2be040	-0.010490477
15	0x3e2e6af5	0.17032988
16	0xbe068f5c	-0.13140625
17	0xbcb97d63	-0.022642797
18	0xbd90914a	-0.07058962
19	0xbd541faf	-0.05178803
20	0x3e423abd	0.1896772
21	0x3eaea381	0.3410912
22	0xbec6b134	-0.3880707
23	0xbea50e37	-0.32237408
24	0x3e9c4eea	0.30528957
25	0x3cda813a	0.026672948
26	0x3e20c143	0.15698723
27	0xbe12fe72	-0.14354876
28	0xbdcaf377	-0.099097185
29	0x3ea0b358	0.31386828
30	0x3dc56baa	0.09639676
31	0x3d52692c	0.05136983
32	0xbcaa34f5	-0.020777205
33	0xbd1ed927	-0.03878131
34	0xbd8df644	-0.06931737
35	0x3de2b044	0.11068776
36	0xbe9375bc	-0.28800762
37	0x3eb3f228	0.35145688
38	0xbe1518ac	-0.14560193
39	0xbb7313a7	-0.003709057
40	0x3d7b23bb	0.061313372
41	0x3dddcc4e	0.10829984
42	0x3dacbc52	0.08434357
43	0xbe4fcfb8	-0.20294082
44	0x3cc549ce	0.024083044
45	0x3ea2423f	0.31691167
46	0x3be87da0	0.007095054
47	0xbe7407ba	-0.23831072
48	0xbe1e33f2	-0.15449503
49	0xbd8eb049	-0.069672175
50	0x3e04ec1f	0.12980698
51	0x3db6eb52	0.089316025
52	0x3dcc606b	0.09979328
53	0xbe58f12b	-0.21185748
54	0x3e0ded04	0.13859946
55	0xbe7ac43b	-0.24488918
56	0x3d9049dd	0.07045338
57	0x3de54144	0.11194089
58	0x3b47aae5	0.0030466851
59	0x3f0b4207	0.54397625
60	0xbbbee561	-0.005825684
61	0x3e50a1cd	0.20374222
62	0x3eb3658d	0.35038415
63	0x3e247f8f	0.16064285
64	0x3bdf0ec4	0.00680718
65	0xbe057c05	-0.13035591
66	0x3ce4aaaf	0.02791342
67	0x3e3d939c	0.1851334
68	0x3d4261b5	0.047456462
69	0xbe0bfd0f	-0.13670753
70	0x3d08e536	0.033421718
71	0xbb7da1b6	-0.0038701124
72	0xbe650d75	-0.22368415
73	0x3d5f62c6	0.054537557
74	0xbd8e4888	-0.06947428
75	0xbe818273	-0.25294837
76	0x3d73a602	0.05948449
77	0xbd4b15d2	-0.049581356
78	0x3d5e8ed6	0.054335438
79	0xbe45dd70	-0.19322753

sequential/lstm/while/lstm_cell/split_13 f4 [80]
0	0x3e50b5b8	0.2038182
1	0xbeac2222	-0.3361979
2	0xbcb890cc	-0.022529982
3	0xbe0c01f3	-0.13672619
4	0xbdc97a02	-0.09837724
5	0x3eed4ff1	0.46350053
6	0x3db61d0b	0.08892258
7	0x3ea4e553	0.3220621
8	0x3eec202a	0.4611829
9	0x3f1642cc	0.58695674
10	0x3e913a38	0.2836473
11	0x3ef89128	0.48548245
12	0xbc78fd2a	-0.015197078
13	0x3debe1d8	0.11517686
14	0x3d91e289	0.07123286
15	0x3d09c741	0.03363729
16	0x3f05bb8f	0.52239317
17	0x3e2bb0ec	0.16766709
18	0x3dc7dafd	0.097585656
19	0x3df6a9cf	0.12044107
20	0x3de92420	0.113838434
21	0xbe31b1d4	-0.17352992
22	0xbeac94b4	-0.337072
23	0x3f2f4d92	0.6847774
24	0x3e3bb8a2	0.1833215
25	0x3f8bf461	1.0933954
26	0xbb8ca18b	-0.0042917184
27	0x3e6f2c3a	0.23356715
28	0x3e81e56f	0.25370356
29	0x3def52e6	0.116857335
30	0x3db553dc	0.088538855
31	0x3eb21a06	0.3478548
32	0x3e929bd9	0.28634527
33	0x3e0f8047	0.14013778
34	0x3d6cf6d4	0.05785258
35	0x3ea2eac0	0.31819725
36	0xbe37a764	-0.17934948
37	0x3eea29f6	0.4573514
38	0xbe7a350f	-0.24434303
39	0x3e3c464b	0.1838619
40	0x3ec7d5b2	0.39030224
41	0xbe3014f6	-0.17195496
42	0xbc564e90	-0.013080254
43	0x3f59f69a	0.8514191
44	0x3ebf3e87	0.37352392
45	0xbe5dd920	-0.21664858
46	0x3f38c44d	0.7217453
47	0xbe917f1b	-0.28417286
48	0x3d3e4029	0.046447907
49	0x3ebedf27	0.37279627
50	0x3d91840b	0.07105263
51	0x3ecfea4b	0.4060844
52	0x3ec87da0	0.39158344
53	0x3df7ea52	0.1210524
54	0x3e66be10	0.2253344
55	0x3da3e369	0.080023594
56	0x3d618759	0.05506072
57	0xbdc47193	-0.09591975
58	0x3e82c9f6	0.2554471
59	0x3e3fee22	0.18743184
60	0x3eace837	0.33770916
61	0x3d1edf41	0.03878713
62	0x3dec1c06	0.115287825
63	0xb8b5ba76	-8.6654836e-05
64	0x3e5f82f9	0.21827306
65	0x3f325435	0.6965974
66	0x3ddc6a55	0.10762469
67	0x3ef66e43	0.48130998
68	0x3d482115	0.048859674
69	0x3e897473	0.26846656
70	0xbd723aac	-0.059137985
71	0xbe4a9ea3	-0.19787078
72	0x3eb49fd9	0.35278204
73	0x3d549496	0.051899515
74	0x3f2221ec	0.6333301
75	0x3edd4b3c	0.43221462
76	0xbe1201ff	-0.14258574
77	0x3e63b7aa	0.22238031
78	0xbdb07179	-0.08615393
79	0xbe93a0c5	-0.28833595

sequential/lstm/while/lstm_cell/MatMul f4 [80, 21]
0	0xbf210ed1	-0.62913233
1	0x3f17ac62	0.5924741
2	0xbf6da9c7	-0.92837185
3	0xbf2ee0e8	-0.6831193
4	0xbea3d6c1	-0.31999782
5	0xbf18d9ef	-0.5970754
6	0xbf609d59	-0.87740093
7	0xbf34042c	-0.70318866
8	0xbf3088e3	-0.6895887
9	0xbfab2da3	-1.3373302
10	0xbf330c5b	-0.6994073
11	0xbf515eb6	-0.8178514
12	0xbefcaec4	-0.49352086
13	0xbee0761b	-0.43840107
14	0xbde7cd9a	-0.11318512
15	0xbeeb580d	-0.45965615
16	0x3d379d99	0.04482803
17	0xbdd683d2	-0.104743615
18	0xbea7813f	-0.32715794
19	0xbea5e29d	-0.32399455
20	0x3f23aeee	0.63938797
21	0xbf74b5b2	-0.95589745
22	0x3c6563b6	0.014000824
23	0xbf0b05c1	-0.54305655
24	0x3e5d2350	0.21595502
25	0x3d812da4	0.063075334
26	0x3ead992f	0.33905932
27	0x3e46d4aa	0.19417062
28	0xbd85b718	-0.06529063
29	0x3e74defc	0.23913187
30	0xbe41e38f	-0.18934463
31	0xbca2132a	-0.019784529
32	0x3e43164b	0.19051473
33	0x3ee67206	0.45008868
34	0x3f4211bd	0.75808316
35	0x3db77d32	0.08959426
36	0x3d3eec75	0.04661222
37	0x3f0ed734	0.55797124
38	0xbd769968	-0.060204893
39	0x3e8d9893	0.27655467
40	0xbc60d664	-0.01372299
41	0x3ee68841	0.45025828
42	0xbfd145a1	-1.6349374
43	0x3f1442cc	0.57914424
44	0xbfbf9800	-1.4968262
45	0xbe2d1694	-0.16903144
46	0xbea88a57	-0.32918045
47	0xbd10a92f	-0.035317596
48	0xbf04d3ef	-0.51885885
49	0xbf1dbd2e	-0.6161679
50	0xbe5e539d	-0.21711583
51	0xbefc133f	-0.49233434
52	0xbf139001	-0.5764161
53	0xbe746694	-0.23867255
54	0xbe8171b5	-0.25282064
55	0xbccd3108	-0.025047794
56	0xbc27f968	-0.010252334
57	0xbf503210	-0.8132639
58	0x3effcd85	0.49961486
59	0x3c790520	0.015198976
60	0xbe4ec093	-0.20190649
61	0xbe34f747	-0.17672454
62	0x3f199541	0.5999337
63	0xbf34bc3c	-0.7059972
64	0xbf8d4f39	-1.1039802
65	0x3f80d597	1.0065182
66	0x3e336189	0.17517675
67	0x3f4b1e54	0.7934315
68	0x3ee23c67	0.44186708
69	0x3ed20858	0.4102199
70	0xbed41993	-0.41425762
71	0x3eb3c7c7	0.35113356
72	0xbf20c061	-0.62793547
73	0xbebb79b4	-0.3661629
74	0x3f10d1d0	0.5657015
75	0x3de4b68c	0.111676306
76	0x3e2df960	0.1698966
77	0xbd3b5ce7	-0.045742895
78	0x3e53f315	0.20698197
79	0xbd51d68c	-0.05123
80	0x3db0b052	0.086273804
81	0x3e82b60a	0.2552951
82	0xbd8ff63d	-0.07029388
83	0xbeaad4b5	-0.33365408
84	0xbe608387	-0.21925174
85	0xbf996bbd	-1.1986004
86	0x3f162322	0.5864736
87	0x3e5f9d7f	0.21837424
88	0x3f0f772d	0.5604122
89	0x3ebef110	0.3729329
90	0x3efdb398	0.49551082
91	0xbe04b47b	-0.12959473
92	0x3da232ca	0.079198435
93	0xbf8f0131	-1.1172239
94	0xbec4b683	-0.38420495
95	0x3eee14c8	0.4650023
96	0x3d248a4c	0.040170953
97	0xbf61aef6	-0.88157594
98	0x3f16965d	0.58823186
99	0x3e826d2a	0.2547391
100	0xbef84bb9	-0.48495272
101	0x3de43b42	0.11144115
102	0x3e64fa06	0.22361001
103	0x3ebc47e3	0.36773595
104	0xbb20203d	-0.0024433278
105	0x3f727d23	0.94722193
106	0x3d2e4615	0.042547304
107	0xbfc69822	-1.5515177
108	0xbf41c632	-0.7569305
109	0xbeafd7e5	-0.34344402
110	0x3e9881e3	0.29786596
111	0xbec76742	-0.38945967
112	0xbf528e01	-0.8224793
113	0xbeb4af12	-0.35289818
114	0xbf6d54e8	-0.9270768
115	0xbf460a41	-0.77359396
116	0xbeac556c	-0.33658922
117	0x3e0a7b61	0.13523628
118	0x3f0d8bec	0.5529163
119	0x3f95a54d	1.1691071
120	0xbefb63b7	-0.49099514
121	0xbec496b9	-0.38396242
122	0xbe050161	-0.12988807
123	0xbf0f0a9a	-0.5587555
124	0xbf4980e7	-0.78712314
125	0x3f6bb8a1	0.92078596
126	0xbe5ccc35	-0.21562274
127	0x3d975143	0.07388546
128	0xbfd230d3	-1.642115
129	0xbe44b125	-0.192082
130	0xbe422335	-0.18958743
131	0xbd615151	-0.05500919
132	0xbe88f997	-0.26752922
133	0xbf2c41fc	-0.67288184
134	0xbec7eb05	-0.39046493
135	0xbeff479b	-0.49859318
136	0xbf2ea848	-0.68225527
137	0x3c1a95fb	0.009435172
138	0xbdf83712	-0.12119879
139	0x3eb53ca1	0.3539782
140	0xbf76feb4	-0.96482396
141	0xbec8a757	-0.3919017
142	0x3e91f545	0.28507438
143	0x3d00f17c	0.031480297
144	0xbeb6cb3d	-0.35701934
145	0xbd510905	-0.051033992
146	0x3efbdbb8	0.4919107
147	0xbe9647f0	-0.2935176
148	0x3fab38c6	1.3376701
149	0xbe98e882	-0.2986489
150	0x3ebfb854	0.3744532
151	0xbeea9c86	-0.45822543
152	0xbef12dda	-0.47105294
153	0xbea4b0cb	-0.32166132
154	0xbd1b71e3	-0.037950408
155	0xbe0c68ae	-0.13711807
156	0x3eb8d330	0.36098623
157	0xbd56ece5	-0.052472014
158	0xbddd4eb4	-0.10806027
159	0xbcc8dc82	-0.024519209
160	0xbe9f077f	-0.31060407
161	0xbe945baa	-0.28976184
162	0x3ea3d853	0.3200098
163	0x3ebf882a	0.37408572
164	0xbe077b59	-0.13230647
165	0xbce2851a	-0.027651358
166	0x3f28be38	0.6591525
167	0xbe387f08	-0.18017209
168	0x3f5aa2a6	0.8540443
169	0xbfbfdd3e	-1.4989393
170	0xbf91aa50	-1.13801
171	0xbf9bb307	-1.216401
172	0x3d9ecf3e	0.07754372
173	0x3e6f5316	0.23371539
174	0x3f17cfe5	0.59301597
175	0xbf4c76fa	-0.79869044
176	0xbea04f05	-0.31310287
177	0xbf240331	-0.6406737
178	0xbf449bff	-0.7680053
179	0xbec9bdca	-0.3940261
180	0x3f99fbc2	1.2029955
181	0x3de92cbd	0.11385486
182	0xbe14a9e3	-0.14517932
183	0x3cc0dd48	0.023543015
184	0x3f018e8e	0.50608146
185	0xbd93c9ea	-0.072162464
186	0xbd8da016	-0.069152996
187	0xbfa3814f	-1.2773837
188	0x3e9b26c2	0.30303007
189	0x3f660259	0.8984733
190	0x401d78ec	2.4605055
191	0x3f6ddcca	0.9291502
192	0x3d3909a2	0.045175202
193	0xbf342b5d	-0.7037867
194	0xbf83fbd7	-1.031123
195	0xbd8c958e	-0.06864463
196	0x3dd2e7b9	0.10298104
197	0xbea21783	-0.31658563
198	0x3f068009	0.52539116
199	0x3d845b53	0.06462731
200	0xbf25a110	-0.64698887
201	0xbf570dc8	-0.84005404
202	0x3f9c65b0	1.2218533
203	0xbe489124	-0.19586617
204	0x3ec8f808	0.39251733
205	0x3f0f98e2	0.56092656
206	0xbd12d960	-0.035851836
207	0x3cf35c8f	0.029707221
208	0xbd4116f4	-0.04714103
209	0x3dcc08e0	0.0996263
210	0xbfe7c842	-1.8107989
211	0x3fa05af1	1.2527753
212	0xbf985f2a	-1.1904042
213	0xbf3cf9af	-0.73818487
214	0xbf1cbc35	-0.6122468
215	0xbeb82feb	-0.35974059
216	0xbf170ce1	-0.59004027
217	0xbf61b0f6	-0.88160646
218	0xbf40baff	-0.75285333
219	0xbf5aaffe	-0.8542479
220	0xbf71f30c	-0.94511485
221	0xbee41103	-0.4454423
222	0x3e06eb22	0.13175634
223	0xbf5640dc	-0.8369272
224	0x3cc2335d	0.023706133
225	0xbd536700	-0.0516119
226	0xbea5e655	-0.32402292
227	0x3d834768	0.06410104
228	0xbf2fe2f8	-0.687057
229	0xbf9a239c	-1.2042117
230	0x3e2d8152	0.16943863
231	0x3f56ec7d	0.839546
232	0xbf4c670e	-0.7984475
233	0x3fd5d515	1.6705652
234	0x3f0974af	0.5369367
235	0x3d6b4a05	0.057443637
236	0x3e892bd8	0.26791263
237	0x3f02e1dc	0.51125884
238	0xbe9c327e	-0.30507272
239	0xbe48746c	-0.19575661
240	0x3f0b6320	0.5444813
241	0xbeb3568b	-0.35026965
242	0x3eb651ec	0.35609376
243	0x3eb19ddd	0.34690753
244	0xbc93f122	-0.018059317
245	0x3f24697b	0.6422345
246	0x3f47935f	0.77959245
247	0x3f112e72	0.56711495
248	0x3dc621e0	0.0967443
249	0xbdd7e8a2	-0.10542418
250	0x3f3c9d82	0.7367784
251	0xbe898a57	-0.26863357
252	0xbf7338f4	-0.9500878
253	0xbe0bc01c	-0.13647503
254	0x3ea7c131	0.3276458
255	0xbdffc1a8	-0.12488109
