owlyshield_predict/models/model_static.tflite (tflite, 21728 bytes, 5 tensors)

sequential/dense_1/BiasAdd/ReadVariableOp/resource f4 [64]
000000 83 a3 40 bc 62 e5 90 3e 06 ad 91 bd 34 85 92 3e
       -0.011757734 0.28300005 -0.0711308 0.2861725
000010 c5 d2 3c 3e 34 73 f5 3d 06 0a 09 3e 42 55 87 3d
       0.18439777 0.11984864 0.1338273 0.066080585
000020 bf d9 99 3d 3e fc ea 3d 4b 14 6b bd 1f c2 46 3e
       0.07512235 0.11473893 -0.0573924 0.19409989
000030 0a 5f 3b bc 4d 2e e7 3d a3 7c f0 3d e4 31 6a bd
       -0.011436233 0.11288128 0.117425226 -0.057176486
000040 53 98 7e 3e e2 9d 6c 3d 07 60 6f bb 30 16 97 3d
       0.24862795 0.057767756 -0.0036525743 0.07377279
000050 6f 46 7c 3e bb 9c a6 3d 4f c5 3b bc 9c 0f 6c be
       0.24636243 0.08135363 -0.011460616 -0.2305283
000060 72 36 c2 3e 36 55 55 3e 3b 1a 84 bc 77 a7 9b bd
       0.37932163 0.20833287 -0.016125789 -0.07600301
000070 58 1e 6a 3e ff 2b 18 3d d0 53 0e 3e cb 45 37 3d
       0.22863138 0.037151333 0.1389916 0.044744294
000080 a1 48 9c 3d d3 4d 11 3e b5 3f a2 3e 5f 90 61 3d
       0.0763104 0.14189844 0.3168923 0.055069324
000090 36 fa 11 be 27 be 21 3e d9 05 5f 3e e8 ce 84 3e
       -0.14255604 0.15795194 0.21779574 0.25939107
0000a0 83 06 43 3e f6 51 c1 3d 52 3d e5 3d 35 e0 3c 3e
       0.19045453 0.09439461 0.111933365 0.18444903
0000b0 f6 fb 8c 3d e2 ac 8e bc 73 34 87 3d c5 c1 57 3d
       0.06883995 -0.017416421 0.06601801 0.052675027
0000c0 68 7d 1c 3e 1d a3 93 3e e4 2e 29 3e 7c 6d fd 3d
       0.15282214 0.28835383 0.16521794 0.12374398
0000d0 ad 3b d1 3d 54 7b 92 bc 20 be 37 3e 42 05 e3 3d
       0.102164604 -0.017881073 0.1794362 0.11084987
0000e0 fb 3c 5a 3e 3f 34 24 3e 5f 2c 7f 3e 0a 6e 0a 3e
       0.21312325 0.16035555 0.2491927 0.13518539
0000f0 5e a3 9c bd 60 35 d5 3e bf 9b be 3d 8e 4a 64 3e
       -0.07648347 0.41642284 0.0930705 0.22294065

sequential/dense/BiasAdd/ReadVariableOp/resource f4 [64]
000000 83 b7 92 bd 86 b4 ec bd 91 c7 55 3d 14 e1 99 be
       -0.07163908 -0.115578696 0.052192274 -0.30054533
000010 2e 97 14 be 2b 0a 76 be 98 1c 84 be 90 15 11 3d
       -0.14510795 -0.24027316 -0.25803065 0.035420954
000020 13 90 e2 bd 23 79 9a bc c3 ee f4 3d 9f 69 62 bd
       -0.11062636 -0.01885659 0.11959603 -0.05527651
000030 4e a5 cd bd 5e 21 dc bd 54 7f 1d 3d 88 b1 08 be
       -0.10041295 -0.10748552 0.038451508 -0.13348973
000040 6e b4 ac be 58 83 e7 bd 57 f3 7a be 72 5b 01 bd
       -0.33731407 -0.11304349 -0.2450689 -0.03158135
000050 cc c8 3b bd eb ac 52 3d b0 5e 05 be 07 89 ef bd
       -0.04584579 0.05143444 -0.13024402 -0.11696058
000060 ec 12 fd bd 6c 8d fe bd 2f 7f a1 3d 7f 83 fe 3c
       -0.12357125 -0.12429318 0.078855865 0.031068562
000070 e1 f4 fd 3d 56 2f 01 be 3d 3b 1a 3d 95 56 83 be
       0.124002226 -0.12615713 0.03765415 -0.25651994
000080 24 88 ca be 5e a4 c4 bd ce 0a 10 be 9c 5e bf bc
       -0.39556992 -0.09601663 -0.14066622 -0.023360543
000090 69 c6 88 3d 57 6a 94 be ff 57 3e be 21 95 8b bc
       0.06678469 -0.2898738 -0.18588255 -0.017038884
0000a0 6c 8d 2e 3d 65 75 00 3d 5d 41 9c be fa ba be be
       0.04261534 0.031361956 -0.30518618 -0.37252027
0000b0 1c 2c e7 be 3c f0 e3 3d ff 3c d0 bd d3 64 84 3d
       -0.4515084 0.111298054 -0.10167884 0.06464543
0000c0 d6 26 3b 3e f4 1e 9f be cb e6 16 be 1f a0 52 be
       0.18276533 -0.31078303 -0.14736478 -0.20568894
0000d0 9b 5f 77 be f9 5d 9c be 7d 2f 93 be 9a 61 99 be
       -0.24157564 -0.30540445 -0.28747168 -0.29957277
0000e0 14 66 20 be b4 23 af be 2f 26 81 be 7d 0f 12 bd
       -0.1566394 -0.34206927 -0.25224444 -0.035659302
0000f0 78 fb 47 bd ed 2f 86 be 60 b0 0f 3c c6 3a 84 be
       -0.048823804 -0.2620844 0.008770078 -0.2582609

sequential/dense/MatMul f4 [64, 11]
000000 47 7f 02 be 66 06 d3 bc 80 98 56 bd d1 32 1b be
       -0.12743865 -0.025759887 -0.05239153 -0.15156104
000010 11 de af 3e 79 3a ce be f0 1f 2c bd a3 4d f3 3e
       0.3434911 -0.40278986 -0.042022645 0.4752017
000020 b4 6e 8e 3d 9b 1f 77 3d 2f 84 a4 be a9 e9 e7 be
       0.06954709 0.060332876 -0.32132098 -0.45295456
000030 e0 f2 0b bf ad 2f 15 3e 98 c9 11 3a 78 77 51 3e
       -0.5466747 0.14568968 0.0005561351 0.2045573
000040 76 75 cd 3d 71 fa 34 3e ca 1f be 3d f8 3d 18 3e
       0.100321695 0.17673661 0.09283407 0.14867389
000050 c3 06 cf 3d 63 8b 14 bd 29 d7 b8 3e 28 bc 1c 3d
       0.101087116 -0.036265742 0.36101654 0.038265377
000060 f1 26 b7 3e 37 a5 78 3e 8c f6 21 be 4b fb 98 3e
       0.35771897 0.24281774 -0.15816706 0.2987922
000070 0c 1c 84 be ca 8b 75 3e b0 4a f3 be c5 83 96 3e
       -0.25802648 0.23979107 -0.4751792 0.29397407
000080 37 e4 92 3e 44 bb 87 bf a8 52 db be c9 3a 84 3d
       0.2868974 -1.0604024 -0.428365 0.06456525
000090 ee a8 17 be 71 74 51 bd ea 04 4b 3e 76 7f 53 3d
       -0.14810535 -0.051136438 0.19826093 0.051635228
0000a0 30 82 b6 3e 3f 3e 3a 3e 0d c8 80 bd 8a 7a e2 bc
       0.356462 0.18187808 -0.06288157 -0.027646322
0000b0 44 df 9e be 25 9e 8a be af 9c e3 3c 2a 2c 2c be
       -0.31029713 -0.2707378 0.027784673 -0.16813722
0000c0 da 29 58 3e 51 29 9a 3e de f9 6e 3d c0 3d 2a 3d
       0.21109715 0.30109647 0.05834376 0.041562796
0000d0 7b 06 db bd 58 16 e5 be 0d a4 b9 3d b3 00 22 3f
       -0.106945954 -0.4474361 0.09064493 0.63282317
0000e0 73 e0 98 3e f3 83 06 3f 91 44 d1 3e ac 09 a2 be
       0.2985874 0.5254509 0.40872625 -0.31648004
0000f0 16 9b 80 3d 74 4f ad bd ba bd 1e bc 43 87 3f 3d
       0.0627958 -0.0846242 -0.009688789 0.046759855
000100 03 39 04 3f 38 74 ec 3c 7d 13 be be c2 56 89 be
       0.5164949 0.028864011 -0.37124243 -0.26824003
000110 3c 5f ab 3e 05 21 e5 3e 3f ec b7 be d1 f9 b3 be
       0.33471096 0.44751754 -0.3592243 -0.35151532
000120 b4 3a c0 3e e9 c5 ed bc 8e f4 58 3d 68 a5 b8 3d
       0.37544787 -0.029025035 0.0529676 0.09015924
000130 53 65 9d 3d 8e fb 86 3f 55 ff 6f 3e e6 1f 46 be
       0.07685342 1.0545518 0.23437245 -0.19348106
000140 50 89 90 3d 05 64 38 be 35 ee 6d 3e 41 46 dc 3d
       0.0705744 -0.18006904 0.232354 0.10755587
000150 f4 ae a8 3d 1c 17 2b bf 85 0c 9a 3d 44 09 ea bc
       0.08236495 -0.6683214 0.07521919 -0.028568871
000160 31 a5 42 bf 67 33 a8 bd 84 01 ed bd 00 e9 07 bd
       -0.7603331 -0.08212929 -0.11572555 -0.03318119
000170 15 82 72 bc db c1 20 3e 19 30 40 3e 97 81 25 bb
       -0.014801522 0.1569895 0.18768348 -0.0025254244
000180 37 32 f7 bd 63 c7 87 be ae 03 76 be 13 fb 43 3d
       -0.120701246 -0.26519307 -0.24024841 0.047846865
000190 cf 2e 06 be 40 a6 7c 3d 94 1f cb be 29 ea 75 3c
       -0.13103794 0.061681986 -0.3967253 0.015009441
0001a0 cc 92 01 3f f5 91 0f be b0 23 36 bd b9 76 64 3e
       0.5061462 -0.14020522 -0.044467628 0.22310914
0001b0 00 59 d0 bc bb d1 a3 bd 20 43 01 bf 2b 04 e7 3e
       -0.025433064 -0.07998987 -0.5049305 0.45120367
0001c0 2d 5c c0 bb 07 55 93 3d 9f 28 85 bd 44 b8 1c be
       -0.005870363 0.07193952 -0.065018885 -0.15304667
0001d0 95 18 f6 3d 4f ca 01 3e 70 48 a9 bd 07 14 b7 be
       0.120164074 0.12674831 -0.082657695 -0.35757467
0001e0 e8 c5 77 bc e7 05 45 bf d2 3b a3 bd 15 a6 ca 3e
       -0.015122868 -0.7696213 -0.07970394 0.39579836
0001f0 25 20 26 3e dd 31 35 be 4a 6f ac 3e 98 9c 95 be
       0.162232 -0.17694803 0.33678657 -0.29221034
000200 82 e8 59 be 6e 25 1b 3e f3 e3 9e be 4a 1a 18 3d
       -0.21280101 0.15150997 -0.31033286 0.037134446
000210 53 b5 e7 3e 1f 23 75 3d 45 38 08 be ec 9b 87 3d
       0.45255527 0.059847947 -0.13302715 0.066215366
000220 2d 65 62 3e 22 f3 34 be a7 80 f0 be 9c b0 cc 3e
       0.22108908 -0.17670873 -0.46973154 0.39978492
000230 92 c8 76 3e b8 25 94 3e 24 db 9c be f4 c0 1f bf
       0.24099949 0.28935027 -0.3063594 -0.624038
000240 7c 1c c4 bd a8 01 52 3c 64 93 c9 be ca c0 d5 bd
       -0.095757455 0.012817778 -0.39370263 -0.10437162
000250 fd f4 9c be f9 23 cc 3e 98 1c 6a 3e 2d 13 e9 3d
       -0.3065566 0.39871195 0.2286247 0.113806106
000260 c0 e9 d4 3d 5f f3 7c 3e dc c2 be be cd 5b e8 3d
       0.10396147 0.24702214 -0.3725804 0.113456346
000270 94 7f 7c 3e 16 06 cf 3e 2a 69 77 be 22 86 08 3f
       0.24658042 0.4043433 -0.2416121 0.5332967
000280 80 2c 67 be 6f 4f b5 3d 93 f0 38 bc d9 4d 01 3d
       -0.22575569 0.088530414 -0.011287826 0.031568382
000290 82 34 23 3e 12 72 8b bf 96 3c a2 3e a0 db 28 be
       0.15937999 -1.0894186 0.31686848 -0.1649003
0002a0 35 d1 3e 3e e2 51 c8 3e e1 7f d7 bd ac e1 57 be
       0.18634494 0.39124972 -0.10522438 -0.2108218
0002b0 70 c8 9b bd 17 bc e8 3d 09 94 ae bd 79 bb 6d 3e
       -0.0760659 0.11364 -0.08524329 0.23216046
0002c0 01 7c 35 3e 2f 52 b6 bd 28 b0 e0 3e 01 61 fd bc
       0.17723085 -0.08902394 0.43884397 -0.030930044
0002d0 a9 26 bf 3e d9 e8 be be d8 bb eb bd 90 27 ca be
       0.37334183 -0.37287024 -0.11510438 -0.3948331
0002e0 2c 21 df bd fb ff c4 3d 11 2f 56 be fd e2 b4 3d
       -0.10894999 0.09619137 -0.20916392 0.08832357
0002f0 cd f3 89 3c 18 f7 a9 bd 99 a9 62 3e 01 3c 03 3e
       0.016839886 -0.082990825 0.22135009 0.12815858
000300 7d 5f 3f 3e 78 fb ee bd 6a 1f 00 bf 69 d7 02 be
       0.1868877 -0.116690576 -0.50047934 -0.12777485
000310 c2 13 b2 be 85 f3 b9 be 5e 29 ad be 3a 9a f4 3e
       -0.347807 -0.36318603 -0.33820623 0.47773916
000320 f7 0e 00 be 68 a1 15 bd 4e 48 fc 3e a1 32 ca 3d
       -0.12505709 -0.036530882 0.49273914 0.09872938
000330 b5 74 9b 3e 2e 9e 94 be 6f 0f 6d 3d f4 5a a7 be
       0.30362478 -0.29026932 0.057876047 -0.3268658
000340 c6 e6 e0 3c 6f f0 22 3f a5 ba df 3e 7a 37 1b bd
       0.027453791 0.6364812 0.43697086 -0.037894703
000350 16 6d 15 3f 52 05 13 3d d6 89 f4 be 5c 4e cb 3d
       0.58369577 0.035893746 -0.4776141 0.09927055
000360 71 3a 87 3c c7 c0 ae 3e d6 d2 88 3d 0e ea ac bd
       0.01650736 0.34131452 0.06680839 -0.0844308
000370 0a f4 40 3f 5d 46 13 3e 5a 0b d5 3e 5f 4d b8 3e
       0.75372374 0.1438231 0.41610223 0.3599653
000380 62 90 ca be 68 73 90 3d 5d 32 5e 3a d8 2e 38 be
       -0.3956328 0.07053262 0.00084761326 -0.1798662
000390 6c 02 a5 3e cf 45 d5 3e bf 4e 0d 3e 93 88 06 be
       0.3222841 0.41654822 0.1379957 -0.13138036
0003a0 42 47 2b 39 6c 1e b8 bd c6 57 b0 3e b0 8e 2b be
       0.00016334376 -0.089901775 0.34441966 -0.1675365
0003b0 e2 b3 13 3d 8a aa c9 3c 47 ba 36 3d 9d a8 34 3c
       0.03606022 0.024617452 0.04461124 0.011026529
0003c0 ed 69 0c bf c5 1b 90 be 11 5a 37 be bd 22 05 bf
       -0.5484913 -0.28146186 -0.17905451 -0.5200613
0003d0 59 5b 18 3e 0b d4 e3 3e d9 c4 e3 3c 72 d2 49 3d
       0.14878596 0.44497713 0.027803825 0.049272962
0003e0 71 a0 5c be 82 1a 89 3e ee d9 96 bd 13 2d 31 3e
       -0.21545579 0.26778036 -0.073657855 0.1730235
0003f0 59 c0 b9 bd 86 14 e9 be a4 6c 83 be 04 44 97 3d
       -0.090698905 -0.4552347 -0.25668824 0.0738602

sequential/dense_1/MatMul f4 [64, 64]
000000 e9 82 98 be a9 ff 27 be 4a 6f b5 be 62 8a a8 3e
       -0.29787377 -0.1640612 -0.3543647 0.32918078
000010 34 94 9b 3e e0 fc a5 be 46 76 28 3f 40 f8 33 bf
       0.30386508 -0.3241949 0.6580547 -0.70300674
000020 6e 11 e5 3b 13 6a e0 3d 82 a3 13 bf 93 57 2b be
       0.006990603 0.10957732 -0.5767137 -0.16732626
000030 e1 b0 73 3e 51 dc 58 bd 62 7e fc be 1e 26 26 bf
       0.23797943 -0.052944485 -0.49315172 -0.6490191
000040 69 fc 8b be c4 62 77 3e 33 7f 0e bf 9d a4 89 3e
       -0.2734101 0.2415877 -0.5566284 0.26883402
000050 04 16 b3 3d b5 52 66 3e 94 2c 5d 3d e5 81 37 3c
       0.087444335 0.22492488 0.05399759 0.011200403
000060 36 8f 46 be ef 6b 59 bf f4 d7 b0 be 0f 2c e3 3d
       -0.19390568 -0.8493032 -0.3453976 0.11092388
000070 78 f2 57 3d 10 0d 19 3e ea 4d 44 bf 92 64 ba 3c
       0.05272147 0.14946389 -0.7668139 0.022753034
000080 08 f0 fe bd 8e 04 56 be 09 4d cc 3e 62 2d 6e be
       -0.12448126 -0.20900175 0.39902523 -0.232595
000090 80 d2 11 bf eb ae 69 3e ca df 0e bf 3b dc 65 bf
       -0.5696182 0.22820632 -0.55810225 -0.8978917
0000a0 61 3d b5 3e 60 ec 5d be 3f 22 1d bf 59 ef ab 3d
       0.3539839 -0.21672201 -0.6138038 0.08395261
0000b0 10 51 f6 be 6b ce 72 3e 4b 39 61 bf 9f 62 a8 be
       -0.4810872 0.23711555 -0.8797805 -0.32887742
0000c0 55 b2 37 3e 21 66 4f 3e 20 00 a2 be 98 cd 1c be
       0.17939122 0.20253803 -0.3164072 -0.15312803
0000d0 5b 7e c4 3d 25 1e 43 be 68 ca 18 be 57 3c c9 3d
       0.09594413 -0.19054468 -0.14920962 0.09825962
0000e0 95 ed 2b bf 07 0a d3 bb aa 46 fd 3e 5b 47 c5 3d
       -0.67159396 -0.0064404043 0.49467975 0.096327506
0000f0 6a 9c cc 3d 41 3f 77 bd 68 56 eb 3d 86 ff 21 3e
       0.09990771 -0.060363058 0.1149109 0.1582013
000100 d9 11 22 3e f9 fd 3b 3d f7 cb 2d be 0c ec 40 be
       0.15827121 0.045896504 -0.16972338 -0.18840045
000110 3c 21 c5 3d cb 7b a2 3a 07 6e 47 3c 51 aa 3b bc
       0.096254796 0.0012396512 0.012172229 -0.011454181
000120 33 ee 6e 3e 33 4e 87 be fb ca 03 3e ab a0 e7 3d
       0.23333053 -0.2642685 0.128704 0.11309942
000130 74 a2 fe 3d c8 f4 fa bd e9 dd d6 bd 6f b9 8f 3d
       0.12433329 -0.122537196 -0.10491545 0.070177905
000140 4c 7f 93 bd 34 bd 2f 3e a8 24 ff 3d 23 b3 62 bd
       -0.07202014 0.17162019 0.124581635 -0.05534662
000150 0b 38 80 3e fe 5f 3b bd 46 3b ae bd bf 27 2d bf
       0.25042757 -0.045745842 -0.08507399 -0.6763877
000160 2d f0 9b bd 7c 5f 91 be 08 1f 0b be cf 25 8e 3b
       -0.07614169 -0.2839316 -0.13586056 0.004338003
000170 57 b3 71 3e 8a 7c ed bd 28 8d ba be a2 42 35 be
       0.23603569 -0.115960196 -0.3643582 -0.177012
000180 38 af 06 3d dc 7a 97 bd db 87 98 3e 03 2f 85 3e
       0.032881945 -0.073964804 0.2979115 0.2601243
000190 89 52 55 bd 17 ee 7e bd a3 4c 12 3e 02 c8 a0 3c
       -0.052080665 -0.06223878 0.14287047 0.019626621
0001a0 be bd bc bd 95 c8 6b 3e 42 7b 6f bd 33 e0 96 3e
       -0.09215878 0.23025735 -0.058467157 0.29467925
0001b0 c5 a8 6c 3e 88 3c a8 3d 80 f5 82 3e 53 18 3a be
       0.23111255 0.082146704 0.25577927 -0.18173341
0001c0 3d 46 21 3e 85 a3 02 be 3a 0b 21 be b3 57 99 bc
       0.1574945 -0.1275769 -0.15726939 -0.018718576
0001d0 13 9e 2b bd 88 9c 82 bc 49 d0 d6 3d 20 f6 20 bf
       -0.0418988 -0.01594378 0.10488946 -0.62875557
0001e0 c1 e1 4e be f9 0b 42 bf 79 01 fb bd 5d b2 f9 3d
       -0.20203306 -0.7579952 -0.1225614 0.12192223
0001f0 31 ba 30 be 26 06 14 bf 5b 47 02 bd 2b cd 8e be
       -0.17258526 -0.5782188 -0.03180633 -0.27890906
000200 56 bb 08 3e cd df 05 be 00 ba 92 3e dd bd f6 bd
       0.13352713 -0.13073654 0.28657532 -0.12047932
000210 cd a1 f6 3d d7 88 45 3e 4f a7 c6 bd b5 67 14 bf
       0.1204258 0.19290482 -0.0969988 -0.57970744
000220 78 a9 38 3e 5e b7 ad bd 5a c2 5d bf 2f e9 5c 3e
       0.18033397 -0.0848224 -0.8662468 0.21573327
000230 4c 94 0c be 42 23 c5 bc fa 17 d9 bd 48 fd 9a bd
       -0.13728446 -0.024064664 -0.10600276 -0.07567841
000240 43 b8 2b be d7 f9 f6 3e f3 6a 55 3d 16 0c d8 3c
       -0.16769509 0.48237488 0.052103948 0.02637295
000250 e5 8a a0 3e ef 9a 25 bd 74 6f 03 3e 2a 17 27 3e
       0.31355968 -0.04043096 0.12835485 0.1631743
000260 05 22 3a 3e e9 84 46 be d6 e9 98 bd e4 8b 14 bd
       0.1817704 -0.19386639 -0.07466476 -0.036266223
000270 52 96 5b 3d b9 ee c6 3d 59 66 e3 be b6 70 16 3e
       0.053610153 0.097135015 -0.44414023 0.14691433
000280 5f 83 e4 3e 0c a4 e9 be 0b 67 6c 3c 0f 58 d5 bd
       0.44631478 -0.4563297 0.014428864 -0.104171865
000290 5f 4d 2a 3e b4 14 70 3e 52 21 96 3d 3f b5 08 bf
       0.16631077 0.23445398 0.07330574 -0.5340156
0002a0 6b 86 0d be be 56 ef be 49 5d b8 3d b1 b9 11 bf
       -0.13820808 -0.46745867 0.09002168 -0.5692397
0002b0 77 65 8c bd 3a 63 cc bd a3 12 3e be d2 4a 0e bd
       -0.068552904 -0.099798635 -0.18561797 -0.034739323
0002c0 57 3a 91 3d 5c 7e aa 3d 4b ca 45 be 97 3a dc be
       0.070912056 0.083248824 -0.1931545 -0.4301345
0002d0 43 fc 1c bf 88 9f 03 bf 1c 69 ca 3e c3 2a 07 3e
       -0.6132242 -0.514153 0.39533317 0.13199906
0002e0 fb 57 85 be ab 7d 94 3d 4e 76 1a 3f ab a0 18 bd
       -0.26043686 0.07250532 0.6033677 -0.0372626
0002f0 be 04 be bb 03 4f 4a bd 0b 32 1e 3f 8a e3 f0 3c
       -0.005798905 -0.049391758 0.6179511 0.029405374
000300 53 e6 cd 3d 68 84 13 3d c5 db 5f be ad 53 13 bc
       0.100536965 0.036014944 -0.21861179 -0.008992118
000310 fd 34 95 3c 21 45 8c bd 68 87 06 3e 28 e2 45 3e
       0.018213743 -0.06849123 0.13137591 0.19324553
000320 e5 90 6b bc 44 fb 25 bd 91 d4 43 3e 7a 7f da bd
       -0.014377807 -0.04052283 0.19124056 -0.106688455
000330 24 d9 b1 3e 03 f4 67 3e 81 19 d5 bb cd 52 49 be
       0.34735978 0.22651677 -0.0065032844 -0.19660492
000340 4c 69 cd bc f0 ae 5d 3e 48 61 f3 3d f0 27 69 3e
       -0.025074624 0.21648765 0.11883789 0.22769141
000350 a2 32 6b 3e 30 5d 7b 3e 6a f0 39 be fd 14 e5 bd
       0.22968534 0.24547267 -0.18158117 -0.11185644
000360 1d 8f 46 3e d8 79 b7 3d 3e 0f 56 bb 1c 70 64 bd
       0.19390531 0.08958787 -0.0032662894 -0.05577098
000370 39 4e 35 3e 76 cd 2f 3e 63 e1 88 3d 70 91 ec 3d
       0.17705621 0.17168221 0.06683614 0.115511775
000380 ca 90 16 be 7f 74 b1 be 91 7f d3 3e 62 a7 0b 3d
       -0.1470367 -0.34659192 0.41308263 0.034095176
000390 b6 3f a1 3d ef 55 ec bc aa 1c b0 3c 7d f8 3f be
       0.0787348 -0.02884957 0.021498043 -0.18747135
0003a0 ac 5c fe bd 8f 26 03 bd 7a 4a a5 3d 42 3a 98 bc
       -0.124200195 -0.032019194 0.08070846 -0.018582467
0003b0 dd 07 62 3e cb d5 3a bd 69 f9 c1 3b a8 7b c3 bc
       0.22073312 -0.045614045 0.0059196246 -0.023862675
0003c0 85 fe 61 3d ba 12 bf 3d d1 47 49 be a8 d8 46 be
       0.05517437 0.09329744 -0.19656302 -0.19418585
0003d0 6a 13 05 be 35 0c 3a be e0 cd a0 3b 43 d6 a8 be
       -0.12995687 -0.18168719 0.0049073547 -0.3297597
0003e0 b3 68 8d 3e ff ae d8 be a0 1e cb bd c3 43 98 3e
       0.27618942 -0.4232101 -0.09917951 0.29739198
0003f0 9a 5b e1 3d 4a 51 db be d6 3c 74 bd ed e2 82 bd
       0.110038 -0.42835456 -0.05962833 -0.06390939

sequential/dense_2/MatMul f4 [1, 64]
000000 b8 aa 97 3f 81 94 ba be e3 d6 1f 3f bf 11 22 be
       1.1848974 -0.36441424 0.62437266 -0.15827082
000010 25 c8 85 bf 3e 8c 7a bf 0d 96 64 bf 7d 5c c2 be
       -1.0451704 -0.9787024 -0.8929146 -0.37961188
000020 ff 25 6c 3f 05 89 ad be 10 1a 51 3f 81 d5 3b 3f
       0.9224548 -0.338936 0.81680393 0.73372656
000030 39 e3 13 3f 5d c7 bb 3f 0b cb 9c be 6b 4f 05 bf
       0.5776859 1.4670216 -0.3062366 -0.5207431
000040 f3 e0 70 bf 12 df c8 be 9d 2b 58 3f d5 7c 24 3f
       -0.94093245 -0.3923269 0.8444155 0.6425298
000050 45 65 d9 be 54 d5 0f bf 3e ab 33 3e 02 2f d7 3e
       -0.42460075 -0.5618489 0.17545792 0.42028052
000060 56 df e6 be dc e0 a1 3f 65 a8 a0 be b2 b1 13 3f
       -0.45092267 1.2646747 -0.31378475 0.57693017
000070 96 cf b7 3f b9 46 30 3f 7b 23 af be dc 41 8c 3f
       1.4360225 0.68857914 -0.34206757 1.0957599
000080 2d 7d 36 3f bb 4b 0b bf 49 e3 f6 be d7 e3 a6 be
       0.71284753 -0.5441243 -0.4822028 -0.32595703
000090 85 ba 26 3f e8 f6 87 be 72 e9 87 bf bf ae 81 3f
       0.65128356 -0.26555562 -1.0618117 1.0131453
0000a0 dd 22 53 3f 2b b8 25 bf 61 fb 4e 3f 08 92 c5 3f
       0.8247507 -0.64734143 0.80852324 1.543519
0000b0 2c ef ae be e7 b9 23 3f 00 64 17 3f c7 e3 85 3f
       -0.3416685 0.6395554 0.5913696 1.0460137
0000c0 eb f4 cc be db 31 4d bf a9 34 75 bf f4 58 ad be
       -0.40030608 -0.801542 -0.9578348 -0.33856928
0000d0 e2 26 32 3f f8 ec 23 3f b3 81 51 3f 22 ea d2 be
       0.6959058 0.6403346 0.8183853 -0.41194254
0000e0 2b 94 bc bf 6e d7 20 bf 9f 98 68 bf fc a1 47 3f
       -1.4732717 -0.6282872 -0.9085788 0.77981544
0000f0 8c 3e 0c 3f 1c ab 8d bf b2 3c 04 bf 28 b3 8b be
       0.5478294 -1.1067843 -0.51655114 -0.27285123
