owlyshield_predict/models/model.tflite (tflite, 585636 bytes, 37 tensors)

sequential/dense/MatMul f4 [1, 80]
0.30002385 -0.105645396 -0.07166574 -0.2306839 0.27301848 -0.08122188 0.22382571 0.13503855
0.18774603 0.15084133 0.2872124 0.23587374 0.24534672 -0.2769571 0.0126911225 -0.17729934
0.12552817 -0.048204992 -0.25041056 0.18822215 -0.25912043 -0.13647929 0.15931532 0.19537045
0.18850322 0.22196445 0.2027992 0.2947307 0.14515841 -0.31422102 -0.04278862 -0.089501895
0.115457736 0.055203315 0.058487967 0.09594751 -0.26255873 0.16120937 0.067948036 -0.20978078
-0.2601278 0.13009217 -0.113668 0.1585181 -0.25537246 -0.034202777 0.25363153 -0.29612592
0.1453161 -0.17382537 0.11326328 -0.0053602858 -0.20990874 0.015294404 -0.104900844 0.29964566
-0.2773693 -0.016760118 -0.012997125 -0.12112108 0.19364023 0.14772415 0.25225082 -0.22012731
-0.09159709 0.0064873965 0.05546119 0.29065272 0.0372712 -0.256857 -0.033844613 -0.07525953
0.017596241 0.1577512 -0.05185899 0.2848761 0.30793363 -0.09561678 -0.31202474 -0.26366663
00000000: ba9c 993e 9d5c d8bd 7dc5 92bd 6638 6cbe
00000010: 14c9 8b3e a857 a6bd 9132 653e 8c47 0a3e
00000020: 7f40 403e 2676 1a3e 810d 933e e388 713e
00000030: 2c3c 7b3e 52cd 8dbe 6dee 4f3c f58d 35be
00000040: 758a 003e 9972 45bd d035 80be 4fbd 403e
00000050: 6fab 84be 3ac1 0bbe 8e23 233e 310f 483e
00000060: fd06 413e a64a 633e 98aa 4f3e f1e6 963e
00000070: 68a4 143e 94e1 a0be 1f43 2fbd c54c b7bd
00000080: 1b75 ec3d df1c 623d 1491 6f3d 2180 c43d
00000090: 196e 86be 1214 253e 5728 8b3d c6d0 56be
000000a0: 792f 85be e236 053e c5ca e8bd 9252 223e
000000b0: 2ec0 82be 3618 0cbd fedb 813e d19d 97be
000000c0: becd 143e 47ff 31be 94f6 e73d 56a5 afbb
000000d0: 51f2 56be 6195 7a3c 41d6 d6bd 286b 993e
000000e0: 5903 8ebe 844c 89bc e5f1 54bc 540e f8bd
000000f0: a049 463e 0045 173e 0527 813e 0e69 61be
00000100: 4197 bbbd 3a94 d43b 462b 633d 6fd0 943e
00000110: b0a9 183d c382 83be a6a0 0abd ab21 9abd
00000120: fe25 903c 8889 213e 186a 54bd 48db 913e
00000130: 7aa9 9d3e bbd2 c3bd b5c1 9fbe 50ff 86be

sequential/lstm/while/lstm_cell/MatMul_7 f4 [80, 80]
-0.10126974 0.056192033 0.06873461 0.13188656 -0.014920342 0.07337505 0.016091624 0.03481862
0.026509715 0.023163592 0.0017273726 0.082892746 -0.1077532 0.049646467 0.010579063 -0.04383698
-0.039197613 0.07096809 -0.05160245 -0.03609183 0.03091821 0.07406337 -0.021147758 -0.15185857
-0.073481515 0.017583335 -0.07258289 0.049045034 0.038832836 0.052640036 -0.026627049 -0.07749932
0.014597454 -0.14178221 -0.07782027 0.013492529 0.019057978 0.035521224 0.03341493 -0.0033544048
-0.0650981 -0.0125175305 0.041530985 -0.052393444 -0.044715367 -0.037612077 0.07719533 0.0024083585
-0.030607048 0.08715109 -0.0366412 -0.010257099 -0.087591685 -0.03455737 0.041088935 -0.007348649
-0.054582275 -0.074503265 0.03492552 -0.015681991 -0.018261606 -0.01977666 -0.022865623 0.016355816
0.049051102 -0.011730152 -0.021789044 0.08307266 0.024943247 -0.08962461 0.07957745 0.111340605
0.07730742 -0.052898925 0.02598271 0.10603426 -0.07616544 -0.023837587 0.03758891 -0.034746855
-0.11258297 0.109450184 0.02986387 0.05659592 0.06058656 -0.003411526 0.056690145 0.07899292
-0.030498939 0.0998277 0.008605211 0.014539206 -0.07171574 0.041890025 -0.025124667 0.05931205
0.017425708 0.065008156 -0.08171929 0.11358718 -0.02195825 -0.056856666 -0.002276578 0.05365567
-0.03078191 0.012731881 -0.07318322 0.013999956 0.066705644 0.013662304 -0.015737731 -0.037170455
0.11175451 -0.11713307 -0.02937185 -0.010816847 0.091955304 0.07997674 -0.047577444 -0.030607158
-0.026285538 -0.072494045 -0.062437978 0.003862153 0.06849505 0.08709589 0.08895074 0.069322444
0.041486174 0.0028755015 -0.03945915 0.0031574687 -0.0213442 0.025508579 -0.049347475 -0.029040515
-0.074310236 -0.04014758 0.12635337 0.013377551 0.10728289 -0.03216933 -0.022938 0.034108333
-0.019981485 -0.072644435 -0.012837145 -0.092598766 0.10765886 -0.03532538 0.05595423 -0.06844497
0.03870092 -0.004915195 0.0318792 0.03774212 -0.04332794 0.013426289 0.045666788 -0.0413428
0.019516945 -0.027139138 0.011081178 -0.010070695 0.0057589295 0.007981249 0.036315043 -0.0006702235
0.12117215 -0.037309077 0.012374035 -0.0395169 0.04456708 0.048756637 -0.0023957605 -0.0067539
0.007227168 -0.03301329 -0.0072702365 0.017515002 -0.04684325 0.08160771 -0.07267684 0.0417189
-0.016521545 -0.023579124 -0.054422475 -0.09689619 -0.0073592043 -0.028091472 0.074033014 0.091188595
-0.028786665 0.019696102 -0.05513807 -0.10629297 -0.06519911 0.0076796906 -0.05393048 -0.040289104
-0.0628746 0.08153752 0.0022847645 0.046176113 0.055045187 0.03503091 -0.0549696 0.04064718
0.017776925 -0.043027353 0.04138006 0.023535788 -0.062632725 0.0353621 -0.08582494 0.056589056
0.050324533 0.06770644 0.037781477 -0.06852407 0.00071851886 0.037940387 -0.07318296 0.027395995
0.041629966 0.023564473 0.048753038 0.04551576 -0.09727123 -0.055208437 -0.020583514 0.03460946
0.014029001 0.0007013986 -0.07571019 0.06654402 0.03694846 -0.118398674 0.059776604 -0.027107174
0.0049381 -0.027576365 0.021254385 0.063271314 0.030024532 0.03537482 -0.051242977 -0.039746266
0.06585436 0.002207792 0.046835843 -0.15749185 -0.09488325 0.03270415 -0.023612333 -0.08397769
00000000: 8266 cfbd 9e29 663d bbc4 8c3d 450d 073e
00000010: 7374 74bc a945 963d 95d2 833c f89d 0e3d
00000020: e72a d93c 93c1 bd3c 0269 e23a acc3 a93d
00000030: b6ad dcbd 185a 4b3d ce53 2d3c 688e 33bd
00000040: ad8d 20bd b857 913d 175d 53bd 07d5 13bd
00000050: 3048 fd3c 89ae 973d 103e adbc d080 1bbe
00000060: 7a7d 96bd ed0a 903c 57a6 94bd 72e3 483d
00000070: 2e0f 1f3d 149d 573d f820 dabc f7b7 9ebd
00000080: 292a 6f3c 5b2f 11be 3c60 9fbd c50f 5d3c
00000090: 7a1f 9c3c b47e 113d 18de 083d 93d5 5bbb
000000a0: 2752 85bd 5416 4dbc 651c 2a3d 829a 56bd
000000b0: 7627 37bd 1f0f 1abd 9618 9e3d 8dd5 1d3b
000000c0: a2bb fabc 457c b23d 1515 16bd 640d 28bc
000000d0: 4563 b3bd 078c 0dbd df4c 283d f0cc f0bb
000000e0: aa91 5fbd 2b95 98bd 100e 0f3d 8577 80bc
000000f0: 5d99 95bc a902 a2bc b050 bbbc a2fc 853c
00000100: cfe9 483d d32f 40bc f07e b2bc 0022 aa3d
00000110: c855 cc3c 1c8d b7bd 81f9 a23d 8b06 e43d
00000120: 5a53 9e3d 8bac 58bd b1d9 d43c 7d28 d93d
00000130: a0fc 9bbd 0b47 c3bc d4f6 193d b852 0ebd
00000140: e691 e6bd 6b27 e03d 13a5 f43c 20d1 673d
00000150: 9d29 783d e993 5fbb ed33 683d 0ac7 a13d
00000160: e9d8 f9bc 7772 cc3d dffc 0c3c da35 6e3c
00000170: b4df 92bd e094 2b3d 3fd2 cdbc 31f1 723d
00000180: 5cc0 8e3c ff22 853d 715c a7bd 65a0 e83d
00000190: cae1 b3bc 89e2 68bd a432 15bb 0cc6 5b3d
000001a0: 582a fcbc 6199 503c 16e1 95bd 1260 653c
000001b0: f89c 883d dbd7 5f3c 6aec 80bc 0c40 18bd
000001c0: 8cdf e43d 77e3 efbd 3c9d f0bc 2539 31bc
000001d0: 1053 bc3d d8ca a33d 91e0 42bd ddbb fabc
000001e0: c554 d7bc c277 94bd f7be 7fbd 2d1c 7d3b
000001f0: 2247 8c3d 545f b23d ce2b b63d edf8 8d3d
00000200: 68ed 293d e972 3c3b eb9f 21bd 89ed 4e3b
00000210: 08da aebc 5ef7 d03c 9420 4abd 60e6 edbc
00000220: f72f 98bd ca71 24bd c762 013e 842d 5b3c
00000230: 22b7 db3d fdc3 03bd 79e8 bbbc 2eb5 0b3d
00000240: 36b0 a3bc 9bc6 94bd e352 52bc 6ca4 bdbd
00000250: 407c dc3d 58b1 10bd 4330 653d e02c 8cbd
00000260: db84 1e3d a50f a1bb c493 023d 7b97 1a3d
00000270: a378 31bd f0f9 5b3c 190d 3b3d 1157 29bd
00000280: 00e2 9f3c e652 debc d48d 353c 8eff 24bc
00000290: 67b5 bc3b c9c3 023c 15bf 143d f0b1 2fba
000002a0: 1b29 f83d 67d1 18bd 77bc 4a3c 79dc 21bd
000002b0: f88b 363d 0ab5 473d 3102 1dbb d24f ddbb
000002c0: e1d1 ec3b f238 07bd 2a3b eebb 9f7b 8f3c
000002d0: b5de 3fbd f121 a73d 98d7 94bd 70e1 2a3d
000002e0: 3158 87bc 0229 c1bc 1aea 5ebd 8271 c6bd
000002f0: 7b25 f1bb 1620 e6bc 9f9e 973d 16c1 ba3d
00000300: 03d2 ebbc b859 a13c 75d8 61bd 21b0 d9bd
00000310: 1c87 85bd eaa5 fb3b 35e6 5cbd 3006 25bd
00000320: 66c4 80bd 25fd a63d fdbb 153b 2a23 3d3d
00000330: 1077 613d 927c 0f3d ce27 61bd a87d 263d
00000340: eaa0 913c 733d 30bd 237e 293d 20ce c03c
00000350: 9645 80bd d9d7 103d fcc4 afbd edc9 673d
00000360: 1921 4e3d ada9 8a3d c0c0 1a3d 5956 8cbd
00000370: fc5a 3c3a 6167 1b3d f3e0 95bd 916d e03c
00000380: 2f84 2a3d 480a c13c 44b1 473d bc6e 3a3d
00000390: 2336 c7bd 3e22 62bd c29e a8bc a6c2 0d3d
000003a0: e5d9 653c 10de 373a f20d 9bbd 3b48 883d
000003b0: 4557 173d 017b f2bd 50d8 743d dd0f debc
000003c0: c9cf a13b d4e7 e1bc ad1d ae3c 6494 813d
000003d0: 02f6 f53c 30e5 103d 28e4 51bd fbcc 22bd
000003e0: a7de 863d 9ab0 103b f1d6 3f3d 8b45 21be
000003f0: 2652 c2bd c9f4 053d a76e c1bc 7ffc abbd

sequential/lstm/while/lstm_cell/MatMul_6 f4 [80, 80]
0.05748906 0.10033985 0.06481281 -0.053026605 0.01225914 0.11824105 0.053323183 0.06232165
0.013925371 0.07496638 -0.07709546 0.082503 -0.058683038 0.014294373 -0.04703831 0.023165165
0.004174612 -0.08928083 -0.11960571 -0.062127534 0.033953585 -0.018381106 0.033050492 -0.024875414
-0.06677541 0.09075973 0.05081041 0.05207185 -0.027650008 0.042287644 -0.059984334 0.04920525
0.022069298 -0.0518805 0.037947446 -0.103810355 0.037345428 -0.004956637 -0.045931857 0.028310835
0.040524174 -0.018032674 0.018116914 -0.051242445 -0.050041184 -0.074586436 -0.05546711 -0.0045255595
0.079481915 -0.06418732 -0.009098344 -0.029610978 0.05250854 -0.047016717 -0.00096791686 -0.0022785505
-0.107329994 -0.040991735 -0.02719056 -0.07392253 -0.090328485 -0.0764256 0.025376478 -0.004635573
-0.094869666 0.09213935 0.0450203 -0.047351945 -0.03275396 -0.0017289055 0.045446884 -0.060170017
0.0135656735 0.03408461 0.070087485 -0.008826978 0.0023908212 0.015854752 -0.057618335 -0.0098229395
0.010470488 0.006847705 -0.020962764 -0.061493132 0.038887773 0.03347893 0.0468604 0.05992823
0.020628665 0.038890112 -0.029252127 0.054419994 -0.037056483 0.010055575 -0.12411355 -0.017424542
0.09398986 0.07872086 0.017002877 -0.11105526 0.10796823 -0.035857394 0.0357906 0.011491918
0.02253724 -0.049014505 0.1231832 -0.03367162 0.041705847 0.03412427 -0.009233274 -0.082717
0.08064094 0.13853379 -0.05292651 -0.01993287 0.09328836 -0.025169618 -0.009125648 -0.065529466
0.029796014 0.10267642 -0.011360999 0.05664934 0.032078717 0.017853398 -0.076123826 -0.09915964
0.14714563 -0.015230078 -0.06699838 0.07573828 -0.0023912415 -0.0130875185 -0.022417845 -0.07126018
0.035041768 -0.10722517 0.07234605 -0.041094188 -0.05177595 -0.06465517 0.046102826 -0.008389186
-0.08332944 -0.10124409 -0.11410109 0.058817517 -0.04718843 -0.08882598 0.036582466 -0.0006566824
0.020168114 0.0015353955 -0.021647897 -0.048287038 -0.0052412637 0.0112322075 -0.018141402 -0.058497306
0.10325781 0.016837746 -0.067323744 -0.029526586 0.10228856 -0.040575135 -0.08750671 0.030054016
0.025860183 -0.033076167 -0.089660496 -0.031285096 0.014011088 0.053060006 -0.05520645 0.00024817488
0.045546252 0.031289585 0.014497346 0.059311684 -0.0058712913 0.030559048 -0.067336455 0.015772263
-0.04431377 0.04593961 0.04373325 0.02684152 0.01472621 -0.11136359 0.020223467 0.07175204
0.047679175 -0.050997913 -0.03426345 -0.008365604 -0.0587196 -0.07615585 -0.024030264 -0.044144507
-0.008077239 0.09975481 0.0010478869 0.0058508585 -0.010869053 -0.09863053 -0.048272625 0.06668599
0.034775533 0.02508402 0.059035085 0.055986572 0.0055435537 -0.025153572 0.019267188 -0.018571444
-0.039242584 -0.10162469 -0.109603554 -0.10165186 0.0951875 -0.07848633 -0.036155965 0.045526393
0.091038115 0.05457217 0.11389386 -0.026633661 -0.0029797135 -0.023058942 -0.0573408 0.029826391
0.0037401952 -0.08753301 0.037357245 0.0736982 -0.0039353073 0.002672866 -0.01987121 0.053386044
0.017434103 -0.06929006 -0.0115722595 0.002996803 0.062622085 -0.01923791 -0.067235686 0.043256365
0.06402022 0.0617834 -0.05247308 -0.022204403 -0.07840049 0.0052674543 -0.060500372 -0.12199205
00000000: a679 6b3d fb7e cd3d 94bc 843d 6d32 59bd
00000010: 8fda 483c 5d28 f23d 6969 5a3d fd44 7f3d
00000020: 3d27 643c f987 993d 39e4 9dbd 55f7 a83d
00000030: a05d 70bd f232 6a3c 3eab 40bd dfc4 bd3c
00000040: 2fcb 883b ded8 b6bd d7f3 f4bd 7179 7ebd
00000050: ea12 0b3d f993 96bc f45f 073d 86c7 cbbc
00000060: 8cc1 88bd 3de0 b93d 941e 503d 4b49 553d
00000070: 4582 e2bc cf35 2d3d 22b2 75bd 728b 493d
00000080: acca b43c a680 54bd c86e 1b3d 869a d4bd
00000090: 85f7 183d 496b a2bb 0b23 3cbd 20ec e73c
000000a0: adfc 253d 42b9 93bc ec69 943c 99e3 51bd
000000b0: fcf7 4cbd c6c0 98bd 7b31 63bd 254b 94bb
000000c0: 6ac7 a23d a474 83bd 3811 15bc b992 f2bc
000000d0: 3213 573d 9a94 40bd cdbb 7dba bc53 15bb
000000e0: d4cf dbbd f3e6 27bd bdbe debc b264 97bd
000000f0: 24fe b8bd 0685 9cbd 55e2 cf3c 01e6 97bb
00000100: 074b c2bd 8eb3 bc3d 3567 383d 1df4 41bd
00000110: 0429 06bd 719c e2ba 8326 3a3d d674 76bd
00000120: 8f42 5e3c 4e9c 0b3d 078a 8f3d 079f 10bc
00000130: 53af 1c3b d3e1 813c 3401 6cbd 65f0 20bc
00000140: 698c 2b3c b762 e03b 1aba abbc 39e0 7bbd
00000150: c948 1f3d 3421 093d b1f0 3f3d 4e77 753d
00000160: 72fd a83c 3d4b 1f3d 28a2 efbc 80e7 5e3d
00000170: 8ac8 17bd 23c0 243c 3f2f febd eabd 8ebc
00000180: c17d c03d 6738 a13d 9e49 8b3c f170 e3bd
00000190: 731e dd3d 34df 12bd 2a99 123d 9948 3c3c
000001a0: 05a0 b83c 6fc3 48bd 7947 fc3d 41eb 09bd
000001b0: c0d3 2a3d e4c5 0b3d 2847 17bc 8867 a9bd
000001c0: 1427 a53d cddb 0d3e 78c9 58bd 424a a3bc
000001d0: f80d bf3d 8430 cebc be83 15bc 5034 86bd
000001e0: c516 f43c 0448 d23d 7c23 3abc 2309 683d
000001f0: f964 033d 4a41 923c cfe6 9bbd 3614 cbbd
00000200: 58ad 163e 9487 79bc 7236 89bd ac1c 9b3d
00000210: 60b6 1cbb 086d 56bc a1a5 b7bc dbf0 91bd
00000220: f587 0f3d df98 dbbd 2a2a 943d 6152 28bd
00000230: 0513 54bd ee69 84bd 51d6 3c3d cc72 09bc
00000240: a0a8 aabd 1059 cfbd d5ad e9bd a3ea 703d
00000250: a848 41bd 65ea b5bd 7fd7 153d 3625 2cba
00000260: 9a37 a53c 533f c93a ee56 b1bc a1c8 45bd
00000270: e8be abbb 4b07 383c 479d 94bc df9a 6fbd
00000280: d578 d33d 50ef 893c 08e1 89bd bde1 f1bc
00000290: aa7c d13d 1d32 26bd b836 b3bd d733 f63c
000002a0: bcd8 d33c e07a 07bd ec9f b7bd cd24 00bd
000002b0: c38e 653c 7355 593d 2920 62bd 781d 8239
000002c0: b58e 3a3d 8229 003d 4786 6d3c cff0 723d
000002d0: f663 c0bb f856 fa3c b2e7 89bd d534 813c
000002e0: 5b82 35bd 2c2b 3c3d a321 333d bfe2 db3c
000002f0: 3446 713c 9812 e4bd afab a53c bcf2 923d
00000300: 3d4b 433d 30e3 50bd d557 0cbd e30f 09bc
00000310: f783 70bd 99f7 9bbd 1edb c4bc dfd0 34bd
00000320: 6556 04bc 404c cc3d 4059 893a 8fb8 bf3b
00000330: 1d14 32bc cefe c9bd 84b9 45bd aa92 883d
00000340: ca70 0e3d 017d cd3c c6ce 713d 2d52 653d
00000350: b3a6 b53b dd0e cebc 39d6 9d3c 2423 98bc
00000360: d5bc 20bd 9b20 d0bd d477 e0bd da2e d0bd
00000370: aaf1 c23d 71bd a0bd 4718 14bd e279 3a3d
00000380: 3172 ba3d 1187 5f3d 2f41 e93d d62e dabc
00000390: 4c47 43bb 1be6 bcbc 30de 6abd 7a56 f43c
000003a0: 101e 753b 8244 b3bd e903 193d 15ef 963d
000003b0: c0f3 80bb 402b 2f3b f3c8 a2bc 53ab 5a3d
000003c0: f7d1 8e3c f2e7 8dbd 9399 3dbc 0366 443b
000003d0: 0240 803d d298 9dbc ddb2 89bd 962d 313d
000003e0: 081d 833d 9710 7d3d 03ee 56bd 02e6 b5bc
000003f0: 7090 a0bd 9c9a ac3b 3dcf 77bd f8d6 f9bd

sequential/lstm/while/lstm_cell/MatMul_5 f4 [80, 80]
-0.10259646 -0.019768663 0.06817392 0.077714354 0.01928114 0.035892837 -0.08231795 0.013986904
0.1289608 0.017729029 0.113637075 -0.09493321 0.1501066 -0.0030288326 0.0007034006 -0.015587916
0.055876024 0.08020022 0.07403237 -0.029078275 -0.018307975 0.033954915 0.009931168 0.0038835444
0.010856216 -0.008060267 0.0022659895 -0.0798013 0.035050273 -0.05748159 0.056867268 -0.08489381
-0.04813267 -0.02415902 0.061962932 0.013189194 0.017580735 0.08339734 0.04036147 -0.06500404
-0.032171797 -0.022041952 -0.00971955 -0.0016038455 0.0075208438 -0.085050255 0.05356473 -0.011765109
-0.12297508 -0.07381327 -0.030575426 -0.045228705 0.031283755 -0.020962114 0.049966928 0.003162348
0.10968762 0.0108155385 0.040531673 0.08132803 -0.102393776 0.038714644 0.03493145 0.07239969
-0.123052604 0.008028848 0.005969715 -0.055785596 0.042682584 0.083467536 0.107866645 -0.06408079
-0.004938386 -0.0012926157 0.0048035095 -0.047832772 -0.03516518 0.10559404 0.051290642 -0.024994126
0.08443068 -0.0109271 -0.039807778 -0.05013454 0.009357976 0.033173155 0.05000411 -0.037128396
0.06811244 0.06429441 -0.05927217 -0.045023426 -0.093872584 -0.009864925 0.0013992056 0.016868692
0.09309356 -0.03377339 0.089817025 0.16919771 0.01585036 0.024853444 -0.011299316 0.0035044195
0.058600523 0.0120050255 -0.059346728 0.006515576 0.063158706 -0.016951947 0.0115749 -0.025251534
-0.041170333 0.048625614 0.014190986 -0.015068625 -0.07490825 0.022887586 0.10504698 -0.0031661382
0.033496857 -0.08176991 -0.007961051 0.031599954 -0.090315394 -0.076425835 0.06491311 0.019533558
0.052480925 -0.046380613 -0.0030690995 0.11203975 -0.0019902396 0.17003332 -0.06155626 0.0104359
0.031523995 -0.010746259 0.1526256 0.012400367 0.07714706 0.117481105 0.066151164 0.09188319
-0.010712223 -0.063641325 0.07287377 -0.0014147774 -0.012245521 0.05093219 -0.0037119624 -0.027788393
-0.014291085 0.077585064 0.01660732 -0.030884556 0.055739842 0.011217135 0.046673723 -0.08905513
0.097139396 0.010289818 -0.079701215 0.061715063 -0.07913022 2.032658e-05 0.020242093 -0.026798224
-0.05603666 -0.026917826 -0.017119065 0.03806057 0.055031396 -0.038916975 0.09120353 -0.0050313133
-0.055006888 -0.0024374747 -0.07116016 -0.06964246 -0.015747963 0.03085547 0.020629374 -0.011370615
-0.06686711 -0.0074622687 0.013578762 0.012532856 -0.048462138 -0.07809951 0.0037751407 0.017300827
0.068755694 0.13172162 0.06115724 0.015590897 -0.07784697 0.02532719 -0.044368614 -0.01579567
-0.044699114 -0.026044095 -0.02568335 0.03507908 -0.10575804 0.024147619 -0.016882887 -0.033400513
0.055895418 -0.06856956 0.025702912 -0.03329143 0.02978535 0.04992632 -0.061383795 -0.02566757
-0.055184487 0.10986573 -0.03725323 0.053124618 0.060686916 -0.040203754 -0.14130257 -0.016843976
0.07460094 0.014364036 -0.034218 0.02751305 -0.013979601 -0.04805971 -0.030168157 -0.16687475
0.029723816 0.033763833 -0.0077806446 0.04650727 -0.008307224 0.08030433 0.057143327 0.036139697
-0.08379788 0.058398474 -0.017915076 -0.024359424 0.05451568 -0.056949113 0.041876208 -0.057888217
0.053505875 0.029712966 0.010955915 -0.010304163 0.09838302 -0.07537658 0.020436134 -0.041843835
00000000: 181e d2bd e4f1 a1bc c59e 8b3d b428 9f3d
00000010: 7bf3 9d3c 5e04 133d 5096 a8bd 5429 653c
00000020: 4d0e 043e 783c 913c 8eba e83d 586c c2bd
00000030: 8bb5 193e 617f 46bb 6a64 383a 7564 7fbc
00000040: 42de 643d 0340 a43d 489e 973d 9035 eebc
00000050: 9bfa 95bc 4f14 0b3d 56b6 223c 1083 7e3b
00000060: 45de 313c 360f 04bc ff80 143b dd6e a3bd
00000070: e090 0f3d d171 6bbd a7ed 683d cedc adbd
00000080: c326 45bd 23e9 c5bc d8cc 7d3d 7d17 583c
00000090: 7905 903c 39cc aa3d 1252 253d d720 85bd
000000a0: 93c6 03bd 5391 b4bc bf3e 1fbc 2038 d2ba
000000b0: 6971 f63b d42e aebd b166 5b3d 72c2 40bc
000000c0: 5cda fbbd 692b 97bd 5179 fabc bc41 39bd
000000d0: 6523 003d bdb8 abbc 1faa 4c3d 653f 4f3b
000000e0: e7a3 e03d a833 313c 8a04 263d 4f8f a63d
000000f0: d4b3 d1bd 3f93 1e3d 4814 0f3d 4a46 943d
00000100: 0103 fcbd 6e8b 033c 999d c33b 707f 64bd
00000110: efd3 2e3d 07f1 aa3d 30e9 dc3d ca3c 83bd
00000120: 2fd2 a1bb fc6c a9ba c266 9d3b 4cec 43bd
00000130: 5d09 10bd b041 d83d 2316 523d 7bc0 ccbc
00000140: fee9 ac3d 9407 33bc 7b0d 23bd e059 4dbd
00000150: 3252 193c 93e0 073d 1cd1 4c3d f213 18bd
00000160: 897e 8b3d caac 833d 60c7 72bd 7c6a 38bd
00000170: 4540 c0bd 7fa0 21bc 8d65 b73a 3630 8a3c
00000180: d6a7 be3d f755 0abd fdf1 b73d 2a42 2d3e
00000190: 9dd8 813c 7399 cb3c c420 39bc 67aa 653b
000001a0: 1a07 703d bab0 443c 8e15 73bd 9d80 d53b
000001b0: 5a59 813d cfde 8abc a6a4 3d3c 4edc cebc
000001c0: 39a2 28bd a72b 473d 4f81 683c 65e2 76bc
000001d0: 7f69 99bd bf7e bb3c df22 d73d fc7e 4fbb
000001e0: 0034 093d fc76 a7bd 116f 02bc f46e 013d
000001f0: 47f7 b8bd 2685 9cbd 2af1 843d d704 a03c
00000200: 3df6 563d 99f9 3dbd f222 49bb 1975 e53d
00000210: ae6e 02bb 371d 2e3e 6b22 7cbd 56fb 2a3c
00000220: 4e1f 013d 1411 30bc e349 1c3e e92a 4b3c
00000230: 47ff 9d3d ef99 f03d 437a 873d 412d bc3d
00000240: 5282 2fbc 6256 82bd d83e 953d 0d70 b9ba
00000250: 70a1 48bc 469e 503d 6544 73bb 7ca4 e3bc
00000260: 2825 6abc ebe4 9e3d 130c 883c 9c01 fdbc
00000270: 764f 643d 13c8 373c f22c 3f3d 8962 b6bd
00000280: 05f1 c63d a096 283c 643a a3bd efc8 7c3d
00000290: 060f a2bd 0083 aa37 bfd2 a53c f387 dbbc
000002a0: b286 65bd c682 dcbc 483d 8cbc 66e5 1b3d
000002b0: 9a68 613d 6867 1fbd ebc8 ba3d b7dd a4bb
000002c0: e74e 61bd 0abe 1fbb 6bbc 91bd b5a0 8ebd
000002d0: df01 81bc 9cc4 fc3c effe a83c d14b 3abc
000002e0: a0f1 88bd 0c86 f4bb 7579 5e3c 9c56 4d3c
000002f0: 3c80 46bd a3f2 9fbd 5a68 773b 77ba 8d3c
00000300: c9cf 8c3d 08e2 063e 0480 7a3d f670 7f3c
00000310: 3b6e 9fbd f87a cf3c ddbb 35bd ec65 81bc
00000320: 6b16 37bd 6d5a d5bc e465 d2bc 15af 0f3d
00000330: ac97 d8bd 3ad1 c53c fb4d 8abc face 08bd
00000340: 98f2 643d 336e 8cbd ea8e d23c 985c 08bd
00000350: 6800 f43c 8a7f 4c3d 936d 7bbd cc44 d2bc
00000360: 2109 62bd 4901 e13d d896 18bd 3399 593d
00000370: d892 783d b1ac 24bd 9fb1 10be 61fc 89bc
00000380: 61c8 983d 2257 6b3c 2c28 0cbd 0c63 e13c
00000390: b20a 65bc 42da 44bd 3623 f7bc 37e1 2abe
000003a0: 5c7f f33c f24b 0a3d c7f4 febb 687e 3e3d
000003b0: 061b 08bc 9976 a43d 1f0f 6a3d 3807 143d
000003c0: 399e abbd 3d33 6f3d a3c2 92bc 6a8d c7bc
000003d0: d54b 5f3d 7943 69bd 6386 2b3d 321c 6dbd
000003e0: fa28 5b3d 9b68 f33c 7080 333c cbd2 28bc
000003f0: 097d c93d 095f 9abd ae69 a73c 7164 2bbd

sequential/lstm/while/lstm_cell/MatMul_4 f4 [80, 80]
-0.15047437 0.015364142 -0.03119371 -0.04839449 0.055818725 -0.09673142 -0.046868 0.027454356
0.043721665 -0.004333421 -0.018794728 0.010696006 0.004100427 0.055798203 0.05955191 -0.019394958
0.013103404 -0.009509431 -0.06379109 -0.11340959 0.15972398 -0.12344338 0.044367976 -0.00337282
-0.019626375 0.034311846 0.049597804 -0.034317933 -0.10387199 -0.030255428 0.0018902138 -0.1082294
-0.11081738 -0.07670851 -0.063737586 -0.036775146 0.03344244 0.030414792 0.018295025 0.013004661
-0.0126697365 -0.06977805 0.0230394 -0.052649554 0.03115414 -0.034130458 0.05637804 -0.02346916
0.099338464 0.052033193 -0.022348216 -0.06723473 0.05036162 0.053697214 0.05190331 0.06376581
-0.07264988 -0.027025208 -0.03741052 -0.0048972922 -0.01781003 -0.014813694 0.050955668 0.08680211
0.06413001 0.11954929 0.006047049 -0.08340173 0.019119743 -0.0066600717 0.04474446 0.08984159
0.021966603 -0.01954269 -0.015794365 0.010909889 -0.00079312926 0.09494321 0.0036822131 -0.045687076
-0.046521552 -0.021294784 -0.019605275 0.10338859 -0.015397454 0.0059975833 -0.022342874 -0.018907312
-0.08287931 0.015864871 -0.040291656 0.07261227 -0.11377111 -0.053411763 -0.036489356 -0.06512022
0.037610836 -0.113565594 0.08791654 -0.07824454 -0.01926553 0.017127609 0.100407526 -0.00081092224
-0.024825478 0.038217884 0.014287616 0.006140645 0.03899162 0.0074620144 0.00391098 -0.09499444
-0.0034740851 0.030882675 -0.13388355 -0.0571465 0.13605505 0.08721892 0.03972247 0.030461706
0.028484287 -0.062633686 0.05108839 0.0009486726 -0.13097425 0.026007054 -0.0761002 -0.04523951
-0.033706095 0.099323496 -0.07276417 0.013070834 -0.06415896 0.025264578 0.099278465 0.023403915
-0.0597764 0.026616778 0.11117037 -0.03588646 -0.002500262 0.007821571 -0.1115542 0.063467264
0.078209996 -0.014382816 -0.038591687 -0.0645121 -0.032625332 -0.023033816 0.03401737 -0.101283975
-0.07425619 -0.007367771 0.053542867 0.0686202 -0.005193462 0.09002345 -0.10048667 -0.049767062
-0.0045110956 0.06661937 -0.038562756 0.08590375 -0.01419174 0.018086417 0.0330216 -0.10879011
-0.040315658 0.008284589 -0.012598118 -0.019265592 -0.043708585 -0.048018817 -0.09964572 -0.0799917
0.060367905 0.05579454 -0.0577605 0.08239883 0.048279934 0.040720955 -0.040546354 -0.0155211855
0.029614478 -0.08231414 -0.016288761 -0.12057413 -0.102824956 0.05513454 0.002026401 0.05490597
-0.012317823 0.015652517 0.0335116 -0.06978796 -0.050711658 0.06121765 -0.029995319 -0.08768182
0.024206359 0.025500914 -0.004438941 0.028225737 0.0061299778 0.009114408 -0.045925003 0.02089412
-0.022932446 -0.13895643 0.05217265 -0.048995342 -0.07613265 0.007202943 0.04031698 -0.018766431
-0.0046708877 -0.003051293 -0.0030797308 0.03533078 -0.07621624 0.059417263 -0.010654282 0.0032107523
-0.025752436 0.009610824 0.03991242 -0.011967793 -0.022499789 0.035007693 -0.0020471062 0.03448777
-0.009553014 0.004322281 -0.03388405 0.045875486 0.052299097 0.012846867 0.17541374 0.0156181585
-0.038553495 0.01618083 0.02120739 -0.12637515 -0.060837816 -0.05995928 0.1320958 0.06980377
-0.0056750323 -0.02662049 0.039628264 -0.05699182 -0.09775606 -0.114351235 -0.0059288894 -0.010006561
00000000: f415 1abe e2b9 7b3c f489 ffbc 4d39 46bd
00000010: 2da2 643d 1f1b c6bd a9f8 3fbd f5e7 e03c
00000020: 7d15 333d 5fff 8dbb 67f7 99bc 4d3e 2f3c
00000030: e05c 863b a88c 643d b4ec 733d 2de2 9ebc
00000040: a9af 563c 72cd 1bbc e7a4 82bd 4a43 e8bd
00000050: af8e 233e e2cf fcbd 32bb 353d 880a 5dbb
00000060: 7ec7 a0bc 948a 0c3d 1127 4b3d f690 0cbd
00000070: d7ba d4bd 3bda f7bc 0dc1 f73a 60a7 ddbd
00000080: 39f4 e2bd 5a19 9dbd da88 82bd 89a1 16bd
00000090: f1fa 083d 7128 f93c 73df 953c 8011 553c
000000a0: ba94 4fbc cbe7 8ebd 20bd bc3c 0fa7 57bd
000000b0: f836 ff3c 61cc 0bbd a9ec 663d 6542 c0bc
000000c0: f771 cb3d c220 553d 9b13 b7bc 5db2 89bd
000000d0: fc47 4e3d 9cf1 5b3d 9198 543d a697 823d
000000e0: 76c9 94bd f863 ddbc c63b 19bd 7779 a0bb
000000f0: 57e6 91bc 23b5 72bc e4b6 503d 4ec5 b13d
00000100: 9856 833d 42d6 f43d 5326 c63b 87ce aabd
00000110: 02a1 9c3c bb3c dabb f845 373d defe b73d
00000120: 4ef3 b33c fe17 a0bc 2f63 81bc 64bf 323c
00000130: 01ea 4fba 9671 c23d 4951 713b 5f22 3bbd
00000140: 628d 3ebd 6672 aebc 3e9b a0bc 66bd d33d
00000150: 9a45 7cbc 6087 c43b 6708 b7bc 82e3 9abc
00000160: a1bc a9bd 0cf7 813c dd08 25bd beb5 943d
00000170: d400 e9bd 4bc6 5abd dd75 15bd c05d 85bd
00000180: d20d 1a3d 1495 e8bd 960d b43d ac3e a0bd
00000190: bfd2 9dbc 334f 8c3c 76a2 cd3d 1294 54ba
000001a0: cd5e cbbc 5b8a 1c3d 9b16 6a3c 7737 c93b
000001b0: adb5 1f3d ea83 f43b ae27 803b 728c c2bd
000001c0: 7aad 63bb aafd fc3c c518 09be 7312 6abd
000001d0: 0452 0b3e d59f b23d 07b4 223d d48a f93c
000001e0: e157 e93c 1746 80bd 0f42 513d 57b0 783a
000001f0: 1d1e 06be bf0c d53c 6cda 9bbd 104d 39bd
00000200: 670f 0abd 1e6a cb3d 6205 95bd 0d27 563c
00000210: c665 83bd a9f7 ce3c 8252 cb3d 91b9 bf3c
00000220: 19d8 74bd 6e0b da3c 4aad e33d aefd 12bd
00000230: 70db 23bb 0c26 003c 8776 e4bd 20fb 813d
00000240: 902c a03d e7a5 6bbc 5112 1ebd eb1e 84bd
00000250: 24a2 05bd 6ab1 bcbc cc55 0b3d f96d cfbd
00000260: a113 98bd 586d f1bb c44f 5b3d bf88 8c3d
00000270: eb2d aabb 375e b83d f5cb cdbd 8cd8 4bbd
00000280: d0d1 93bb bc6f 883d fbf3 1dbd 4eee af3d
00000290: 7984 68bc f729 943c a841 073d 59cd debd
000002a0: 0822 25bd 16bc 073c 5668 4ebc e0d2 9dbc
000002b0: c607 33bd 61af 44bd 0e13 ccbd b0d2 a3bd
000002c0: 5644 773d d188 643d 4696 6cbd b8c0 a83d
000002d0: 2ec1 453d 04cb 263d ef13 26bd 924c 7ebc
000002e0: 109a f23c 5194 a8bd 0270 85bc 92ef f6bd
000002f0: e495 d2bd c1d4 613d 5ecd 043b 15e5 603d
00000300: b2d0 49bc b539 803c 7643 093d fdec 8ebd
00000310: 07b7 4fbd 5cbf 7a3d beb8 f5bc 8792 b3bd
00000320: 6a4c c63c 4be7 d03c 8974 91bb a939 e73c
00000330: fbdd c83b 9954 153c db1b 3cbd 252a ab3c
00000340: d3dc bbbc 984a 0ebe fdb2 553d 57af 48bd
00000350: 6feb 9bbd aa06 ec3b 6b23 253d 0fbc 99bc
00000360: 3f0e 99bb 34f8 47bb 4fd5 49bb 02b7 103d
00000370: 4317 9cbd 845f 733d 4c8f 2ebc 7c6b 523b
00000380: c6f6 d2bc b876 1d3c 357b 233d 9014 44bc
00000390: 7a51 b8bc 3a64 0f3d be28 06bb 0c43 0d3d
000003a0: 3f84 1cbc eca1 8d3b 00ca 0abd efe7 3b3d
000003b0: 9437 563d aa7b 523c a99f 333e 4ee3 7f3c
000003c0: 45ea 1dbd a98d 843c 1fbb ad3c 7d68 01be
000003d0: 1331 79bd dd97 75bd 1f44 073e 47f5 8e3d
000003e0: 9ff5 b9bb 3713 dabc 3f51 223d 4170 69bd
000003f0: 5434 c8bd fb30 eabd 2147 c2bb 8ff2 23bc

sequential/lstm/while/lstm_cell/split_1 f4 [80]
0.02344595 0.018363269 0.015311203 0.021512154 0.010620012 0.0171355 -0.008574977 -0.0033526726
0.016806263 0.0029963746 0.01790624 0.019220635 0.00480848 -0.0018529954 -0.0001944234 0.017008381
0.018424904 -0.013375155 0.0033304524 0.0062302556 -0.019418765 0.0111067705 -0.02548519 0.02400999
0.029396355 0.023580192 0.021323124 -0.0021497007 0.0022858996 0.007098525 -0.0016023424 0.003103751
0.009703974 0.015684826 -0.021223363 0.036714595 -0.012035738 -0.0033395973 0.009053229 0.001653057
0.012989682 0.007622186 -0.018081231 -0.0018380273 0.0063670063 -0.002874877 0.009027238 0.006993529
0.013632724 0.025542494 0.008040363 -0.006100326 0.0060839197 0.014569374 0.008963388 -0.0053826496
0.002187995 0.020388238 -0.009427553 0.00999484 0.011194763 0.013855189 0.023760168 -0.010050039
-0.011276015 0.012797662 0.05026791 -0.0021296714 0.002462732 0.011066339 0.005672444 -0.009214553
-0.013408573 0.019035632 -0.0037900677 0.01355382 0.01696988 0.01747541 0.0015347769 0.0068311454
00000000: b911 c03c 916e 963c d7db 7a3c 423a b03c
00000010: 8fff 2d3c c05f 8c3c 0f7e 0cbc 83b8 5bbb
00000020: 4aad 893c d35e 443b 1bb0 923c 9874 9d3c
00000030: 7490 9d3b 35e0 f2ba 22de 4bb9 2955 8b3c
00000040: d3ef 963c 7723 5bbc b843 5a3b 2c27 cc3b
00000050: 1a14 9fbc 2cf9 353c 51c6 d0bc 99b0 c43c
00000060: a0d0 f03c 3f2b c13c d5ad ae3c fee1 0cbb
00000070: 08cf 153b be9a e83b b005 d2ba 4d68 4b3b
00000080: 6bfd 1e3c 777d 803c 9edc adbc 0b62 163d
00000090: 8b31 45bc 25dd 5abb ff53 143c 64ab d83a
000000a0: add2 543c 88c3 f93b 171f 94bc f6e9 f0ba
000000b0: 52a2 d03b 6f68 3cbb fbe6 133c f929 e53b
000000c0: ca5b 5f3c 7e3e d13c babb 033c 3ee5 c7bb
000000d0: 9e5b c73b 62b4 6e3c 2ddb 123c f060 b0bb
000000e0: 7764 0f3b 3c05 a73c 0676 1abc 66c1 233c
000000f0: 3d6a 373c e000 633c afa4 c23c eba8 24bc
00000100: 09bf 38bc 49ad 513c b9e5 4d3d f591 0bbb
00000110: c965 213b 974f 353c e9df b93b a3f8 16bc
00000120: a2af 5bbc 9df0 9b3c c962 78bb d710 5e3c
00000130: 6b04 8b3c 9728 8f3c 912a c93a cdd7 df3b

sequential/lstm/while/lstm_cell/split_11 f4 [80]
1.025525 1.0409917 1.006556 1.0193219 1.0173362 1.0231438 0.9925978 0.9962863
1.0134177 1.0066499 1.0203117 1.0253068 1.0055904 1.0075272 0.9979948 1.0192828
1.0181262 0.9892903 1.0021584 1.0074971 0.9806618 1.0093482 0.9776819 1.0248072
1.0280112 1.030195 1.03282 0.9971997 0.9988018 1.0083319 0.99489903 1.0031798
1.0099847 1.0213338 0.9839516 1.0350478 0.98756313 0.99522716 1.0040157 1.0023156
1.023508 1.0111433 0.98838603 0.99719584 1.0098064 1.001788 1.0124156 1.0118418
1.0143145 1.021037 1.0096608 1.0051609 1.0070593 1.0067381 1.0105902 0.9942098
1.0070449 1.0196058 0.99572724 1.0100324 1.008784 1.0117292 1.0240492 0.9935501
0.9973723 1.0168971 1.0526376 0.999113 0.99748373 1.0141072 1.0031421 0.9944973
0.9852638 1.0178432 0.9930903 1.0102731 1.0162463 1.0142472 1.0030733 1.0099183
00000000: 6744 833f 373f 853f d4d6 803f 2479 823f
00000010: 1338 823f 60f6 823f e41a 7e3f 9e0c 7f3f
00000020: acb7 813f e7d9 803f 9399 823f 413d 833f
00000030: 30b7 803f a7f6 803f 967c 7f3f dc77 823f
00000040: f651 823f 2142 7d3f ba46 803f aaf5 803f
00000050: a70c 7b3f 5232 813f 5c49 7a3f e22c 833f
00000060: df95 833f 6edd 833f 7233 843f 7b48 7f3f
00000070: 7ab1 7f3f 0511 813f b4b1 7e3f 3268 803f
00000080: 2e47 813f 11bb 823f 41e4 7b3f 727c 843f
00000090: f0d0 7c3f 35c7 7e3f 9683 803f e14b 803f
000000a0: 4f02 833f 256d 813f de06 7d3f 3a48 7f3f
000000b0: 5641 813f 973a 803f d696 813f 0884 813f
000000c0: 0fd5 813f 57b1 823f 913c 813f 1da9 803f
000000d0: 52e7 803f cbdc 803f 055b 813f 8984 7e3f
000000e0: d9e6 803f 7182 823f fbe7 7e3f be48 813f
000000f0: d61f 813f 5880 813f 0b14 833f 4d59 7e3f
00000100: cb53 7f3f af29 823f d4bc 863f dfc5 7f3f
00000110: 185b 7f3f 44ce 813f f666 803f 6097 7e3f
00000120: 403a 7c3f b048 823f 2a3b 7e3f a150 813f
00000130: 5c14 823f dad2 813f b564 803f 0145 813f

sequential/lstm/while/lstm_cell/split_12 f4 [80]
-0.012163375 -0.008403996 0.007558929 0.011862927 0.007955627 -0.013583452 -0.0048007523 0.014491392
-0.012915944 -0.021867767 0.00894189 -0.01102433 0.009886188 -0.006409238 -0.008227479 -0.0020622602
0.008544616 0.004253316 0.0048097023 -0.008301879 -0.0019186395 -0.004104808 -0.024879152 -0.010816784
0.008213874 -0.002854438 -0.0052187955 0.005027826 0.0036325313 -0.010552529 0.017507678 -0.0023855364
-0.007372632 -0.00415583 0.01644939 -0.010787116 0.014802251 0.012811849 0.005438574 0.013693206
-0.0030492432 0.015621229 -0.016649324 0.019560741 -0.022180477 0.012670363 0.0020317386 0.02010003
-0.0021659213 0.001357296 -0.0019654643 -0.0023082753 0.0076983394 0.01494312 -0.0098647345 0.005844687
0.020800622 0.0054000504 -0.0021827042 -0.00037829258 -0.012890556 0.0040780054 -0.008131122 -0.008454349
0.004791703 -0.0023216186 -0.010377755 -0.013385958 0.0057895323 -0.010927897 0.017502883 -0.0085667
0.0041626072 0.011887059 0.0048091174 -0.010888375 -0.0009032456 -0.004000597 -0.0029574076 0.004737716
00000000: e448 47bc eab0 09bc e4b0 f73b b95c 423c
00000010: 5158 023c 218d 5ebc a14f 9dbb 4e6d 6d3c
00000020: 659d 53bc 0824 b3bc 0181 123c 649f 34bc
00000030: aef9 213c 9604 d2bb 8ccc 06bc fc26 07bb
00000040: b8fe 0b3c 675f 8b3b b59a 9d3b 9b04 08bc
00000050: dc7a fbba a081 86bb 5dcf cbbc e138 31bc
00000060: 7c93 063c 8611 3bbb 6e02 abbb 76c0 a43b
00000070: c30f 6e3b 84e4 2cbc 436c 8f3c a956 1cbb
00000080: 1f96 f1bb a12d 88bb dfc0 863c 72bc 30bc
00000090: 2485 723c cae8 513c 1136 b23b 7859 603c
000000a0: d0d5 47bb 2ff0 7f3c 2a64 88bc d93d a03c
000000b0: d5b3 b5bc 5b97 4f3c eb26 053b d1a8 a43c
000000c0: 21f2 0dbb 4ce7 b13a 05cf 00bb 6f46 17bb
000000d0: 5a42 fc3b fdd3 743c b29f 21bc ca84 bf3b
000000e0: 1166 aa3c e8f2 b03b b30b 0fbb 9255 c6b9
000000f0: e932 53bc caa0 853b 6638 05bc 1c84 0abc
00000100: b803 9d3b 4c26 18bb 7607 2abc c750 5bbc
00000110: 1eb6 bd3b ec0a 33bc 3562 8f3c 585b 0cbc
00000120: 7b66 883b f0c1 423c cd95 9d3b 2865 32bc
00000130: c9c7 6cba 7117 83bb 11d1 41bb d83e 9b3b

sequential/lstm/while/lstm_cell/split_13 f4 [80]
0.026628846 0.020553993 0.001163506 0.018859899 0.021469641 0.023244191 -0.008735605 -0.0031214254
0.017480623 0.005659267 0.016242605 0.021009527 0.004287554 0.010005647 0.00020801026 0.016189633
0.019053552 -0.013033146 0.0064580576 0.009772352 -0.018824862 0.012687857 -0.024759175 0.022641707
0.024682848 0.02191276 0.031111345 2.3973816e-05 0.0017810671 0.012521865 -0.0030700313 0.00223799
0.009057509 0.018363105 -0.007371471 0.037293095 -0.011033923 -0.0020673352 0.006901594 0.0069592004
0.010291006 0.014087412 -0.005967171 -0.003747076 0.0070991847 0.0009352268 0.007209659 0.007067162
0.015200334 0.013960073 0.011278736 0.0005718814 0.012186852 0.00060128275 0.014002756 -0.011316416
0.0056246994 0.01820558 0.0024258695 0.010113756 0.011913265 0.008562863 0.022130404 -0.0058207745
-0.015412013 0.015299668 0.054147817 -0.00335531 -0.0018260216 0.00987555 0.00043594005 -0.0023136104
-0.013214953 0.015128269 -0.004606891 0.0144378375 0.015140377 0.015840987 0.007520438 0.008266899
00000000: bd24 da3c d960 a83c c880 983a 1380 9a3c
00000010: 1ae1 af3c 9a6a be3c c81f 0fbc d490 4cbb
00000020: 8633 8f3c 5f71 b93b 360f 853c 2c1c ac3c
00000030: 9c7e 8c3b baee 233c 541d 5a39 1fa0 843c
00000040: 3216 9c3c fa88 55bc 1d9e d33b 371c 203c
00000050: 9936 9abc bbe0 4f3c c1d3 cabc 1a7b b93c
00000060: af33 ca3c 6382 b33c 38dd fe3c 611b c937
00000070: b272 e93a 8228 4d3c 9432 49bb 3eab 123b
00000080: f265 143c 396e 963c 618c f1bb a5c0 183d
00000090: a1c7 34bc 217c 07bb c426 e23b 010a e43b
000000a0: 9c9b 283c e3ce 663c 4288 c3bb 8191 75bb
000000b0: 47a0 e83b 022a 753a 013f ec3b a793 e73b
000000c0: d20a 793c cab8 643c 73ca 383c 50ea 153a
000000d0: 5dab 473c 679f 1d3a d16b 653c 7d68 39bc
000000e0: 664f b83b de23 953c 56fb 1e3b 2bb4 253c
000000f0: db2f 433c 404b 0c3c d24a b53c 32bc bebb
00000100: ab82 7cbc 75ab 7a3c 1aca 5d3d c3e4 5bbb
00000110: 1e57 efba 0fcd 213c e28e e439 f19f 17bb
00000120: 8883 58bc 8fdc 773c 67f5 96bb ae8c 6c3c
00000130: 580f 783c f5c4 813c 026e f63b e371 073c

sequential/lstm/while/lstm_cell/MatMul f4 [80, 23]
-0.0543588 -0.013782008 -0.025005324 0.10253395 0.11675279 0.11021468 0.077525415 0.09894773
-0.08057739 0.111707 0.064250246 0.021685941 0.025320632 0.09374309 -0.07784116 0.00634374
-0.0039674374 -0.051599283 -0.060299333 -0.07623092 -0.036360223 0.021754537 0.0940788 -0.0935235
0.035306983 -0.0040055807 0.12536496 -0.03511282 -0.057558738 -0.035795964 0.021934431 -0.054592643
0.04906221 -0.038717397 -0.098057784 -0.01245483 0.0039979825 -0.111116454 0.08594627 0.07826825
0.10443786 -0.042896528 -0.050777562 -0.09251451 -0.005123588 0.0065608784 -0.1123129 -0.068811305
-0.07329638 0.025900949 -0.0044657653 0.061115876 0.03505683 -0.057657424 0.04902063 -0.08084933
-0.009486526 0.11947574 0.11984272 -0.10735693 -0.007964021 0.060518615 -0.109525815 -0.033042636
0.12144387 0.049635638 0.12594037 0.09247937 -0.013737281 0.047390968 0.1013761 -0.10682844
0.00968826 -0.06453329 -0.01747408 -0.03269323 -0.07301831 0.08033637 -0.053802434 0.06018722
-0.14449652 0.13672729 -0.1088589 -0.09596549 -0.04689131 0.06575071 -0.037831936 0.104632325
-0.033412144 -0.08831825 -0.14195289 -0.14399633 -0.003329131 0.108819775 0.03283421 -0.07888393
-0.08190083 -0.026039634 -0.009496187 0.05095315 0.053498544 0.067835346 0.026915193 0.07401769
-0.13143997 -0.035586473 0.064786196 0.09639273 -0.077395864 -0.005753929 0.064175434 0.03356461
-0.07037717 0.056311924 0.010949496 -0.039318066 -0.053041108 -0.10266218 -0.08201351 -0.05581577
-0.060816027 0.029266804 0.040379386 0.055839106 -0.13115962 -0.049390517 -0.10666239 0.13865168
-0.07389581 0.011150813 -0.0525845 -0.060443394 0.11717682 -0.003231618 -0.14336024 0.14614694
0.10897981 -0.022717569 -0.08415552 0.07431091 -0.028508205 0.012875602 -0.1140661 0.028602103
-0.03458677 0.07628413 0.13573387 0.00811512 -0.12591751 -0.00959858 0.05315432 -0.10982932
0.09934914 -0.037162606 -0.019734059 0.061253715 0.014458533 -0.03528728 0.059528127 0.12175065
-0.00085716165 0.13656107 -0.052836765 -0.05560363 0.11955175 0.09182712 0.059345882 0.033086713
-0.07942871 0.035398465 0.12995197 0.06998396 -0.06587291 -0.034553427 0.03266264 -0.056414314
0.08087972 0.10458053 -0.04353377 0.0342403 -0.08075106 0.078818984 -0.10062612 0.037550297
-0.048098147 0.0050356667 0.05572445 0.06648355 -0.01958245 0.005619259 0.014247615 -0.07439222
-0.04098904 -0.019270407 -0.02278015 0.10025788 -0.038339768 0.13916403 0.06885199 -0.054503277
-0.020874096 0.04815024 -0.043121677 -0.044752598 -0.07756579 -0.08377776 -0.034814157 -0.11093679
0.06673189 0.07084285 0.01901052 0.04468601 0.09313251 0.021704296 0.10365083 -0.019394008
-0.065941 -0.009280987 0.01987326 -0.0133563895 0.10309822 -0.13411395 -0.12412199 -0.11773219
-0.060462702 0.073816344 0.10128883 0.1204026 -0.101084635 -0.090993606 -0.1181781 -0.012375633
0.05886305 -0.057210192 0.08198197 0.031105941 0.08318804 0.03556068 -0.09079767 0.055402763
0.053256944 -0.04063176 0.0930076 0.0964954 -0.037888277 0.10038784 0.12249117 0.05293445
0.030312624 -0.121897355 -0.06284507 -0.047602247 -0.038500257 -0.071192406 -0.01076149 0.12805699
00000000: 55a7 5ebd eecd 61bc f7d7 ccbc 52fd d13d
00000010: 161c ef3d 3cb8 e13d a5c5 9e3d 1ca5 ca3d
00000020: c205 a5bd a4c6 e43d a295 833d b7a6 b13c
00000030: 376d cf3c 61fc bf3d 306b 9fbd 26df cf3b
00000040: 4701 82bb c559 53bd 6ffc 76bd f51e 9cbd
00000050: 75ee 14bd 9236 b23c 63ac c03d 4089 bfbd
00000060: 0e9e 103d 3f41 83bb ac5f 003e 76d2 0fbd
00000070: b6c2 6bbd ca9e 12bd d6af b33c 899c 5fbd
00000080: 75f5 483d 2296 1ebd 85d2 c8bd 580f 4cbc
00000090: 8201 833b 0691 e3bd 9904 b03d 1b4b a03d
000000a0: 84e3 d53d 45b4 2fbd 22fc 4fbd 3f78 bdbd
000000b0: c5e3 a7bb a3fc d63b 4e04 e6bd f1ec 8cbd
000000c0: 6a1c 96bd 3a2e d43c 8e55 92bb a454 7a3d
000000d0: c097 0f3d 312a 6cbd dbc9 483d 5594 a5bd
000000e0: 606d 1bbc b2af f43d 1a70 f53d f3dd dbbd
000000f0: 867b 02bc 5ee2 773d 124f e0bd b757 07bd
00000100: 90b7 f83d bd4e 4b3d 83f6 003e d365 bd3d
00000110: 5512 61bc 081d 423d 469e cf3d dfc8 dabd
00000120: 82bb 1e3c 082a 84bd cd25 8fbc 56e9 05bd
00000130: a08a 95bd 6587 a43d f15f 5cbd e086 763d
00000140: e5f6 13be 3d02 0c3e 6af1 debd 8e89 c4bd
00000150: 1a11 40bd 4fa8 863d a9f5 1abd 7949 d63d
00000160: 2cdb 08bd 33e0 b4bd 195c 11be c673 13be
00000170: 8d2d 5abb e7dc de3d 2a7d 063d e68d a1bd
00000180: 9fbb a7bd 1251 d5bc e595 1bbc 40b4 503d
00000190: 4a21 5b3d 42ed 8a3d 407d dc3c 9696 973d
000001a0: 3398 06be 1fc3 11bd a0ae 843d 8d69 c53d
000001b0: b981 9ebd 748b bcbb 696e 833d 0b7b 093d
000001c0: e821 90bd 55a7 663d 8465 333c fb0b 21bd
000001d0: a241 59bd 8d40 d2bd b3f6 a7bd 149f 64bd
000001e0: 3a1a 79bd f0c0 ef3c db64 253d 8cb7 643d
000001f0: b54e 06be b64d 4abd d071 dabd b5fa 0d3e
00000200: b056 97bd e6b1 363c d862 57bd 7e93 77bd
00000210: 67fa ef3d 8ec9 53bb 07cd 12be 8ba7 153e
00000220: ce30 df3d 321a babc bb59 acbd 5230 983d
00000230: 0a8a e9bc 30f4 523c 7d9b e9bd f54e ea3c
00000240: dbaa 0dbd db3a 9c3d d2fd 0a3e 48f5 043c
00000250: 85f0 00be 5d43 1dbc 58b8 593d 32ee e0bd
00000260: 9077 cb3d d137 18bd 52a9 a1bc 2de5 7a3d
00000270: 7ce3 6c3c 6589 10bd c4d3 733d 6858 f93d
00000280: 25b3 60ba aad6 0b3e 5d6b 58bd a2c0 63bd
00000290: 8cd7 f43d db0f bc3d ab14 733d ef85 073d
000002a0: 85ab a2bd fbfd 103d 2112 053e c053 8f3d
000002b0: 60e8 86bd e587 0dbd 43c9 053d b212 67bd
000002c0: 44a4 a53d 512e d63d 7750 32bd 8f3f 0c3d
000002d0: d060 a5bd d96b a13d 1115 cebd 57ce 193d
000002e0: 9002 45bd 3c02 a53b 523f 643d 8728 883d
000002f0: 606b a0bc c321 b83b d46e 693c f35a 98bd
00000300: 20e4 27bd f9dc 9dbc 709d babc 0154 cd3d
00000310: 290a 1dbd 0481 0e3e 4602 8d3d d43e 5fbd
00000320: 2700 abbc 3039 453d 5ba0 30bd 804e 37bd
00000330: d0da 9ebd ad93 abbd 4a99 0ebd d432 e3bd
00000340: bbaa 883d 0e16 913d f3bb 9b3c ad08 373d
00000350: 42bc be3d 35cd b13c e346 d43d 2fe0 9ebc
00000360: 130c 87bd 480f 18bc 3fcd a23c c2d4 5abc
00000370: 2925 d33d 2b55 09be ab33 febd 931d f1bd
00000380: bda7 77bd 062d 973d 8570 cf3d a395 f63d
00000390: 7605 cfbd db5a babd 5c07 f2bd 2bc3 4abc
000003a0: 621a 713d 3c55 6abd 2ae6 a73d e3d1 fe3c
000003b0: 7e5e aa3d 13a8 113d 21f4 b9bd 02ee 623d
000003c0: f423 5a3d 7d6d 26bd c57a be3d 619f c53d
000003d0: bd30 1bbd 2498 cd3d a7dc fa3d cbd1 583d
000003e0: 2e52 f83c 52a5 f9bd ebb4 80bd 93fa 42bd
000003f0: 72b2 1dbd 53cd 91bd f650 30bc 5f21 033e

sequential/lstm/while/lstm_cell/MatMul_1 f4 [80, 23]
0.07382278 0.042551447 0.13409917 -0.013044185 -0.043623105 0.009395817 -0.06752931 -0.03732816
0.031449437 0.04446876 -0.048156753 0.002256304 -0.08910868 0.023057157 -0.1202134 -0.010876341
-0.030353837 0.006055167 -0.116157085 -0.07037039 -0.09968423 0.117384195 -0.102081515 -0.08740887
-0.098487265 0.060796984 -0.06055098 -0.048688278 -0.0149311 -0.078652866 -0.15377352 -0.13824372
-0.11433239 -0.09992787 -0.16419657 -0.05094027 0.104153484 -0.05675207 -0.1529946 -0.10447589
-0.09112765 -0.0050353734 -0.042438358 -0.058562715 0.04235956 0.020212714 -0.08874714 -0.039865527
-0.13121206 -0.04607509 -0.058402628 -0.035717946 0.08232802 -0.1148338 -0.049773015 0.13272531
-0.1221268 -0.12933935 -0.07362607 -0.14704296 0.005250217 -0.10206945 0.014154687 -0.055407356
-0.01075914 0.012789142 0.12764516 0.08758096 0.029913615 -0.091101676 0.027083172 -0.11927462
0.12991402 -0.011872858 -0.11278386 0.032792185 -0.1197692 -0.020977037 -0.121748805 -0.11855078
0.011696829 0.026868176 -0.035927117 0.10921632 -0.0043839775 0.057212852 0.0757613 -0.056337293
0.064867616 0.13667308 0.03725999 -0.13478154 0.109350696 0.07859882 0.09901102 0.003227341
-0.10218775 -0.08433096 -0.02855206 0.05791028 -0.06800521 0.03346242 0.07283653 0.027114889
0.035538055 0.01664093 -0.01439299 -0.10723452 -0.021099133 -0.123700745 0.018790204 0.13096522
0.019555727 0.066781394 -0.020719174 -0.0010643759 -0.113797076 -0.07302574 -0.0036310912 -0.12787491
0.036670525 -0.017356148 -0.02514117 -0.14005171 -0.13262035 0.09099762 -0.067149945 0.10488159
0.056694705 -0.06904327 0.012840699 -0.050298423 0.14115752 0.051558584 -0.004335874 -0.026381334
-0.06258768 -0.008855457 -0.12543578 0.10044624 -0.06263024 -0.03971783 0.063015774 0.12552203
-0.04593184 -0.041083556 -0.09326685 0.033539772 -0.03591135 0.09164696 0.04319021 -0.02549082
-0.091219716 0.020528253 0.088344984 0.0071606026 -0.03389942 0.10162532 -0.12559763 -0.10508977
0.10859051 0.12110743 -0.042202927 0.03085135 -0.03899674 -0.058168292 0.019374093 -0.059503946
0.07285198 -0.12823269 -0.10378628 0.12406163 -0.090850905 0.14012143 0.106414795 0.14404427
0.104339935 -0.06015174 -0.0044099847 -0.07095883 -0.012617359 -0.10561907 -0.059684686 -0.06909837
-0.09723093 -0.07943758 -0.037769012 -0.054133315 0.11570978 -0.13968462 0.011772029 0.0032441975
-0.06727999 0.019836921 0.06030698 0.07239817 -0.08374416 0.13363416 -0.06096945 0.13520749
0.09380557 0.01986592 -0.111973114 -0.0702603 0.03904739 0.03455335 0.08609632 0.031708553
-0.0069052647 -0.10320187 -0.11031614 0.0035148137 0.09960773 0.0070542176 -0.07593829 0.062283006
0.043251406 0.08521178 -0.08403025 -0.08670347 0.13225588 -0.09611205 0.045964744 -0.044420667
-0.089982316 0.060279816 -0.020706913 -0.03522604 -0.042021215 0.10601278 -0.09983392 0.046627965
-0.027265456 -0.09004089 0.07485711 -0.081748806 0.056479327 -0.13756151 -0.06156666 -0.08130963
0.119723156 0.033114012 0.07545516 -0.104011305 0.10926984 -0.13078678 0.0514154 -0.07288603
0.005383715 0.029784808 0.12038474 0.057566028 0.10014913 -0.037062954 -0.020159265 0.0602638
00000000: 6630 973d 6d4a 2e3d 4b51 093e 47b7 55bc
00000010: 24ae 32bd eaf0 193c cf4c 8abd 6ae5 18bd
00000020: 20d1 003d e024 363d 0440 45bd 80de 133b
00000030: 9d7e b6bd 5de2 bc3c 7132 f6bd ae32 32bc
00000040: 9ca8 f8bc 6c6a c63b c4e3 edbd 5a1e 90bd
00000050: 3f27 ccbd 2067 f03d 1d10 d1bd 6c03 b3bd
00000060: b1b3 c9bd 4206 793d 4e04 78bd 5c6d 47bd
00000070: 93a1 74bc c114 a1bd ce76 1dbe c38f 0dbe
00000080: 1a27 eabd fca6 ccbd 2523 28be bfa6 50bd
00000090: 6c4e d53d dc74 68bd 9eaa 1cbe 75f7 d5bd
000000a0: 22a1 babd c6ff a4bb d8d3 2dbd 75df 6fbd
000000b0: 3881 2d3d 2295 a53c 0fc1 b5bd 094a 23bd
000000c0: 745c 06be 3cb9 3cbd 9837 6fbd fb4c 12bd
000000d0: 989b a83d fc2d ebbd cade 4bbd 25e9 073e
000000e0: 9e1d fabd 8971 04be 44c9 96bd 6e92 16be
000000f0: 030a ac3b ca09 d1bd 0fe9 673c d3f2 62bd
00000100: 1b47 30bc 8d89 513c 6ab5 023e a55d b33d
00000110: 660d f53c 8493 babd 87dd dd3c 4146 f4bd
00000120: 2e08 053e 6086 42bc 39fb e6bd 1951 063d
00000130: 8e49 f5bd 09d8 abbc 7057 f9bd c0ca f2bd
00000140: 0fa4 3f3c a61a dc3c 5028 13bd ceac df3d
00000150: 78a7 8fbb 0658 6a3d be28 9b3d efc1 66bd
00000160: 50d9 843d 07f4 0b3e ee9d 183d 2c04 0abe
00000170: 42f3 df3d 6bf8 a03d 4ac6 ca3d cc81 533b
00000180: d047 d1bd b6b5 acbd 02e6 e9bc 5433 6d3d
00000190: 5146 8bbd e40f 093d 522b 953d 0b20 de3c
000001a0: 5a90 113d 8f52 883c 93d0 6bbc c69d dbbd
000001b0: 17d8 acbc d156 fdbd eaed 993c bf1b 063e
000001c0: 5533 a03c afc4 883d 42bb a9bc 8782 8bba
000001d0: 710e e9bd 858e 95bd 9af7 6dbb a4f1 02be
000001e0: d533 163d 7b2e 8ebc dbf4 cdbc b769 0fbe
000001f0: a1cd 07be f65c ba3d e985 89bd 29cc d63d
00000200: b538 683d 8f66 8dbd cc61 523c b805 4ebd
00000210: 998b 103e 182f 533d f313 8ebb ab1d d8bc
00000220: f82d 80bd 7b16 11bc 3d72 00be c2b6 cd3d
00000230: 4944 80bd 2aaf 22bd 6a0e 813d d988 003e
00000240: 0623 3cbd 3b47 28bd b102 bfbd 0061 093d
00000250: c817 13bd 67b1 bb3d 38e8 303d 20d2 d0bc
00000260: 67d1 babd de2a a83c 37ee b43d 7da3 ea3b
00000270: 1eda 0abd f020 d03d aa9c 00be 4e39 d7bd
00000280: b464 de3d 2c07 f83d fadc 2cbd f8bb fc3c
00000290: 0cbb 1fbd e041 6ebd 6bb6 9e3c 69ba 73bd
000002a0: 6b33 953d 6e4f 03be e78d d4bd 0614 fe3d
000002b0: 0a10 babd fe7b 0f3e 00f0 d93d 5780 133e
000002c0: 2db0 d53d ac61 76bd a281 90bb dd52 91bd
000002d0: 0ab9 4ebc d04e d8bd ee77 74bd 7283 8dbd
000002e0: 0321 c7bd 2cb0 a2bd aeb3 1abd e5ba 5dbd
000002f0: 40f9 ec3d 7c09 0fbe 78df 403c 9a9c 543b
00000300: 17ca 89bd 0a81 a23c 7404 773d 7e45 943d
00000310: 0f82 abbd 65d7 083e 1abb 79bd d573 0a3e
00000320: 221d c03d dbbd a23c 2952 e5bd a2e4 8fbd
00000330: 28f0 1f3d d087 0d3d 4453 b03d d4e0 013d
00000340: 8f45 e2bb 815b d3bd 6eed e1bd ca58 663b
00000350: 23ff cb3d 1127 e73b 8985 9bbd 771c 7f3d
00000360: 6328 313d 8483 ae3d 0d18 acbd 9791 b1bd
00000370: 166e 073e 65d6 c4bd 8745 3c3d 72f2 35bd
00000380: a648 b8bd f8e7 763d 8ba1 a9bc 2e49 10bd
00000390: 701e 2cbd 3a1d d93d ba75 ccbd f7fc 3e3d
000003a0: ce5b dfbc 5c67 b8bd af4e 993d eb6b a7bd
000003b0: de56 673d eddc 0cbe 522d 7cbd aa85 a6bd
000003c0: 6a31 f53d 8fa2 073d 3c88 9a3d e103 d5bd
000003d0: dec8 df3d f8ec 05be f498 523d 4545 95bd
000003e0: e069 b03b 45ff f33c 468c f63d 5bca 6b3d
000003f0: fd1a cd3d 53cf 17bd 0b25 a5bc 2dd7 763d
