owlyshield_predict/models/model.tflite (tflite, 585636 bytes, 37 tensors)

sequential/dense/MatMul f4 [1, 80]
00000000: aeb1 14bd a2c1 1f3e a33b e63d ef50 36bd
00000010: 3339 9abe 4797 4bbe 7434 4ebe 6f51 8ebe
00000020: 9109 1bbe 14a2 22be e754 1ebe 2a8f 5abe
00000030: 18d6 583d 4d8d db3d 0647 613c 0688 42be
00000040: 9044 993e 57c1 e2bd 0650 96bd 1821 b3bd
00000050: 9730 80be 1eb2 6bbe 29eb 383e 8bee 9d3e
00000060: d349 47be a0a3 37be 30d6 cc3d b8c7 7bbe
00000070: 2bb2 3a3e 7c04 89bd 9852 523e 5229 92be
00000080: 85b7 10be 1c41 15bd 8ae2 2cbe e5ad 4bbe
00000090: 911f 333e 5a01 51be b463 72be cedc 6dbe
000000a0: 20f9 dbbd 88b9 2cbe ee11 853e f9c1 9f3e
000000b0: f3d1 653e 59f6 083e 8e42 193d b2d5 6cbe
000000c0: b40c 883e d472 79be 90a5 68be fc18 5b3e
000000d0: b5b8 863e 14ea e93d e3cc 9d3e 2a32 5f3e
000000e0: f5cb 1abe 0e80 4a3e a36a 1abe 29db b7bd
000000f0: 1635 303d 133f 563e c26c 313d 9280 163e
00000100: cb46 7f3d 81ab 51be e826 0fbe b5e1 123e
00000110: a5eb 03be b678 a53d 1f29 333e 591c adbc
00000120: 7cb1 29bd 417f 233c 23ed 1c3d dfab 813e
00000130: 034b 2ebe f59d b73d 0b3c 9bbe 9d85 8c3e
-0.03630226 0.15601209 0.112418436 -0.044510778 -0.30121765 -0.19881926 -0.20137197 -0.27796504
-0.15140368 -0.1588214 -0.15462075 -0.21343675 0.05293855 0.1072031 0.013749843 -0.18997201
0.29935122 -0.11072033 -0.07339482 -0.087465465 -0.2503707 -0.23017165 0.18058456 0.30846056
-0.19461755 -0.17933512 0.100017905 -0.24587905 0.18232028 -0.066903085 0.2053932 -0.2854715
-0.14132507 -0.036439046 -0.16883293 -0.19890554 0.1749251 -0.20410672 -0.23670846 -0.23228762
-0.10740876 -0.1686765 0.25990242 0.31202677 0.2244337 0.13375224 0.037416987 -0.23128393
0.26572192 -0.2436021 -0.22719407 0.2139625 0.26312795 0.114216 0.3082038 0.2179648
-0.15116866 0.19775411 -0.15079741 -0.08977348 0.043019377 0.20922498 0.04331661 0.14697483
0.062323373 -0.2047558 -0.13979685 0.14343913 -0.1288286 0.080796644 0.17496155 -0.021131681
-0.041429028 0.00997907 0.03831209 0.2532644 -0.17020802 0.08965675 -0.30319247 0.2744569

sequential/lstm/while/lstm_cell/MatMul_7 f4 [80, 80]
00000000: b3b6 80bd fb00 e23b 93db d63c 8960 893a
00000010: 8eba 7dbc 4f12 da3c 27f4 94bc a5e1 423b
00000020: 5769 d9bb 32ba a23d 8823 42bd 4f10 02be
00000030: 200e 333d bb5b 9ebc 4899 8f3d 04be 8a3d
00000040: c511 1b3e 18c1 43bc c9ee a23d 9ddd eb3b
00000050: a2d4 a6bd a513 87bd 7e77 b13d d502 5bbd
00000060: 0d46 2f3d fbff 633d dc2f 4ebd 1eea 21be
00000070: df71 3f3c ec92 0fbe 3a9a d53d 2c71 cdbd
00000080: cc03 cf3a 1646 d6bd 04ed 843d e90d 6d3d
00000090: 519d cd3c 9c65 3f3d aac7 88bd 207b 52bc
000000a0: 4e8b ad3d 9a0c bcbd 921d dfbb 967e 07be
000000b0: d71f 91bc 21d1 80bc 07c8 0f3d dfd9 c73c
000000c0: 0a42 2bbd b2e8 d5bc fa98 8ebb 7c63 a9bd
000000d0: a250 fb3c c081 c4bd 32be 8b3c f2a3 7f3d
000000e0: dc9a b4bd 1748 94bd bc28 243e 64d9 5abc
000000f0: 005c 343c e36d d33c 4f50 25bd 02b5 bc3b
00000100: 9263 f33c 3f3f 56bd 13ba f93c b0d6 2d3d
00000110: a3b5 c5bc 7e96 0e3c cbcc 15be 9f55 0fbd
00000120: 3b70 523d 9e60 10be 2192 133d 5bd6 a93d
00000130: a758 2e3c afbc 87ba a38b 953c 05f6 c5bd
00000140: 3068 6dbc c294 d9bd c7b1 023c 1ab8 d2bd
00000150: 315f 66bc d429 393e 89c9 10bd 0c7a acbd
00000160: 447e 6f3d 9627 aa3d 6ab3 753d 50be 36bd
00000170: 7430 8c3b 9835 16be 171e 293d dbea f43c
00000180: 10bb ccbd 9246 abbd 6914 093c b4be a6bd
00000190: 1ecd 6c3d 0612 f43d 5c5a 8eb9 b89d 7eb8
000001a0: b918 7abd 03a7 ce3c 0295 8a3d 76a2 c1bc
000001b0: 5afd 5bbd 4f27 863d bb56 a9bc be68 5dbd
000001c0: 3219 cf3d f9be 83bd d71a f73d d365 923c
000001d0: 8772 ee3c 16b2 0c3e febb 53bc 3e83 48bd
000001e0: 171e be3d 39ff 403d f9a2 3fbc d0fe dc3c
000001f0: eb7b b0bd 90b1 3c3c 3a35 903b 4dd3 183c
00000200: 8454 98bc f878 7d3d 144e 9c3c 0b5a 15bd
00000210: c238 c33b 121c 893c d425 fbbc 9be9 9b3c
00000220: 314c aabc 7618 513d 4547 033d 4d59 303d
00000230: 1f11 173d 8bc8 be3c accc 93bd 30cf 9cbd
00000240: 99ab af3c 45ad 303d bc74 0ebd f1af 753c
00000250: 72bc c23b 788c 8a3d 28fc dd3d 2a46 ebbc
00000260: 34ca 47bd aa5b 9d3b b753 c5bd bb73 b9bd
00000270: b6eb 1e3d 0d0c 65bd 4193 e3bc 68ed e33d
00000280: e40a 78bd 5bce 56bd 5642 46bd 3226 ba3c
00000290: de0c 453c 559f 9b3c d3c4 d0ba 6783 7b3d
000002a0: 82d7 23bd 4920 81bd 1f13 7c3d 9599 9dbd
000002b0: 7649 9c3d a187 49bc ffa5 ad3d ddae ce3c
000002c0: 6878 21be 8d5f f93b c19f e4ba bb00 b3bc
000002d0: d225 f6bc ad11 72bd 0374 56bd ac12 95bd
000002e0: 56bd 92bd 83c8 1b3c 455a 59bd 8ad8 87bd
000002f0: bb7f f0bb 3c26 2abd 3cd6 ff3c 368d 0b3d
00000300: 0539 15bc f0ac c3ba 3182 533d ec63 ebbc
00000310: 8756 5a3d 0d43 393d ff86 53bb 9bd1 03bd
00000320: d69a fcbb 7edb 8d3c 5857 c43c 02b4 4ebc
00000330: 6c36 9e3c 3dfc 3d3d 8725 733d 0855 bc3d
00000340: 859c 903d f50b 27be 7a2f 4f3c 99e7 ca3c
00000350: 7130 433e 8732 b2bb c3a2 bc3d 0b86 c5bd
00000360: ab47 f5bb fa20 8ebc abee aebd bac1 a03c
00000370: 7ce0 c0bc 3b4d 4fbd 0fbe 83bd 5bd3 61bb
00000380: 7966 95bd ac16 2cbd 7aab 043e acfd 5fbc
00000390: fbc7 3b3d c199 9e3d 69a9 f5ba 57f5 b43d
000003a0: 1ac8 49bc e1ed c1bc f4d9 56bd f12f 8cbd
000003b0: 0109 063d 5bb5 9b3d 8a65 4dbc 0148 cfbd
000003c0: 402e b73d bc70 84bc 6901 23bd 1a13 693d
000003d0: 6bd1 fbbc 53ba 873c 3cfe 1a3d df81 36bd
000003e0: b122 9cbb fc7a d63d cc30 53bd b6bc d93b
000003f0: 4697 76bc 4fcd 88bd 5789 d53c 645f 71bd
-0.06284847 0.0068970895 0.026227748 0.001048104 -0.015486373 0.026620058 -0.018182827 0.0029736545
-0.006634872 0.0794567 -0.047397166 -0.12701534 0.043714643 -0.01933085 0.07011658 0.06774524
0.15143497 -0.011947893 0.07955701 0.007198049 -0.08146025 -0.06595544 0.086653695 -0.053469498
0.042791415 0.055664044 -0.05033861 -0.15811965 0.011684864 -0.1402089 0.10429807 -0.100313514
0.0015793978 -0.104625866 0.0649052 0.057874594 0.025099428 0.04672776 -0.06678708 -0.012846738
0.08473836 -0.09182091 -0.006808945 -0.13231882 -0.017715378 -0.01572472 0.03510287 0.024395881
-0.041811027 -0.026111934 -0.0043517323 -0.08270928 0.030678097 -0.0959506 0.017058466 0.06241221
-0.088185996 -0.072403125 0.16031164 -0.013357494 0.011008263 0.025809234 -0.04035979 0.0057588825
0.029710565 -0.05230641 0.030484235 0.04244107 -0.024134463 0.008702872 -0.14628904 -0.034993764
0.051376563 -0.14099357 0.03602803 0.08292838 0.010641254 -0.0010355915 0.01825506 -0.09666065
-0.014490172 -0.106240764 0.007976956 -0.10289021 -0.014060781 0.18082362 -0.03534845 -0.08421716
0.058470026 0.08308332 0.059985556 -0.04461509 0.004278237 -0.14668882 0.04128846 0.029897144
-0.09996617 -0.083630696 0.008366683 -0.081418425 0.057812802 0.119175 -0.00027151674 -6.0705206e-05
-0.061058734 0.025226122 0.06766702 -0.023637038 -0.05370841 0.06550466 -0.02067124 -0.054054968
0.101122275 -0.064329095 0.12065666 0.01787082 0.029107345 0.1373981 -0.012923239 -0.048953287
0.09283083 0.0471184 -0.011696571 0.026976973 -0.086173855 0.011516944 0.0044008764 0.009327722
-0.018594988 0.061882943 0.0190802 -0.036462825 0.005957694 0.016737018 -0.030657686 0.01903229
-0.020788284 0.05104872 0.03205039 0.043053914 0.036881562 0.023288986 -0.072167724 -0.076567054
0.021444129 0.043133993 -0.034779295 0.014995561 0.0059428746 0.067650735 0.108391106 -0.02871998
-0.04877682 0.004802187 -0.09635108 -0.09055277 0.03879901 -0.055919696 -0.027780177 0.11129266
-0.06055726 -0.05244289 -0.048403107 0.022723291 0.012026994 0.018996874 -0.0015927799 0.061404612
-0.040000446 -0.06304986 0.061541673 -0.07695309 0.07631199 -0.012300403 0.08478927 0.025229866
-0.15768588 0.0076102675 -0.001744263 -0.021850934 -0.030047331 -0.05909889 -0.05235673 -0.07278952
-0.07165019 0.009508255 -0.053064603 -0.066330984 -0.0073394454 -0.04154037 0.031230085 0.034070216
-0.009107833 -0.0014928859 0.051637832 -0.02873417 0.053305175 0.04522996 -0.003227651 -0.032182317
-0.0077088876 0.017316576 0.02396743 -0.012616159 0.01931306 0.04638313 0.05936196 0.09195906
0.07061104 -0.16313155 0.012645597 0.024768637 0.19061448 -0.0054381522 0.09210732 -0.09644707
-0.00748535 -0.017349709 -0.08541616 0.019623626 -0.023544542 -0.050610762 -0.06432735 -0.0034458253
-0.07294936 -0.04201381 0.12956038 -0.01367132 0.045845013 0.0774417 -0.0018742505 0.08835857
-0.012315774 -0.023673 -0.05245395 -0.068450816 0.03272343 0.0760295 -0.012536416 -0.101211555
0.08944368 -0.016167037 -0.039796267 0.056902982 -0.030739507 0.016568338 0.037840113 -0.04455745
-0.0047648777 0.10472676 -0.05156021 0.0066448105 -0.015050715 -0.066797845 0.026066465 -0.058928862

sequential/lstm/while/lstm_cell/MatMul_6 f4 [80, 80]
00000000: 1221 703d ff34 383d 8b7b 453d da7e cd3c
00000010: dfc2 933d 1357 c23d 26d8 73bd 22cc 53bd
00000020: 9f8f 0d3e e57d abbc e10a 4d3d 823f f7bc
00000030: 9c31 a9bd 22ea 8a3a ccf3 f1bc eadc 73bd
00000040: a869 4e3d afa9 75bc e584 0cbe 90f4 23bc
00000050: a019 353d 9827 2abd 30c2 393d 99b6 5fbd
00000060: c516 723d 2620 4d3d ae7c d2bd 5e5e a6bb
00000070: f44d d73d 31bc ebbc 9187 1fbd a357 e93d
00000080: 45a7 abbd 6e5a 113e 10c1 a4bd 60ab 37bd
00000090: 5a3c 66bd 0640 89bd 1bf1 d9bb 03d1 563d
000000a0: ccba 7f3d 15f7 aabc be15 11bd 0195 99bd
000000b0: 85b7 f03d 3a3c 393c 9fe1 eebc bdb5 e33d
000000c0: e353 823c 0302 2fbc 8e22 3abc 7607 c3bd
000000d0: ad2f 31bd f3b9 d739 7eee 04bd 4409 5a3d
000000e0: 1bcd 6c3d 5fe7 3e3c ed20 bdbc f3ff bfbc
000000f0: 95ce 1fbd 08c1 9fbd e19d 59bc 4109 803d
00000100: 7b06 d93c 5166 a73c 51f9 84bd 745f f2ba
00000110: 1c4c 14bd d5b0 9d3d b3c0 f5bd 2898 e73c
00000120: d787 3a3c b808 20bc 1baa bbbd 105f 833d
00000130: 1057 cfbd afc3 4f3d d2e7 7abd 339c 9b3d
00000140: 4fd8 d9bd 1913 113d 3863 f53d 21a1 1e3d
00000150: 3431 3f3d ad94 e3bb fec5 aebb 60d1 c8bc
00000160: 8a0b 80bd 747b bebd 9a9a 54bd b451 d3bd
00000170: 9e36 11bd 889b 13bc 8bc7 9abd 3747 9bbd
00000180: b76a b93d 7459 a73c 34f0 8cbc 032f 81bd
00000190: ccfd ddbc cf70 253d 7cc6 efbc 296b 64bd
000001a0: edc1 4a3d 9005 f83c 6986 023c fdd1 723d
000001b0: 3dac 793b 530a 233b 0311 1fbe e0c6 9e3d
000001c0: 0590 77bd 34c6 87bd 0f21 cebd 708d 58bd
000001d0: efee 373c 88c4 323a 3140 3c3c 3576 76bd
000001e0: e98a f8bd 2c63 2abe 1a1f e23b b12a f5bb
000001f0: 81be 8d3d 045b 6b3b 3590 70bd 2f8d 28bd
00000200: f67c 6ebc d344 c0bd 9104 583d 271d f9bc
00000210: 4f89 1b3c 90ea 3bbc cde6 6ebc 8094 503d
00000220: 239f 64bd 586c 5fbd a99d 6abc 0e91 a33b
00000230: 8531 1d3d 5a5d f8bc 87de 413d fe27 963d
00000240: 0e45 703d 1c69 03bd 3721 a0bc 05ec 123d
00000250: d72c 99bd fbb1 6abc 05db 05bd e232 c93c
00000260: 154d f7bb d8df 633d dd91 31bd c2a5 83bd
00000270: 9bf8 d73c 4058 b13c 23d9 85ba 65b0 27bd
00000280: 6c7a 583d adcb 803d a861 303c 5c08 b8bc
00000290: 521e 843d 8661 783d e839 463b f7a9 8bbd
000002a0: 6051 783d 2e2b a2bd c93a 2c3d db90 51bd
000002b0: 2252 783a 71de ebbc 22ab 653c 3e1c f73c
000002c0: ba41 973b 86e8 113d de5d acbd 0e32 c9bb
000002d0: 6ce9 92bc 4ff6 adbd c41d ac3d 2a0b 533c
000002e0: 8e8e fa36 e92b 303c 294e 6dbb 6d67 20bd
000002f0: 66c0 3f3d b3ed 543d ea02 d8bc 552f 0abd
00000300: 5575 203c cfa6 79bd b119 a4bd 55ea d63b
00000310: e266 e3bc 1b4d 23bd 7ceb be3c f643 ff3c
00000320: 5ee9 473d 8c47 5e3c 29bc 083c 24ea abbd
00000330: 13cc 3ebd fbc7 bc3b 2932 603d 7e76 b7ba
00000340: d4e2 19bd 4c28 913d 44e4 8cbd 0fd6 bb3b
00000350: a980 4d3d dd2a 11bd 6c4d 183c 94bf 00be
00000360: bcdf d0bd e1dd 793d 07fb fe3c bb7c 8dbc
00000370: 5538 66bc 66bf b1bb bdb4 8cbd 9394 573d
00000380: b05a 423d 9f70 633d 3f48 d43d 6f5e 62bd
00000390: 5294 a43c 022c 6cbc 95b4 933d 4015 a4bd
000003a0: a438 adbd 72e1 8d3d 33ee c8bc cd4d d63d
000003b0: de7a 55bb 9435 abbd 7eca c03a 3bd1 bf3d
000003c0: e5d8 963c 84d3 c4bc 67f8 053d c843 9f3d
000003d0: d52c 07be ee1d 32bd 2e07 12be cbdf 203d
000003e0: d60a 043d c493 cfbd 7f08 d2bd 9df8 6f3d
000003f0: 5296 00bd 60bd 913d 25f8 6f3d 386b 5e3d
0.05862529 0.044972416 0.048213523 0.025084902 0.07214903 0.09489264 -0.059532307 -0.051708348
0.13824318 -0.020934055 0.050059203 -0.03018165 -0.08261415 0.0010598341 -0.029535197 -0.059536852
0.05039373 -0.014994069 -0.1372257 -0.010007039 0.04421389 -0.041541666 0.045351207 -0.054617498
0.059103746 0.050079487 -0.10277687 -0.0050771674 0.10512915 -0.02877626 -0.038947646 0.113936685
-0.083815135 0.14194652 -0.08044636 -0.04484117 -0.0562099 -0.067016646 -0.0066510565 0.052445423
0.062434003 -0.020869771 -0.035421126 -0.07499123 0.117537536 0.011305863 -0.029160319 0.11118648
0.01590914 -0.010681632 -0.011360778 -0.095229074 -0.043258358 0.0004114654 -0.032454006 0.053231493
0.05781279 0.011651843 -0.02308699 -0.023437476 -0.03901537 -0.0780049 -0.01328227 0.06251765
0.026492348 0.02043453 -0.06492866 -0.0018491582 -0.036205396 0.07699744 -0.11999645 0.028270796
0.011384926 -0.009767704 -0.091633044 0.06414616 -0.10124028 0.050723728 -0.061256237 0.07598152
-0.10636961 0.035418604 0.11981815 0.038727883 0.046677783 -0.006945214 -0.005333661 -0.0245139
-0.06252201 -0.093008906 -0.051905252 -0.10318318 -0.035452478 -0.0090092495 -0.07557591 -0.075819425
0.09053557 0.020428397 -0.017204382 -0.06307795 -0.027098559 0.040390786 -0.02926945 -0.05576626
0.04950135 0.03027609 0.007966616 0.05928229 0.0038097047 0.002487798 -0.15533833 0.07752776
-0.060440082 -0.06629601 -0.10064899 -0.05286926 0.0112264 0.00068194466 0.011489914 -0.060171325
-0.1213587 -0.16639394 0.0069006803 -0.007481896 0.06921101 0.0035912404 -0.058731277 -0.04115027
-0.01455616 -0.09388127 0.05273873 -0.030409409 0.009493186 -0.011469498 -0.014581394 0.05092287
-0.055815827 -0.054546684 -0.014319816 0.004991657 0.038377304 -0.030317951 0.04733136 0.07331847
0.058659606 -0.032082662 -0.019547088 0.035869617 -0.07479256 -0.01432466 -0.032679576 0.024560396
-0.0075470307 0.055633396 -0.043351997 -0.064281 0.026363662 0.021648526 -0.0010211807 -0.040939707
0.052851126 0.06288848 0.010765471 -0.022464924 0.06451096 0.06063988 0.0030246917 -0.068195276
0.06062448 -0.07918392 0.04204825 -0.051163536 0.0009472688 -0.028792592 0.014017852 0.030164834
0.0046159895 0.035622142 -0.08416341 -0.00614 -0.01793357 -0.08494245 0.08404115 0.01288108
7.467176e-06 0.0107526565 -0.0036209917 -0.039161135 0.046814345 0.0519845 -0.026368577 -0.033736546
0.009793599 -0.060950097 -0.08012713 0.0065586963 -0.02775902 -0.039868455 0.023305647 0.031160336
0.04880654 0.013566863 0.008345642 -0.08394268 -0.04658134 0.005761144 0.054735336 -0.0013997105
-0.037569836 0.07087764 -0.06879476 0.005732305 0.050171528 -0.03544127 0.009295803 -0.12573081
-0.10198924 0.061002616 0.031125559 -0.01727139 -0.014051517 -0.005424428 -0.068704106 0.052631926
0.047449768 0.055527326 0.10365342 -0.05526584 0.020090256 -0.014414789 0.07212178 -0.080118656
-0.08458069 0.06927766 -0.024527645 0.10464058 -0.0032574455 -0.083598286 0.0014708785 0.093660794
0.01841397 -0.02402664 0.032707598 0.077766 -0.13200696 -0.043485574 -0.14260551 0.039275926
0.032236896 -0.10135606 -0.10255527 0.058586705 -0.031393357 0.071161985 0.05858626 0.05430147

sequential/lstm/while/lstm_cell/MatMul_5 f4 [80, 80]
00000000: 6b89 f2bc 56cf 013d 60c3 1a3d 6041 b73d
00000010: c864 dabb 2f97 b0bd 645d 5dbd ccbc dc3b
00000020: ec77 b23a 2b3e 6fbd bb01 84bd 79ea c7bd
00000030: eb7e 1c3e 00d0 b23d 2a55 143d eea2 1d3e
00000040: 0f80 743d df2a 3dbd 7d89 bc3c 2c91 03be
00000050: 0587 953d 3aa1 c6bc 9b5c 533c 195a ccbd
00000060: 5e88 5bbc 7872 d23d ce75 bc3d 1ce0 73be
00000070: 92a6 89bd 7de1 5cbd ebf2 e8bc 6a7b d03d
00000080: aca3 debd f697 b5bd 2e11 553e d532 113d
00000090: 6dea e8bb 2bce a3bd 9fb4 443d fc68 bdbb
000000a0: 6d1b 26bd 8958 43bd 6c4c 5b3c e9ad b1bd
000000b0: 8571 203d 2fcd 09bd 51cd 073d c2d9 0e3e
000000c0: 1c93 103d 2363 ecbd 34e2 bbbc 7b80 bf3b
000000d0: e375 b5bd eb74 bf3c bc6a 30be a65d b43d
000000e0: b3c0 79bd 3968 d1bd a4e0 ef3d 337d 4d3e
000000f0: 0479 603d 5542 57bd bf11 f23b 1791 543b
00000100: 5bb9 e73d 886f fdbd 95aa 6fbb 28b3 73bd
00000110: 9c85 36bd 3bd3 60bb 2552 c6bd 287c 10bc
00000120: 03c8 8f3b f025 19be 22cf 063d 11eb 2f3c
00000130: d82a 10bc d795 a5bc cec1 11bd 63ff 8ebc
00000140: c13f 6fbd 566d ddbd ebdc d43b 3824 52bd
00000150: 8f4a e73c 6069 8e3d 2534 423d 9143 35bc
00000160: c8e7 6ebd 7dfb e63d baca ae3d 2073 d23c
00000170: def9 edbc e6fd a6bd fb23 a73c 608d 8f3c
00000180: 21c2 e5bd 264c c2bd 1a37 28bc 0158 2b3d
00000190: 2b5c 8bbc 08fe ddbb b7ba b7bd b235 873b
000001a0: 6da6 213c 826d 213d 25c5 8abd f7fe 7a3d
000001b0: 98e8 3d3c 7fa8 1f3d 3dd5 1b3d 4850 1ebe
000001c0: 4f78 123e 5202 36be fa2f c03d ef49 45bd
000001d0: 9e91 cabd 3621 093e 11c4 bebd 796a 2f3d
000001e0: 3a3f ebbc 7025 e83d 886c fa3d f219 9dbc
000001f0: 5f53 b9bd 07d9 55bd 5520 31bd 6547 a5bc
00000200: c534 4bbd 74ca 493d f1a1 343d 8c9f db3c
00000210: ef77 403c a33d 3ebd 9595 e8bd 8243 4fbd
00000220: a38a 743c 39d2 38bd 6442 183e a79e 983d
00000230: 8c8c cf3c b7ff 753d fd11 e6bc bfb3 5cbd
00000240: 54c2 503d 1635 1e39 d4b3 7cbd ba78 133d
00000250: a393 1e3d 757e c5bd be08 e33d 7545 28bd
00000260: d7ea 093c b9b4 68bd 4def 3ebd 5d63 8bbd
00000270: 6e6e 433d 943b 42bd bf68 4abd 6207 023d
00000280: 227e b8bc a4a5 8f3d 617d b2bd d88c 8e3c
00000290: 1092 9abd 798f c4bd c1f2 0bbd e029 703d
000002a0: 78f2 cbbd c405 62bd 034d 2c3c 4b78 b23d
000002b0: dc90 933c 8e5e 5c3d 3d12 e9bc 11d0 8b3d
000002c0: fb3e d53d 16a4 3dbb d991 c23d 74df 1bbc
000002d0: 1e8d a7bd a2b1 173d 8649 75bd 2d30 b63d
000002e0: 21d2 64bd 381b a7bd 1ae3 bdbd d28f 37bc
000002f0: 6345 90bb 20b8 dd3c bf59 ba3c 3f40 6cbd
00000300: a634 3ebd c760 e9bd f132 4739 08a3 b7bc
00000310: 0225 bc3c aea3 a5bd d9cc f33d b1c4 273c
00000320: d998 a5bd fd6b 97bc 8e78 bbbd b93a c93d
00000330: 5bc7 eb3c 3c1f 95bd 5ea6 023d 4e35 793d
00000340: 632a b23d 6de5 b3bc 5bcd 893c c9c9 463d
00000350: 169b b73d a07d c13d ad5d c7bd b912 ba3c
00000360: 493d 39bc 6c31 92bd 51c0 aa3c 2bb1 35bd
00000370: d470 af3d 46de 4d3b 5081 11be 5b30 683c
00000380: 8dee ea3d 2e35 163d a13b b6bc ef60 153d
00000390: 0294 373d 1327 af3b 2f1c f7bc 0adf 4b3d
000003a0: 55c4 413d 8ac0 083c 7e93 8dbb daf4 dcbd
000003b0: cb0d d63c e4a5 373d f4b8 31bd 0f0b c7bd
000003c0: 7729 493e d27d 2a3d 0612 b63d a394 713d
000003d0: b196 2e3d 425e 07bc f74f 9bbc cd25 29bb
000003e0: 8314 8b3d 55c9 30bb 3f77 143d 8cc1 b1bd
000003f0: 2406 72bb 33e9 13bd 8ee2 fbbd a8e5 683c
-0.029606542 0.03169187 0.03778398 0.08948016 -0.006664846 -0.08622586 -0.054044142 0.0067363735
0.0013616062 -0.058408897 -0.064456426 -0.09761519 0.1528279 0.08731079 0.03621403 0.15394184
0.05969244 -0.046183463 0.023014778 -0.12848347 0.073011436 -0.0242468 0.012900497 -0.09978122
-0.013399212 0.102757394 0.09202157 -0.2381596 -0.06721224 -0.05392598 -0.028436145 0.10179789
-0.10871062 -0.08866875 0.20807335 0.035448868 -0.007108024 -0.07998308 0.048023816 -0.0057803374
-0.0405535 -0.047691856 0.01338492 -0.08675749 0.03917076 -0.033642944 0.03315479 0.13950256
0.035296544 -0.11542346 -0.02293501 0.0058441735 -0.08860376 0.02337118 -0.17228216 0.088069245
-0.060974788 -0.10224957 0.11712769 0.20067291 0.05480291 -0.052553494 0.0073873694 0.0032435113
0.113146506 -0.123747885 -0.003657018 -0.05949703 -0.044561014 -0.003430559 -0.096836366 -0.008818664
0.004387857 -0.14955878 0.03291238 0.010737197 -0.008799277 -0.02021305 -0.035585217 -0.017455762
-0.05841041 -0.1081187 0.006496062 -0.051304072 0.028233794 0.069536924 0.04741301 -0.011063472
-0.058326513 0.11278436 0.08534761 0.025689662 -0.02904981 -0.08153896 0.020402899 0.017523468
-0.11218668 -0.094871804 -0.0102670435 0.041831974 -0.017011723 -0.0067746677 -0.0897116 0.004126274
0.009866339 0.039411075 -0.067758836 0.06127831 0.011591099 0.03897905 0.038045157 -0.15460312
0.14303707 -0.17774323 0.09384151 -0.04816621 -0.098910555 0.13391575 -0.093147404 0.04282615
-0.028716672 0.11335266 0.12227732 -0.01917741 -0.09049105 -0.052208927 -0.043243725 -0.020175645
-0.04961087 0.04926534 0.04409975 0.026809476 0.011747344 -0.0464455 -0.113566555 -0.05060149
0.014925632 -0.04512236 0.14869076 0.074521355 0.025335573 0.06005832 -0.02808475 -0.053882357
0.050966576 0.0001508783 -0.061694935 0.036003806 0.038715016 -0.096432604 0.11085652 -0.041081864
0.008417807 -0.056812976 -0.046614934 -0.068060614 0.047712736 -0.0474201 -0.0494163 0.031745322
-0.022521082 0.07014015 -0.087153204 0.017401144 -0.075473905 -0.09597678 -0.034167055 0.058633685
-0.099583566 -0.05518128 0.010516408 0.0871435 0.01801341 0.053801112 -0.02845108 0.06826795
0.10412403 -0.0028936914 0.095004745 -0.009513725 -0.08181213 0.03703464 -0.05988457 0.088959076
-0.055864457 -0.081594884 -0.09271832 -0.011203723 -0.004402803 0.027065337 0.022747872 -0.057678457
-0.04643693 -0.11395412 0.00018997096 -0.022416607 0.022966865 -0.0808786 0.11904306 0.010239766
-0.08085794 -0.01848411 -0.09153853 0.098256536 0.028781584 -0.07281348 0.03189694 0.06084185
0.08699491 -0.021959985 0.016821554 0.04853228 0.08965127 0.09447789 -0.09734664 0.022714006
-0.011306115 -0.07138333 0.020843657 -0.044358414 0.08566442 0.0031413003 -0.14209485 0.014171685
0.11471281 0.03667181 -0.02224523 0.036469396 0.044818886 0.005345234 -0.030164806 0.049773254
0.047306377 0.008346686 -0.004320561 -0.10788889 0.026129624 0.04483594 -0.043389276 -0.09718906
0.19644724 0.041623898 0.088901564 0.05897964 0.04262418 -0.008262219 -0.018959029 -0.0025809885
0.06791022 -0.0026975472 0.036246534 -0.08679494 -0.003692993 -0.036111068 -0.12299071 0.014214911

sequential/lstm/while/lstm_cell/MatMul_4 f4 [80, 80]
00000000: 66f1 29bd 5040 ccbb fbf9 913c 0610 063d
00000010: 7676 173d 49e3 babd 42d0 d53c 9182 c9bc
00000020: 2072 70bd 9ca0 b33d 6974 023d 308d 9abc
00000030: 5067 383e 31c3 933d c469 8c3a 2ded 693d
00000040: c712 883d a7d3 acbc fa3f b33d 0118 24be
00000050: 22ff b73d b0b3 643c c206 ac3d dfa5 a03d
00000060: 274f 493d 6119 b23d 445e 65bd 27ef f2bd
00000070: b907 86bd 9eb6 fabc 9847 5e3d df6d e2bc
00000080: 9e78 f63c 889a 4bbd 7f11 1f3d 9343 e03d
00000090: 2bea a5bc 5fa4 f73c d495 613c a570 173d
000000a0: de8b cdbc be78 2ebd 3765 58bd de4a 9abd
000000b0: 69d2 b43b 8941 abbc 4d04 ef39 e34e 2abd
000000c0: a2a1 e8bc 77e2 293d 5a48 283b a598 afbc
000000d0: 2da7 47bb d1d1 a9bc 1cf9 3d3b 0a27 943b
000000e0: 4be1 0ebd 0a00 07bd 1afe 71bd 22b5 0b3e
000000f0: d743 4d3d c34b 4e3d 2ad2 413d 3c22 673c
00000100: 625d 80bd c260 bfbd 9e9c 103d b3d6 ef3d
00000110: a567 3c3d f2a2 b93c a86b 75bd 6d17 b2bd
00000120: e02e f83c 6262 b9bd b8db 6bbc 4625 e6bb
00000130: bed0 24bd 6e3f 423b 2efe b5bd 7380 213d
00000140: 58a6 5bbd 5705 083e 9ba0 793c 6d77 d2bd
00000150: 8147 d03d f1d1 68bd f984 9bbc a533 e9bc
00000160: 8c8e 6dbb f556 e33d d235 a73d 30af 5a3d
00000170: ddb1 a2bd 7907 bebd 4466 753d 5804 933d
00000180: 20bb 24bd 1b19 9fbd ec4c a83c af27 e4bd
00000190: e211 873b 9453 82bc 1fc9 9b3d f558 043c
000001a0: 3fe7 abbd f447 74bd 3b59 d83d 4bca b73c
000001b0: 662d 71bd 9f85 86bd fb55 153e e477 243c
000001c0: ad30 b23d 4538 d1bd 5a00 9cbc 5eba f7bc
000001d0: e91a bcbc 705f 94bd 612d ddbd 8e79 a3bd
000001e0: f554 c73d b5b5 1d3d 7496 babd 3b4e 63bd
000001f0: e297 a7bd 826b e8bd db50 4e3d b516 0cbc
00000200: 74c6 c9bd cf8b 713d abc8 dc3b 6a44 a33d
00000210: acf9 fa3b 8f01 6c3c 1b95 9ebc d46b 8bbd
00000220: 0118 dd3b 77ad 8abc 4d05 a03d 1337 533d
00000230: d35f 03bc 96e1 adbd 462b 72bd 279d 93bd
00000240: e422 633d 1f2b 9bbc 3eae a03c 5295 acba
00000250: da4b 1d3c 8dca 1c3c 0527 d13d 527a 7ebd
00000260: f469 53bd d6f0 f03c 1517 4a3c 1ed3 42bd
00000270: 50ae 79bd 74d6 a2bc dff3 5ebd 12d3 663d
00000280: b178 523c 3bbb 2aba af7a 0abe dab8 8d3c
00000290: cbee d33c 52da 6b3c d422 4d3a 13e1 b43c
000002a0: fc21 61bc 1939 7d3d 1ca2 41bc f196 5c3d
000002b0: 160e aa3d 3fd7 4e3c b749 973d ad56 dbbd
000002c0: b059 4f3d 20fe 05be 2fe3 253e 675b bf3d
000002d0: ae13 fdbc 99fb cf3d 6398 2f3d 6858 4f3d
000002e0: a718 f6bd f0f0 55bc 02ae 3f3d 9b20 07bd
000002f0: cca2 4f3b 5e20 05bd 69f3 2cbd f8e4 2ebd
00000300: 5226 48bd 9261 3dbc dfb8 3a3c 6d85 413b
00000310: 654e a03c 9c84 393d 7f05 b83c cf38 293b
00000320: 78dd a93d 4383 debc 45ca e7bc c946 793d
00000330: 2868 9c3c 5e43 4cbd 0ef4 b73c 5c23 2e3c
00000340: 6e5c 7c3d 23f6 8dbc a3ab 5cbc e25c 12be
00000350: 81c9 523c 19dc 98bc eb42 39bd a9b9 db3b
00000360: 20a8 c83c 8a45 b1bc 4b66 0f3d 2d4f 523b
00000370: 9b5d 693d e80a 1dbd 5f2b 84bd b3f0 ac3a
00000380: d703 633d 41cd 03bd eb03 413e 5df1 0a3d
00000390: d058 57bd dd09 d5bc 3f70 693b a395 3a3e
000003a0: d097 cc3c 8fc3 d93d 91a1 0b3b 418d 7dbc
000003b0: d3b5 e7bd d812 58bd 41c4 14bd b2b0 043c
000003c0: e2e1 8e3d 6550 d0bd ee7e 6cbd d62e 03be
000003d0: 487a b83c 19eb b1bc 3c28 27bd 4977 333d
000003e0: 2bc4 c33c 1c41 06bc 5dc1 42bc dd0b eabd
000003f0: 051e 363d e0aa 0f3d b3f6 94bb c641 a13c
-0.04148998 -0.0062332526 0.017819395 0.032730125 0.036978208 -0.091253825 0.026100282 -0.024598392
-0.058702588 0.08770868 0.0318493 -0.018866152 0.1800816 0.07214964 0.0010712673 0.057110954
0.066442065 -0.021097017 0.08752437 -0.16024782 0.089842096 0.013958856 0.083997265 0.078441374
0.04914775 0.08696247 -0.0559981 -0.11862021 -0.06544442 -0.030604657 0.054267496 -0.027640281
0.030086812 -0.04970792 0.038835045 0.10950389 -0.020253262 0.030229745 0.013768632 0.03697266
-0.025091108 -0.042595617 -0.0528309 -0.07533811 0.005518247 -0.020905273 0.00045588837 -0.04157914
-0.028397385 0.04147574 0.002567789 -0.021435091 -0.0030464635 -0.020729931 0.0028987592 0.0045212554
-0.034882825 -0.03295902 -0.05908022 0.13643315 0.050113525 0.05036522 0.04731957 0.014107283
-0.06267811 -0.09344627 0.03530561 0.117108725 0.04599728 0.022660706 -0.059917122 -0.08695874
0.03029579 -0.09051968 -0.014395647 -0.0070234863 -0.040238135 0.0029639858 -0.088863716 0.03942914
-0.053625435 0.13283287 0.015236045 -0.10276685 0.10169888 -0.05684084 -0.018984305 -0.028467009
-0.0036248295 0.1110057 0.08164562 0.053389728 -0.07944081 -0.09278769 0.05991198 0.07178563
-0.04021752 -0.0776846 0.020544492 -0.111403815 0.004122005 -0.015908994 0.0760672 0.00807785
-0.08393716 -0.059638932 0.10563894 0.022435328 -0.058881186 -0.06568455 0.1458358 0.01003835
0.087006904 -0.10215811 -0.019043136 -0.030240234 -0.02296205 -0.07244766 -0.10799671 -0.07982169
0.09733001 0.038503367 -0.09110728 -0.05549453 -0.08183266 -0.113486305 0.05037008 -0.008550336
-0.09852305 0.058971222 0.0067377887 0.07972033 0.0076591577 0.0144046685 -0.019358208 -0.06807676
0.0067472463 -0.016928418 0.07813511 0.051566195 -0.008018452 -0.08490293 -0.0591233 -0.07207709
0.055453196 -0.01894146 0.019614335 -0.001316706 0.009600604 0.009569776 0.102125205 -0.062128372
-0.051614717 0.029411715 0.012334605 -0.04756462 -0.060957253 -0.01987765 -0.054431792 0.056353636
0.012846158 -0.0006512885 -0.13523363 0.017300058 0.025870701 0.014395313 0.0007825319 0.02207998
-0.013741013 0.06182203 -0.011818435 0.053854886 0.08303468 0.012624561 0.07387107 -0.107098915
0.050622642 -0.13085222 0.16199945 0.093436055 -0.030893173 0.1015541 0.042869937 0.05062142
-0.12016421 -0.013057932 0.046796806 -0.03299008 0.0031682728 -0.03250157 -0.04222432 -0.04269883
-0.04886467 -0.011558907 0.011396616 0.002952899 0.019568631 0.04529248 0.022463558 0.0025821214
0.08294195 -0.0271622 -0.028294692 0.06085852 0.019092634 -0.049868934 0.022455242 0.0106285475
0.061611585 -0.017329281 -0.013468656 -0.14293244 0.012865425 -0.018659638 -0.045229834 0.006705482
0.02449423 -0.021639604 0.035009664 0.003209065 0.056974035 -0.03834048 -0.06453585 0.0013194293
0.055423584 -0.032178167 0.18849151 0.03392159 -0.052574933 -0.02600568 0.0035619882 0.18221144
0.024974734 0.10633003 0.0021306018 -0.015475572 -0.11313977 -0.052752346 -0.036319975 0.008098768
0.069766775 -0.10171584 -0.057738237 -0.12810835 0.022519246 -0.021718549 -0.040809855 0.04381493
0.023897251 -0.008194234 -0.011886922 -0.11428044 0.044462223 0.03507507 -0.0045460104 0.019684684

sequential/lstm/while/lstm_cell/split_1 f4 [80]
00000000: cc47 ed3b b0ec 593c d7df 21bc 9eeb 023d
00000010: f9cc 723b 5c23 8b3b 84ee 2abc ed78 403c
00000020: b2c1 0a3d 96b9 963c b24f 04bd 353b c4ba
00000030: 50e1 06bb fa03 913c 1d81 d7bb f8df e2bb
00000040: 4888 943c 38c3 fb3b 7644 1fbd 0914 de3a
00000050: 0d2b e0ba eaae 4f3c bd20 03bc 1060 8eba
00000060: d2d8 90bc 988d 3a3b 2e7e d13a 8958 f73c
00000070: 9cf7 bb3c 516c 983b 6131 ea3c dc88 bd3c
00000080: 7788 c13c 9207 b73a 8f19 173d 2479 923c
00000090: 4e09 3fbc 7f1b de3a a158 b23b c4ba 773a
000000a0: e40e 3bbc 1860 b33c 2341 43bc 6ee1 93bc
000000b0: 94bf 633c b674 30bb e5c5 e0bb cf39 643c
000000c0: e890 4bbc 9e4d 153d 7366 8c3a 3582 b43b
000000d0: 29d0 fc3b d3f5 2fbb b913 d33b 3e56 4e3c
000000e0: 9141 18bc dd80 8bbb befa 553c 2441 113c
000000f0: 3a89 383c 1601 9dbc c7b9 fcbb c294 533c
00000100: 713b 07bc 73ad 7cbc dd6b 6dbc d36e a53c
00000110: 6e25 c9bb e407 0a3b fe3a 243c 4ce5 683c
00000120: e1ac 0f3c f25b 8b3b b3fd 9f3b 659a c13c
00000130: 9f5e 243d f466 a1bb ff8b 8d3c 9204 8a3b
0.007241225 0.01330106 -0.009880028 0.031962983 0.0037048443 0.0042461585 -0.010432843 0.011747581
0.03387613 0.018399041 -0.032302566 -0.0014971258 -0.0020581074 0.017702091 -0.006576671 -0.006923672
0.01813139 0.007683184 -0.03888365 0.0016943227 -0.0017102674 0.01267598 -0.008003411 -0.0010862369
-0.017681513 0.0028465744 0.0015983039 0.030193584 0.022945218 0.004651584 0.028587999 0.023136549
0.023624642 0.0013964048 0.03688961 0.01788003 -0.011659933 0.001694545 0.0054426943 0.00094501325
-0.011417124 0.021896407 -0.011917385 -0.01805183 0.013900656 -0.0026925034 -0.0068595284 0.013929798
-0.012424685 0.036450975 0.0010711685 0.005508686 0.0077152443 -0.0026849404 0.00644156 0.012593804
-0.009292976 -0.004257305 0.01306027 0.008865628 0.011263186 -0.019165557 -0.007712576 0.012913885
-0.008253918 -0.015422213 -0.014491049 0.020194447 -0.006138495 0.0021061832 0.01002383 0.014214825
0.008769245 0.004252904 0.004882538 0.023633191 0.0401293 -0.004925603 0.01727867 0.0042119706

sequential/lstm/while/lstm_cell/split_11 f4 [80]
00000000: 97a3 843f 5c82 833f 3a07 7d3f 8dc0 833f
00000010: 7bb0 803f 557b 813f 7213 7f3f 18a1 813f
00000020: 2aca 853f 3e72 823f 530a 7b3f fd04 803f
00000030: 18de 803f 9a41 833f 4efe 7e3f a131 7e3f
00000040: ba06 823f 5e0f 813f a77e 773f 26ce 813f
00000050: 7155 7e3f dc1e 833f d036 803f c82f 803f
00000060: 0df9 7b3f 5368 813f 231d 7f3f 24ab 843f
00000070: 993d 843f b3be 803f b1e3 833f d8c7 833f
00000080: 39f1 823f 0426 823f 3b47 853f ee90 833f
00000090: 6b19 813f 90c2 803f 470e 813f b4a9 7f3f
000000a0: 0552 7e3f 5a6e 863f 907c 7d3f 8c33 7b3f
000000b0: 0e8c 813f a816 7f3f 42b5 7d3f e009 833f
000000c0: 1144 7f3f c2ad 843f 5ae3 803f 548c 813f
000000d0: 73f8 823f 41c0 7e3f 1eaa 813f f81f 823f
000000e0: 9a18 7e3f e1fe 803f c4a9 813f 8f1d 823f
000000f0: 6cfa 833f 6e6f 7a3f 243e 7d3f 6a7b 813f
00000100: c6d1 7e3f 2316 7d3f 84d3 7c3f 05ce 843f
00000110: 0414 803f a95b 803f 21cd 813f 01e9 813f
00000120: a9f9 803f 07d8 813f 537a 823f fd15 843f
00000130: 0751 863f 8900 803f 2c72 813f 8f58 803f
1.0362424 1.0274158 0.9883915 1.0293137 1.0053858 1.0115763 0.99639046 1.0127287
1.045232 1.0191114 0.9806263 1.0001522 1.0067778 1.0254395 0.9960679 0.9929448
1.0158303 1.0082815 0.9667763 1.0141037 0.99349123 1.0243793 1.0016727 1.0014582
0.98426896 1.0109962 0.99653834 1.0364728 1.0331298 1.0058197 1.0303861 1.0295362
1.0229865 1.0167851 1.0412363 1.0278604 1.0085882 1.0059376 1.0082482 0.9986832
0.993439 1.0502427 0.9901819 0.9812553 1.0120866 0.99643946 0.991047 1.0237389
0.99713236 1.0365527 1.0069382 1.012095 1.0232071 0.99512106 1.0130041 1.0166006
0.9925629 1.0077783 1.0129933 1.016527 1.0310798 0.9782628 0.98922944 1.0115788
0.9953884 0.988619 0.9876025 1.0375372 1.0006108 1.0027972 1.0140725 1.0149232
1.007619 1.0144051 1.019358 1.031921 1.0493478 1.0000163 1.0112967 1.0027026

sequential/lstm/while/lstm_cell/split_12 f4 [80]
00000000: 9dcc 7b3b 5380 343c 598b dfbc 3cdb 5fbc
00000010: 92c2 fcbc 9a23 5a3c 96fe aa3c 06b2 5fbc
00000020: 09ac d3bb 3773 14bc 95c5 dc3a 295e 6fbc
00000030: eea7 d2bb 2469 a83c 9b6c 86bc f4cd d4bb
00000040: f9fc 8c3c 1233 ec3c 66d6 bdbc 0a24 8c3c
00000050: 0778 f9ba 864b d33c 84b0 4ebc ee6b 893c
00000060: 6941 493c 738d edbb cee8 80bc 634d 033d
00000070: bfe8 07bd cd08 e3ba 132b 32bc 13ea ddbb
00000080: 0b68 acbc 71f2 a53c 769e f9bc 0e8f 8abc
00000090: 2c73 cb3c 4fd0 f8bc 9dff ba3c 4553 93bc
000000a0: 9a98 37b9 3a63 903c 8580 1fbc a846 033d
000000b0: f826 cb3c e885 29bc 608d 623a 95dc a9bc
000000c0: 6f36 0e3d c466 98bb e1b5 c53c be8c cbbb
000000d0: c015 c63c 5c86 ccbc 01f7 3abc 2312 bdbc
000000e0: b27e 213c 45fe 7f3c c3cc f1bc afea b5bc
000000f0: 8df8 c13c bb6d 04bd 01ff 61bc 299f 1e3d
00000100: 2a5c 8a3a 876d b73c dde2 eb3c c526 dc3b
00000110: 50fd 523c 5ad2 6a3c c5b4 e93c 712c 6a3c
00000120: 57d0 a83c 6b3c fa3c f945 82bc 71ac 8abc
00000130: 4e42 a53c 6a97 3cbc 3f55 be3c 7fed 11bd
0.003842152 0.011016923 -0.027288126 -0.013663109 -0.030854497 0.013314152 0.02087335 -0.013653284
-0.006459717 -0.0090606725 0.0016843552 -0.014609852 -0.00642871 0.020557947 -0.016409209 -0.006494278
0.01721047 0.028832946 -0.023173522 0.017107029 -0.0019032963 0.025792848 -0.012615327 0.016775098
0.012283661 -0.007249528 -0.01573601 0.032056224 -0.03318095 -0.0017321348 -0.0108745275 -0.0067722886
-0.021045705 0.020257207 -0.030471068 -0.016913917 0.024835192 -0.030372767 0.022826964 -0.017984042
-0.00017509089 0.01762544 -0.009735231 0.032049805 0.024798855 -0.010346867 0.00086422823 -0.020735065
0.03471988 -0.0046509225 0.024134578 -0.006211846 0.024180293 -0.024966411 -0.011411429 -0.023079937
0.009856867 0.015624587 -0.029516583 -0.022206632 0.023678089 -0.03233121 -0.013793708 0.038726006
0.0010556031 0.022391094 0.0287947 0.006718489 0.012877777 0.014332378 0.02852858 0.014292822
0.020607157 0.030546388 -0.015902506 -0.01692793 0.020173218 -0.011510709 0.023234008 -0.035626885

sequential/lstm/while/lstm_cell/split_13 f4 [80]
00000000: 089f f43c af65 353c 6c10 4ebc 3a6c 943c
00000010: 2fe2 713b 912e 2d3c b930 603b 9997 773c
00000020: 778d e33c e8fc df3c c610 e5bc c4d7 05bc
00000030: 4a1b c6bb 68a9 d23c 5baf c7ba 752f 19bc
00000040: 23ee e93c f3a1 1d3c 9f03 d8bc 337b 52bb
00000050: 2060 79bc e622 ae3c fbbb 8cbb 26de 37bb
00000060: edfb 9ebc 2195 223a 527c b53a e520 273d
00000070: 3367 f23c ef20 cd3b 560e f73c f85d df3c
00000080: becd cf3c 214b b73c f4a5 0e3d 59ee 803c
00000090: e70c 3c3c 3077 fd3b e7c8 c33b 879c 3e3b
000000a0: 8cc5 a9bc 6144 d13c 2cf5 b1bb 286d 2abc
000000b0: 1fee 883c a3ba 4ebc 3c17 45bc fb1a b03c
000000c0: ce25 03bc f3c4 013d fe44 4f3b e7f9 4a3c
000000d0: fa6d d03c a995 31bc ed4a 0a3c 1460 bb3c
000000e0: 20ec 08bc 307a be3b 1b36 e03b 0b6c 523c
000000f0: d447 9a3b 83ac a9bc f34e 863a 447d c83c
00000100: 68aa 91bb 0c97 70bc 27db 14bc 6d0e c83c
00000110: 35f0 66ba 2062 b53a b703 593c a4b5 533c
00000120: 255b 6c3c ffce 853c a848 a63b 948b e63c
00000130: 5abb d03c a85c bcbb c66f 8b3c 510a 1e3b
0.029860988 0.011071607 -0.0125771575 0.018118013 0.0036908498 0.010570184 0.0034208728 0.015111827
0.027777417 0.027342275 -0.0279621 -0.008169118 -0.0060457336 0.025715545 -0.0015234755 -0.009349694
0.028555935 0.009621131 -0.026368914 -0.003211689 -0.015220672 0.021256875 -0.00429487 -0.0028055995
-0.019407237 0.00062020315 0.0013846254 0.040802855 0.029590225 0.0062600295 0.030158203 0.027266487
0.02536666 0.022374691 0.034826234 0.015738653 0.0114776855 0.0077351555 0.005974877 0.0029084997
-0.02072408 0.0255453 -0.005430838 -0.010402001 0.016715107 -0.01261774 -0.012029465 0.02149724
-0.008004619 0.031681966 0.0031626816 0.012388683 0.025443066 -0.010838904 0.008440715 0.022872962
-0.008357078 0.0058129057 0.0068423874 0.012843142 0.0047082696 -0.020712143 0.0010246917 0.024473794
-0.004445363 -0.01468445 -0.009085453 0.024420941 -0.00088095973 0.0013838448 0.013245515 0.0129217245
0.014426027 0.016334055 0.0050745793 0.028142728 0.025479961 -0.00574835 0.017021071 0.0024115036

sequential/lstm/while/lstm_cell/MatMul f4 [80, 23]
00000000: cbc7 2dbe 274a 00be 82d7 cf3d 9f75 17bd
00000010: 7cb7 993d 062f a13d 3ce4 acbd 53a8 5c3d
00000020: 478a 083e 5b37 0c3e e22c cbbd cb38 ba3d
00000030: 6ad3 c8bd 8c72 9e3d beda 0cbd a98d eebd
00000040: 1c99 3a3d db1e 02be 0d70 cfbd 7d11 89bd
00000050: fc4b 523d e087 c93c 74f9 b8bc 5064 04bd
00000060: 8e9e bbbc 5cb3 0dbe b41e c2bd 874d babd
00000070: f605 b6bc 7989 5dbd 1bf1 94bd 7e49 20be
00000080: fc71 e9bd 6935 d8bd cfd5 1fbe 91ac 0abe
00000090: 62c1 143c b9d8 e93d 5eb9 ccbd 4e31 3a3d
000000a0: cdf1 173e 32ba a13d c2c1 09be 49d0 5c3c
000000b0: 402b 183d b432 163d d9f1 24bb 0437 f03d
000000c0: 7fa3 e63d 79f4 26bd 55c1 913c c21f 87ba
000000d0: 0c27 55bb c3b2 d3bd ca69 55bd 2b7c 0c3e
000000e0: 60d4 a0bd 00ea bb3d 8081 cd3d 929f 433d
000000f0: c296 22bd 6a31 c53c d594 0dbe a802 f13d
00000100: 5d57 90bd df06 5ebc c6d4 be3d 8b44 95bd
00000110: b1ac 5f3d 8c2b bb3d 89db 03bd 04ca 6f3c
00000120: ec31 d0bd 3244 f5bd 19ff a73d e94e e4bd
00000130: da88 773d 7655 603d 157b 6c3c 2800 02bd
00000140: 1100 ea3d 41e8 1c3d 6f4d de3d 0bc4 3bbd
00000150: a0df 85bd d392 dd3d afb2 febd c848 40bd
00000160: 3a2f c03d bdec 45bd 10e2 0a3e e807 e73d
00000170: cf80 343d 9017 0a3d c840 de3b 9e1a 033d
00000180: 4475 b93b 6e93 8dbd b8bf a23d 16f1 fd3d
00000190: 5aae 1bbc acd5 00be 00fc c239 c22a 50bd
000001a0: dcbb e03a f6f0 01bd 1b81 323d 1ae4 413d
000001b0: 6a22 343d 0a3c 693d 11a4 6ebd d16f d53c
000001c0: 7720 a6bc bd97 d43d 9e23 27bd 4e28 983c
000001d0: ba1f a4bd c435 b73d 669c 1abd d6d2 163c
000001e0: 735f 0ebe 2a29 8a3d f339 e33d 3ac9 0ebe
000001f0: 9794 7abd f261 e03d e82b d23d 7993 b23d
00000200: c1de c93d 75aa d13c 0866 1c3e 8984 bfbd
00000210: 6da9 b4bb d3cd 02be b1ce 2fbd e4fe abbc
00000220: 9306 513d c88c d53d 0122 cabc fb3d 413b
00000230: 4570 89bd 6377 91bd 7018 903c f9d1 b63c
00000240: 7449 edbd 8e73 fe3d 18cb cf3b ddb8 bd3d
00000250: aa1a 06be 5221 aa3d a54b 293e bbd0 673b
00000260: f4ba fd3c cac2 ea3d 874c 023e f9e7 dbbd
00000270: 42d7 92bd 6bc3 f9bc 83b4 fa3d bf6f 233d
00000280: 842f 04be b668 983d ad42 0ebe b355 1d3e
00000290: 940c 40bb af50 a63c 9bf4 d53c 05b9 fb3d
000002a0: bca1 e83d 25ba 88bd b9f6 eebd 56f3 b0bd
000002b0: 12d9 903c a97c a5bd 5296 f53d 9bd0 9f3d
000002c0: 5441 30bd 704f a23b 0c26 3b3c 1416 c3bd
000002d0: f20c 0cbd 956b ed3d f160 f4bd 1230 9a3b
000002e0: 1c7a e5bd d169 28be b65e 44bd e105 72bd
000002f0: fec9 d63d 78f6 523b 3c87 b2bd d26a a2bd
00000300: e147 11bb b815 e8bc f6ab 74bd 7bee db3c
00000310: fc15 123e a9c1 b63d 3e02 0fbe a976 04bb
00000320: 9984 0abe ae2d e03a 2f02 10be 05fb e8bd
00000330: 6676 c9bb 7cc2 46bd 050b 493d d523 3bbc
00000340: c1f1 d8bc 3f5c b23d 0193 ad3d 6d99 babd
00000350: 066a 2abd 141a 76bc f3a0 be3d 267a c2bd
00000360: 0561 09bd c0b1 a7bb b241 233d 7893 f5bd
00000370: a13d ca3d b88d 143e 5cca 653d 7a56 a03d
00000380: 667d 3dbe d7f4 09be 9171 14be d5fd 113e
00000390: 0dca f0bc 22f0 9fbc c4a7 c73d e83f ba3b
000003a0: f36f c03d 22e1 cc3d c4e0 a93c 9d27 1abc
000003b0: f73c 7ebd b9d8 21bd 3930 0d3d df38 743d
000003c0: 442a db3d 9775 5c3d b1e7 163e aa62 90bd
000003d0: 2d19 13bd 6c55 a3bc 10c8 5b3c 1655 a93d
000003e0: f0d5 c23d 6721 70bd f853 353d 1ebb ab3d
000003f0: 2443 4bbc 2583 1738 af03 c53c cc80 013d
-0.16970746 -0.12528287 0.10148527 -0.036977407 0.075057 0.07870297 -0.0844197 0.053871464
0.13333999 0.13692991 -0.0992067 0.09092864 -0.09805949 0.07736692 -0.034388296 -0.11648113
0.045556173 -0.12707083 -0.10128794 -0.06692789 0.051341996 0.024600923 -0.022579886 -0.032322228
-0.022902753 -0.13837951 -0.094785124 -0.090968184 -0.02221964 -0.054086182 -0.0727255 -0.15653035
-0.11398694 -0.10557062 -0.15608905 -0.13542391 0.009079309 0.1141829 -0.099962935 0.045457177
0.14838333 0.07896842 -0.13452819 0.013477393 0.03715062 0.036669448 -0.0025168566 0.117292434
0.11261653 -0.04076049 0.017792383 -0.0010309147 -0.0032524494 -0.103368305 -0.05210284 0.13719241
-0.07853007 0.09175491 0.10034466 0.0477596 -0.039694555 0.024071414 -0.13826306 0.11768085
-0.07047913 -0.013551443 0.09317927 -0.07288464 0.05460805 0.09139165 -0.032191787 0.014635567
-0.10165772 -0.11975898 0.08202953 -0.111478634 0.060433246 0.054769002 0.014433642 -0.03173843
0.11425794 0.038307432 0.10854613 -0.045841258 -0.06536794 0.1081902 -0.12436425 -0.04694441
0.09384008 -0.048321474 0.13562799 0.11280805 0.044068154 0.033713877 0.006782625 0.032007806
0.005659731 -0.069128856 0.07946724 0.12399499 -0.009502018 -0.1258151 0.00037190318 -0.050822027
0.001714583 -0.03172394 0.043580156 0.047336675 0.043978132 0.056942023 -0.058261935 0.026054295
-0.020279152 0.10380504 -0.04080545 0.018573906 -0.08013864 0.08945802 -0.03774681 0.009205541
-0.13903598 0.06746133 0.11095037 -0.1394395 -0.061176863 0.109561816 0.10262281 0.087195344
0.0985694 0.025593976 0.15273297 -0.09351451 -0.005513361 -0.12773828 -0.042921726 -0.020995565
0.05103166 0.104272425 -0.024674417 0.0029486406 -0.06710867 -0.07102849 0.017589778 0.02231692
-0.11586276 0.12424384 0.0063413493 0.092637755 -0.13096109 0.083071366 0.16532762 0.0035372216
0.030972935 0.11462934 0.12724505 -0.10737605 -0.071699634 -0.03048869 0.12241461 0.03990149
-0.12908751 0.07441847 -0.13892622 0.15364723 -0.0029304372 0.020302145 0.026117614 0.12291149
0.113589734 -0.06676129 -0.11668152 -0.08640163 0.017681632 -0.08080418 0.11991562 0.0780346
-0.04303105 0.0049533173 0.011422645 -0.095256954 -0.034192033 0.11592785 -0.119325526 0.0047054375
-0.11204931 -0.16446616 -0.047941886 -0.059087638 0.10487746 0.0032190364 -0.087172 -0.079305306
-0.0022168087 -0.028330669 -0.059734307 0.026847115 0.14266199 0.089236565 -0.13965699 -0.0020212329
-0.13527144 0.0017103457 -0.14063333 -0.11376003 -0.0061481474 -0.04852532 0.049082775 -0.011422117
-0.026482465 0.08709001 0.084753044 -0.09111295 -0.041605018 -0.015020866 0.093080424 -0.09495954
-0.03353979 -0.005117625 0.039857574 -0.11991018 0.09875036 0.14507186 0.056101188 0.07828994
-0.18504867 -0.13472305 -0.14496447 0.14256985 -0.02939322 -0.019523684 0.09748796 0.0056838877
0.093963526 0.10003878 0.02073706 -0.009408859 -0.06206986 -0.039513323 0.034469817 0.05962455
0.10701421 0.05382308 0.14736821 -0.07050069 -0.03591268 -0.019938193 0.013414398 0.08268182
0.095134616 -0.058625605 0.044269532 0.08385299 -0.012406144 3.6123343e-05 0.024049608 0.03161697

sequential/lstm/while/lstm_cell/MatMul_1 f4 [80, 23]
00000000: af97 15be 4d8f f0bd 3ea3 e4bd 5262 cf3c
00000010: 19b2 fbbd 3375 a03d c637 6b3d aa07 5c3d
00000020: ae1c b13d 8591 1a3d e0ab 37bc ab8a 983d
00000030: 0dd1 10bb 0196 af3d e165 f9bd e015 ff3c
00000040: af49 17be 9ebc 13bd a55a 453d 0834 623c
00000050: e4c2 163e 193f d03c 6345 283d 4127 96bc
00000060: f7a1 1c3e 5e9e 113d f807 1fbd 7737 80bd
00000070: 95f4 91bd 3f24 0bbe 826d 13be 4594 8abd
00000080: 38e0 b93d 408d 5bbb fffe b8ba 4814 ae3d
00000090: b87f b3bd 4935 d83d b560 563d 7808 eebd
000000a0: 4289 043e e958 73bd 37a6 13be 378e 8d3c
000000b0: 6ad4 8b3d fe15 f8bd 11ee d8bd 7cde fe3c
000000c0: 73be acbd eee8 003e c22a fa3d de43 a4bd
000000d0: 73cf 4c3d 2a8d 803c ab42 54bd be9d 0abd
000000e0: e4a1 3bbd 131e 5e3d cfd2 773d 1136 ad3c
000000f0: c8e9 00bd a704 7d3d c00b 0f3d 0b82 70bc
00000100: 6ac1 063e 8b01 aebd 05e4 66bd c893 aabd
00000110: 5873 cebd f2b8 18be 10ff 04be 31f4 02be
00000120: 05c8 6abc 3084 883b 1c87 1c3d 7753 6cbc
00000130: 52e7 37bd 6169 c7bd 8609 673d bd77 f5bd
00000140: 256b 363d 3617 a23a 18e7 efbc 0f9a 91bd
00000150: 29b0 2d3d b367 7b3d 4aa6 d4bd 18f8 dabd
00000160: 4286 0bbe bb55 a1bb 5518 8a3d 274f 03bd
00000170: 85f8 31bd 34fa ac3d cdf9 7c3d 73d5 07bd
00000180: d696 873d 9b7f 0fbe ed2f 33bd b124 c1bd
00000190: bd28 1b3c d7bd 0abe ac26 0cbd 03d0 d03d
000001a0: 04ca da3b e7ab bb3d 8eca babc ec82 383d
000001b0: 0cec 993d 2e10 4bbd a41b 1a3d 5d76 f63d
000001c0: 56e0 dbbb 08b3 bf3c 61b2 ef3c 5a26 06bd
000001d0: 568a a33d 4145 bdbd a52a c53d 8d3c 07be
000001e0: 426a ba3d bdc8 99bb 90ef 163e 3a1d 64bd
000001f0: 4ffb 0fbd 7c52 683d e065 093e 929b 513d
00000200: 19a6 58bd 66d5 c13d f3bc d6bd ad60 02bc
00000210: 3c35 cf3d 0934 ee3d f4cf e33d 1c23 0e3e
00000220: 8471 19be d2fe b23d e800 10be 00c6 b4bd
00000230: 4459 febd 2017 1dbe 3496 0f3e 8c67 643c
00000240: a58a cf3c c268 013e ae30 9bbd 1ef6 f03c
00000250: f7a5 a8bd e50e 93bc ae5f e73d ecdf 523d
00000260: 52d1 d6bc 47ab 92bc 8ec9 483d 2b46 9d3d
00000270: ea4d 393c 0d62 f1bd 8f51 e63d 7bc5 9cbd
00000280: 8f86 e03c 7e98 30bd 4ac2 14be ea44 96bd
00000290: 01d5 dc3c 068f dbbd 98b2 01be f872 f0bd
000002a0: 2f47 3d3d 6037 643d 3060 e83d 4068 dd3b
000002b0: 8c20 d93c 0c86 70bd f581 e1bd 7048 c136
000002c0: 53aa 453c c465 013e f223 a83d 45dd af3d
000002d0: 0bd6 f0bc 06af febc 025a 013b 74ce c53c
000002e0: 35c4 bfbd e1ec 29be 9aa0 9e3c 06aa 26bd
000002f0: 543e 33bd 60ab 0c3d 7b35 36bd ac5f c4bd
00000300: 3d80 c9bd 2926 4a3d 650d eebd fe37 cbbd
00000310: 1e17 173e c7f3 28be 899a 22be 331c f73c
00000320: a124 3f3c d520 c3bd f94e f3bd 8b18 20be
00000330: bf73 88bc 85e2 d83c 2671 3a3c 2d91 c33d
00000340: 7974 773d ee6a b73b 017b 30bd 5b3a 10be
00000350: 6f76 4b3d f580 d03c c0f2 bd3d 8663 9cbc
00000360: 1c2f 8ebd c213 6ebd 286f cd3d 5742 473c
00000370: 91e2 38bd 726d 83bd daae 1ebd 3ab4 f43c
00000380: 848a 833d 7266 be3c 129f a53d 0e5c e2bc
00000390: d639 723d 2044 6e3c 7685 993d 23ed c43d
000003a0: 14f2 edbc 005a 67bd 9266 2ebd 0081 afbd
000003b0: 4038 f2bd 5972 c6bd baf0 003e 5a38 babd
000003c0: 14fd b43d 6ce7 0a3e 4fa1 e53d a3b7 81bd
000003d0: 118b 6cbd 45bb e6bd ea4c d23d d26f 273e
000003e0: a424 3bbd 3568 a7bd df64 023d d311 e1bb
000003f0: 4c52 f13c 5285 35bc 3ebb 7d3d 5ad0 0abd
-0.14608644 -0.117460825 -0.111639485 0.025315437 -0.12289829 0.07834854 0.057426237 0.053718247
0.08648048 0.037736434 -0.011210412 0.07448324 -0.002209726 0.08573533 -0.12177635 0.03113836
-0.14774202 -0.03606855 0.04818215 0.0138063505 0.14722782 0.025420712 0.041081797 -0.018329265
0.1529616 0.03555142 -0.03882596 -0.06260579 -0.071267284 -0.13588046 -0.14397243 -0.067665614
0.090759695 -0.003350094 -0.0014114081 0.08499962 -0.08764595 0.10557038 0.05233832 -0.11622709
0.12942985 -0.059410963 -0.14418875 0.017279727 0.06827624 -0.1211357 -0.105922826 0.031111948
-0.08434763 0.12588856 0.12215187 -0.08020757 0.050002526 0.015692312 -0.051821392 -0.03384184
-0.045808688 0.0542279 0.060503777 0.021143945 -0.03147295 0.061772015 0.034923315 -0.014679442
0.13159719 -0.08496388 -0.0563698 -0.08328968 -0.10080594 -0.14914301 -0.12987924 -0.12788464
-0.014329915 0.0041661486 0.038214788 -0.014424196 -0.04489834 -0.09736896 0.056405567 -0.11985729
0.044535775 0.0012366537 -0.029284999 -0.071094625 0.042404328 0.061378192 -0.103832796 -0.106918514
-0.13625434 -0.00492355 0.06742922 -0.032057907 -0.043449897 0.0844616 0.061761666 -0.033162545
0.066205665 -0.14013521 -0.043746877 -0.094308265 0.009470162 -0.1354898 -0.034216568 0.10195925
0.006676914 0.09163647 -0.022801664 0.04504673 0.075157255 -0.049575977 0.037624016 0.12034295
-0.0067100925 0.023400798 0.029259862 -0.03275142 0.0798537 -0.09241725 0.096272744 -0.13206692
0.09102298 -0.0046931193 0.14739823 -0.055691935 -0.035151776 0.05671929 0.13417768 0.051173754
-0.052892778 0.09464531 -0.10485258 -0.00795762 0.101175755 0.11631019 0.11123648 0.1388058
-0.14984709 0.08740009 -0.14062846 -0.08826828 -0.1241937 -0.15340853 0.14022142 0.013940703
0.025334666 0.12637618 -0.07577644 0.029414233 -0.0823478 -0.017951438 0.11297546 0.05148308
-0.026222859 -0.017903937 0.049020343 0.07679399 0.01131008 -0.1178628 0.11246025 -0.07654854
0.027407913 -0.043114178 -0.1452724 -0.07337363 0.026957037 -0.10720639 -0.12665784 -0.117406785
0.046210464 0.055716872 0.11346471 0.0067568123 0.026504777 -0.058721587 -0.110111155 5.760281e-06
0.012064534 0.12636477 0.08209981 0.08587126 -0.029398939 -0.031089317 0.0019737487 0.024146296
-0.093635954 -0.16594268 0.01936369 -0.04068949 -0.043760613 0.034343123 -0.044484597 -0.095885605
-0.09838913 0.0493528 -0.116236486 -0.09922789 0.14754912 -0.16499244 -0.15879263 0.030164814
0.011666448 -0.095277466 -0.11880297 -0.15634362 -0.016656755 0.0264752 0.011379516 0.095491745
0.06041381 0.005597464 -0.043086056 -0.14084761 0.049673494 0.025452117 0.092748165 -0.019090425
-0.06942579 -0.05812431 0.10030967 0.012161813 -0.045137946 -0.064173594 -0.03874097 0.029871095
0.06422904 0.02324221 0.08086981 -0.027631786 0.059137188 0.014542609 0.07496159 0.09615543
-0.029046096 -0.056482315 -0.042578287 -0.08569527 -0.11827135 -0.09689779 0.1259183 -0.090927795
0.08837333 0.13564843 0.11212408 -0.06333854 -0.05774981 -0.112661876 0.102685764 0.1635125
-0.04568924 -0.08174173 0.03183448 -0.00686858 0.029458188 -0.011079149 0.061946146 -0.033890106
