owlyshield_predict/models/model.tflite (tflite, 583076 bytes, 37 tensors)

sequential/dense/MatMul f4 [1, 80]
00000000: 7d54 e63d 44b9 4c3e 0e11 e63b af59 32be
00000010: ac97 34be e3ab 2d3d 3f29 bd3d cac2 443e
00000020: 0740 583e 1268 423e f3d8 503d b554 7e3e
00000030: b5cb 863e 111f 87bc f25b 43be 4aef e7bd
00000040: 8df4 97bd 7b8f 623e 09a7 78be dea5 7a3e
00000050: 16b7 6ebe c7c4 87be dc9a 40be 63bc 0e3e
00000060: 8831 873d 17b8 7ebd 8718 64be 59fb 2bbe
00000070: ea6b 82be df06 ac3d 7521 4f3e aed8 d6bb
00000080: 1505 adbd 6935 853b 180b 8ebe 623f 843e
00000090: 761c 94be e64f b73d f274 8cbd f259 b5bd
000000a0: 0edc 0f3e 51ba f23d db25 783e f3e9 a5bd
000000b0: 8ed5 67be df4e 8f3e 9411 83be cbda 753e
000000c0: 0a4c 413e 2bb0 8a3d 9555 373e 61d1 6cbe
000000d0: 00e3 433e bb73 5ebe 6c9b 133e 3396 8cbe
000000e0: 1cf8 c93d d9c1 923e ed53 f4bd 7654 16be
000000f0: 532d 23bd 4b56 90be c0dd 94be 3366 02be
00000100: 3fe3 61be 9f67 adbd e69e 623e 1c9e dbbd
00000110: fe6b 103e baff ca3d 07a1 e73d 68b6 5dbe
00000120: 632d 423d 5f09 0f3e baf8 72bd 9027 26be
00000130: ed45 0f3e 79b2 833e 36b8 053c b8cb 3e3e
0.112465836 0.19992548 0.007021076 -0.17417024 -0.17635983 0.042400252 0.09236383 0.19214931
0.21118174 0.18985012 0.05098815 0.24837 0.2632729 -0.016494306 -0.19078043 -0.11324938
-0.07419691 0.22125046 -0.24282469 0.24477336 -0.23312029 -0.26517317 -0.18809074 0.13939051
0.06601244 -0.06218728 -0.22274981 -0.167951 -0.25472957 0.08399748 0.20227607 -0.006556592
-0.08448235 0.004065205 -0.2774284 0.25829607 -0.28927964 0.08950786 -0.06858243 -0.08855046
0.14048788 0.11851943 0.2423319 -0.08101263 -0.22640058 0.2798986 -0.2559935 0.24009244
0.18876663 0.067718826 0.1790374 -0.23126747 0.19129562 -0.21723835 0.14414757 -0.27458343
0.09861776 0.2866352 -0.1193007 -0.14680657 -0.039838146 -0.28190836 -0.29075432 -0.12734298
-0.22059344 -0.0846703 0.22130927 -0.10723516 0.14103696 0.09912057 0.113100104 -0.21651614
0.047406565 0.13968419 -0.059319235 -0.1622603 0.13991518 0.257221 0.008161595 0.186324

sequential/lstm/while/lstm_cell/MatMul_7 f4 [80, 80]
00000000: 3002 81bd 36c9 89bd 5ca5 503c 90f4 1ebd
00000010: 1ad7 0b3d f97d 743c 2954 1e3d 2ce5 c8bd
00000020: ee76 66bd 678c 8c3d 852b 0cbe b66d e93d
00000030: b884 a9bb 5277 8fbd 01dd 0f3c d8b7 1f3c
00000040: 4a67 8ebd f642 b4bd b843 8ebd 799d ce3c
00000050: b489 bdbc 9827 bc3d 4426 1b3d 1c5a 3ebd
00000060: 9dc0 c9bc d524 063d fabb ae3c ebd5 ccbd
00000070: ffe2 6a3b 4f71 153d bbec 833d d88a 17be
00000080: fbb2 c2bb 52d2 e13c a7ab 02be abf8 ffbc
00000090: 6c81 f6bc bcb1 803c 516c 92bc 772b 4cbd
000000a0: 3ba5 28bc a30c 01be a517 bfbd 7056 67bd
000000b0: 8b09 aebd 641b cf3c 4369 86bd 3494 283e
000000c0: bcbe 0dbe 1529 c83c 26a1 453d 918b b3bd
000000d0: 09bb f63b 409a 12bd 9d39 c03c 1a66 b23d
000000e0: 9a9d bbbc e806 06bd 76bf f2bc dcf5 f13d
000000f0: 21bf bc3c a950 a73d 3572 113d 0e84 46ba
00000100: 63d0 adbc 2a39 823d e867 8dbd a445 58bd
00000110: a5c6 eb3b 141b 0b3c 4d6d e0bc abd5 e5bc
00000120: e041 ff3c 5908 0dbd 9ab9 b4bd 3146 5c3c
00000130: bf31 6e3c 3ce3 c6bc 9931 af3b b3fd 48bd
00000140: 878d b33a e088 093e 767d 513d 9b5c 0cbb
00000150: 9ad2 b9bd 5798 b9bd aedd 75bc e9c0 033d
00000160: a3f5 393d b0b7 4d3d d02b 263c ceb4 9f3d
00000170: 4f10 c13c 69a6 98bd 2b52 6fbd 68a6 98bd
00000180: 0cc8 8abb 87a8 5d3d 0299 203d fc03 1fb8
00000190: 6860 a03d f5da 5b3d 5c22 493d 0b58 1e3d
000001a0: cada 663b 17e9 5e3c ae3a 27bb 8aa1 e13b
000001b0: 8168 8fbc d2ee f93c 55cb 003d 1fd8 9e3c
000001c0: 8978 09be 2507 433d acae 26ba 86e1 42bd
000001d0: b671 00bc 762c a3bc b3da 5c3c 6df9 803c
000001e0: a578 6a3d 44c9 483c d7ca a43d 25bc bfbd
000001f0: d6a6 c2bc ac96 a0bd 16a6 06bd ac77 023e
00000200: ee3c cb3d a5bd a63c b52a 90bd 5a02 8c3d
00000210: 6652 ec3b 3b9d 1c3c 9033 a5bc c2bd 4e3a
00000220: 51bd e0bd cc56 3abd 49c6 393c a37b 59bd
00000230: ea9c 3c3d b663 1abc 48cd 17bd 3ddc e93d
00000240: aedd 4dbd 9298 05bd d513 8e3c d7ae db3d
00000250: 8a6e f63d 8673 403d e1b7 a33d 1d91 bebc
00000260: 0555 8b3d f25c 413c fa45 223c 7541 0dbe
00000270: 8aed 30bb c5fd 87bd 9e72 153d d237 13b9
00000280: 72b9 b0bd 1b3f ba3c cbf4 9c3d aa0b 16bd
00000290: a8cb 36bd 4f58 423d b70c c7bc 53bc 313d
000002a0: b954 9fbc cca7 6cbd 7729 cebd 36b3 cfbd
000002b0: 2de7 b6bc d542 1e3c 084d 893d 04f3 a33c
000002c0: 8d00 603d 5b68 90bd 912e 07bd a588 ae3c
000002d0: 98b2 0e3d d2c4 77bd 70f2 d7bc c456 04bd
000002e0: 1311 e43a 5827 d3bb 34b4 aebc 2f3b 2f3a
000002f0: 15f1 9b3d 7366 5bbc 9ea3 9a3d 562b 0abd
00000300: 0a56 d5bb 0492 783d c670 25bd f7cd 973d
00000310: 7e79 f5bd adf3 913d aea0 a83c 803a e73b
00000320: 7bbf db3d 3eca 18bd d724 22bc 5a33 75bd
00000330: 3441 3c3d ded6 b93d 254a 103d d8ab 07be
00000340: 02d2 4e3d aa24 333d b629 7e3c 4fdc 653c
00000350: 7ad3 c63d 456d bc3b aa3f debd e231 9b3b
00000360: c335 a6bc 8b99 553d 461c a7bd 516a 19bd
00000370: 3d35 993c 8d79 fb3d b596 0ebd 2e89 003d
00000380: 12d9 a6bc 6f86 01be 6d80 b03c cbd5 39bc
00000390: 76ae c6bd 00a9 08be dcee 22bd b3fb 793d
000003a0: ca5d 0cbd 03f9 4d3d 3d19 983d 7011 d53c
000003b0: 4141 6d3d 9077 e43d 0620 f7b8 3ce1 ee3a
000003c0: 4126 50bc 199a 513d 5084 e83d b46f c7bd
000003d0: b007 8fbd 180a a1bc 13c3 813d 5ac4 40bc
000003e0: 2d0b 94bd 7bc7 193d 0642 003e 826e ea3c
000003f0: fea3 193d c8b4 abbc f1b1 303c 35dd 063e
-0.06299245 -0.06727831 0.012734737 -0.03880745 0.034140684 0.014922612 0.03865448 -0.09809336
-0.056265764 0.06862717 -0.13688476 0.11397879 -0.005173292 -0.070051804 0.008780719 0.009748422
-0.069532946 -0.08801834 -0.0694651 0.025221573 -0.023136951 0.091872394 0.03787829 -0.046472654
-0.024627978 0.03274997 0.021329869 -0.10001739 0.0035840867 0.036485013 0.06441637 -0.14799058
-0.0059417463 0.027566109 -0.12760793 -0.031246504 -0.03009101 0.01570975 -0.017873915 -0.04984614
-0.0102933 -0.12602477 -0.09330682 -0.056478918 -0.08497914 0.025281616 -0.06563046 0.16462785
-0.1384229 0.024433652 0.048249386 -0.087668546 0.0075296205 -0.035791636 0.023464972 0.087108806
-0.022902299 -0.03272143 -0.029632311 0.11814472 0.023040356 0.081696816 0.035509307 -0.0007572778
-0.02121753 0.063585594 -0.06904584 -0.05280079 0.007195311 0.008490343 -0.027395869 -0.028055986
0.031159341 -0.03443179 -0.08824463 0.013444469 0.014538228 -0.024278276 0.0053464887 -0.04907007
0.0013698795 0.1343112 0.05114504 -0.0021417502 -0.09073372 -0.0906226 -0.015006466 0.032166395
0.045400273 0.050224006 0.010142282 0.07798158 0.023567347 -0.07453615 -0.05842797 -0.074536145
-0.004235273 0.0541158 0.03920842 -3.7912265e-05 0.07830888 0.05367561 0.049105033 0.038658183
0.0035225623 0.013605378 -0.0025517154 0.006885712 -0.017505886 0.030509386 0.031443913 0.019390164
-0.13424887 0.047614235 -0.00063584256 -0.047578357 -0.007839611 -0.019918662 0.013479876 0.015743935
0.05724396 0.012255017 0.08046501 -0.093620576 -0.023761194 -0.078412384 -0.032873236 0.12740964
0.09923731 0.020354101 -0.07039396 0.06836386 0.007211971 0.009558971 -0.020166188 0.00078865525
-0.10973609 -0.045492932 0.011338779 -0.053096425 0.046048082 -0.009423187 -0.037061006 0.1141896
-0.05026024 -0.032616206 0.017343441 0.107267074 0.120328024 0.04698517 0.079940565 -0.023262555
0.068033256 0.011801945 0.009904379 -0.13794501 -0.0026997053 -0.066401996 0.03648626 -0.00014039807
-0.08629121 0.02273517 0.07663878 -0.036632217 -0.044627815 0.0474475 -0.024298055 0.04339249
-0.019449579 -0.05777721 -0.100665025 -0.10141604 -0.02232703 0.009659489 0.06704146 0.02001334
0.054688025 -0.07051154 -0.033003394 0.021305392 0.03483829 -0.060490437 -0.02636072 -0.03230931
0.0017400108 -0.006443899 -0.021326162 0.0006684539 0.07614342 -0.013391125 0.07550739 -0.033732735
-0.006510501 0.060686126 -0.040390752 0.074123316 -0.119860634 0.071265556 0.02058443 0.0070565343
0.107298814 -0.03730225 -0.009896479 -0.059863426 0.04596062 0.09074186 0.03522696 -0.13249147
0.050493248 0.043736137 0.015512874 0.014029576 0.09708305 0.0057503306 -0.10851987 0.004736171
-0.020289307 0.052148383 -0.081596896 -0.037454907 0.018702144 0.12279043 -0.034811694 0.031380825
-0.020367179 -0.12648939 0.021545613 -0.011342476 -0.097012445 -0.13345718 -0.039778575 0.061031055
-0.03426913 0.050286304 0.07426689 0.026009291 0.05792356 0.11155617 -0.00011783843 0.0018225084
-0.012704433 0.05117235 0.113533616 -0.097381026 -0.06983888 -0.019658133 0.063360356 -0.011765564
-0.07228694 0.037543755 0.12525186 0.028617147 0.03750991 -0.020960227 0.010784612 0.13170321

sequential/lstm/while/lstm_cell/MatMul_6 f4 [80, 80]
00000000: 9ae6 903d 213b 87bd 170e 193d 13fb 2ebd
00000010: 3799 ae3d b4c6 c5bb 69e2 ee3c de9f e73c
00000020: 364b 2d3d f878 04bd 1c3c cdbc 50e9 f13c
00000030: 90cd 593d 2e8f d43c 690a b2bc 609f 563c
00000040: 0213 be3c d4b3 6cbd 120b ab3c f78b f1ba
00000050: 0872 bab9 34a2 733d 4a0b 66bb af2d 98bd
00000060: d969 ad3c c1f7 aabd eec4 393d 58b2 e93c
00000070: 2e95 783d 0fe8 a73b 0a11 f83d 04e4 36bc
00000080: 287e a33d b595 1abd 669c 8e3d f747 7dbc
00000090: 218e 94bd e0ea 643c acad dc3c 29bd 12bd
000000a0: 9d2d 8fbd 2ff0 313d 2bff 3bbc 03a1 05bd
000000b0: 9802 e93d 2d7d b7bd e949 8abd 8126 e6bb
000000c0: 7e41 1cbd 35ef df3b 75a0 34bc 7ee3 55bc
000000d0: 6128 c23c b4a6 083c e065 4d3d 374e 553e
000000e0: a700 87bb 62be 82bd a3c3 5ebd 3718 413d
000000f0: 379e 00bd 73b3 6e3d c15d 0bbe 3684 e33c
00000100: 6b0b 443c 7e10 1e3d f54e 95bd cc2d dbbc
00000110: 042b d53c 65f1 36bd c51f a93c 7553 f7bc
00000120: 31f4 aa3d f8be 8a3d c104 053d af3c 0ebd
00000130: f9ec 3ebd 9717 233c d24d 61bc 5fc3 453d
00000140: eda0 243d ba81 123d 368f 3dbc c7a1 0d3d
00000150: 1672 3bbc 92e1 e13c f7f9 ff3b 8828 e8bc
00000160: db4e 0e3d 8c9c aa3b e2a5 8b3d b1bd 66bd
00000170: 3a7d e13b 28d0 723c c367 52bd 34bc 98bc
00000180: 7951 163d 8b28 9fbd 8e1e a53b 0f11 3e3d
00000190: ab4b abbc c492 9abd 7bd5 83bd b1de 313d
000001a0: 96df 1dbd df09 7a3d 44c3 b1bd 67d7 d939
000001b0: e6d0 57bc dea5 1dbd c3f1 aabb 8e4d eebb
000001c0: 9367 84bc 970d c93b d79d 6bbd 86c4 8abd
000001d0: d6d7 f43d 84a4 e13d c8fc bbbb 37e8 96bd
000001e0: e6e9 95bc 5b4f b0bd 484b 373b 813e 4bbd
000001f0: 3cf9 0d3d a740 923b 561c e53b 21f8 fb3c
00000200: 2a60 3f3c 8c31 f83b fb17 533d d700 e5bc
00000210: 13ff a63c d852 823d 4850 3bbc c857 5cbc
00000220: 2665 f43d ed5f ec3c a2d7 703d 1908 53bb
00000230: 7b0c b43c 918d 6ebd fd05 4abd 55ce d83c
00000240: 115e f53d d168 9f3c d3b4 a0bd 77d4 8a3c
00000250: e5f5 b63d dcdd 6d3d 1110 833c 819c c3bd
00000260: a0fe 8cbd acf5 c53d 4fb3 46bd 8db8 6abd
00000270: 0133 c7bd b4ea 863d 7fc7 8f3c 6a45 1c3a
00000280: c864 7bbd 1dd9 88bd feb3 023e 8e90 01bd
00000290: 2f69 543d ef68 a7bd 5e2a 18bd df5b 9f3c
000002a0: fe44 053e 40e2 343c e03d a4bd 9379 043c
000002b0: 35f7 423d b526 5abd ae2a 0a3c ccfc 423d
000002c0: de28 833d 87d5 8dbd 091a 8dbd 27d4 073d
000002d0: d19b 8c3d c001 9f3d f073 dcbc c1e8 693d
000002e0: db0f b2bb 69e3 71bd ecf4 a23d 57eb ae3d
000002f0: e79f 84bd 57d4 f63c 7ad6 163d 0b7f 163d
00000300: a312 0d3d f172 0fbe 8c66 a03c 761d 603d
00000310: 0c0f 28bd 0af8 81bc 2730 6c3d 25b4 1bbc
00000320: 4ece 93bc 3387 e2bd 7966 7abc 98c8 1cbd
00000330: 5da1 893b eceb 3c3c 01fb c33d c5b2 c13c
00000340: 4d4e 6dbd 11b7 3fbd 2995 52bc 7452 1dbc
00000350: adda 9cbc 46f9 55bd 5b1d 833d 483b c7bd
00000360: cc96 79bd 507a 14bc 1a43 af3c c92f b33c
00000370: c3ce c93d 4477 e1bd 6810 4ebc f505 b0bb
00000380: 663d 333d 9b5d 38bc c1b2 293c f67a c7bc
00000390: fc21 2bbd 8413 b23c aa2a 1c3d 326d a13d
000003a0: 2ba0 843d f660 103b b9a8 763d 4458 c7bc
000003b0: 7f9e 0cbd 7b94 823c 01d4 1aba 2bfe 303d
000003c0: 6482 b8bc 8013 eabb adca b73d 6970 7a3b
000003d0: bc7b 023e 8f25 d23b 5ff9 68b9 e61a 9abd
000003e0: d881 3d3c a1f7 96bd be8d 54bc 8faa bf3d
000003f0: b1db 53bd b583 1ebb a43b 8bbd 3a9c e7bc
0.07075234 -0.06603075 0.037366953 -0.04271991 0.08525317 -0.00603565 0.029160695 0.028274473
0.042308055 -0.032341927 -0.025053076 0.029530197 0.053174555 0.02594718 -0.02173348 0.013099521
0.023202423 -0.057788685 0.020879302 -0.0018428554 -0.00035561644 0.05948086 -0.0035101944 -0.074305885
0.021168636 -0.083480366 0.045353822 0.028527424 0.060689144 0.005124099 0.12112625 -0.011162762
0.07983047 -0.037740428 0.069634244 -0.015459052 -0.072536714 0.013972014 0.026938282 -0.03582493
-0.06991122 0.043441948 -0.011474411 -0.032624256 0.11377448 -0.08959422 -0.067523785 -0.007023633
-0.038148396 0.0068339356 -0.011024584 -0.013054727 0.023700895 0.008340526 0.050145984 0.20830618
-0.004119951 -0.06383969 -0.054385792 0.047142234 -0.031400885 0.058276605 -0.13609983 0.027773004
0.011965613 0.038589947 -0.072904505 -0.026755236 0.026021488 -0.044663806 0.020645032 -0.030191163
0.08347357 0.06774706 0.032475237 -0.03472584 -0.046612713 0.009954355 -0.013751464 0.048282024
0.040192533 0.03576825 -0.011569789 0.03457811 -0.011440774 0.02757338 0.0078117806 -0.02833964
0.03474317 0.00520665 0.06818749 -0.056333248 0.0068813832 0.014820136 -0.051368486 -0.01864443
0.036698792 -0.07771405 0.005039043 0.046402987 -0.020910105 -0.075475246 -0.064372025 0.043425266
-0.038543306 0.06104457 -0.08679822 0.00041549953 -0.013172364 -0.03848826 -0.0052168085 -0.007272429
-0.01616267 0.0061356532 -0.057523575 -0.06775765 0.1195523 0.11017707 -0.005736921 -0.0736851
-0.018300008 -0.08608886 0.0027968455 -0.049620155 0.034661517 0.0044632736 0.0069919033 0.030757966
0.011680642 0.007574266 0.05153654 -0.027954502 0.0203853 0.063634574 -0.011432715 -0.013448663
0.11933355 0.028854335 0.058799393 -0.0032200872 0.021978607 -0.058240477 -0.049322117 0.026465574
0.11980832 0.01945916 -0.078469895 0.016947014 0.089336194 0.05807291 0.015998872 -0.09551335
-0.06884503 0.09665999 -0.048510846 -0.057304908 -0.09726525 0.06587735 0.017551182 0.0005961271
-0.06137541 -0.06682036 0.12763974 -0.031632 0.051858123 -0.08174311 -0.03714978 0.019452987
0.130146 0.01104027 -0.08019614 0.008085626 0.047599036 -0.05325957 0.008433027 0.047604367
0.06404279 -0.06925493 -0.068897314 0.03316131 0.06865657 0.07764006 -0.026910752 0.057106737
-0.005434019 -0.059054766 0.079568714 0.08540981 -0.064758115 0.030130548 0.036825635 0.03674225
0.0344416 -0.1400869 0.019580148 0.054715596 -0.041029975 -0.015865345 0.05766311 -0.009503399
-0.01804271 -0.110609435 -0.01528322 -0.03827724 0.004200144 0.0115308575 0.095693596 0.023644814
-0.057936 -0.046805445 -0.012852945 -0.009602178 -0.019147241 -0.05223968 0.064020835 -0.09728104
-0.060934827 -0.009062365 0.021394301 0.021873372 0.0985389 -0.11009076 -0.012577154 -0.005371804
0.043759726 -0.011252786 0.01035756 -0.024350625 -0.041780457 0.021737821 0.038126625 0.078821555
0.06475862 0.002203045 0.0602195 -0.02433408 -0.03433084 0.015939942 -0.0005906225 0.043211143
-0.022523113 -0.007143438 0.08974204 0.0038213974 0.12742513 0.0064131687 -0.00022218142 -0.07524662
0.011566602 -0.0737145 -0.012973247 0.09358703 -0.051723186 -0.002418739 -0.06798485 -0.028272737

sequential/lstm/while/lstm_cell/MatMul_5 f4 [80, 80]
00000000: 8020 2a3d 48b6 2cbd 7719 3dbd f5a6 39bc
00000010: 4efb 54bd 2585 70bd 044b d73d 7723 5d3c
00000020: 5685 cbbd 563e b43d 6fad ccbc 6fd5 17bc
00000030: c31b 383b 213b 9bbd eeba 23bd d635 8abc
00000040: 8362 373c f086 b23c a405 f1bd df5b ecbb
00000050: a2ac 0dbe 7a0a 393d 6afb 973d d492 8dbd
00000060: ddba 09bc 9d64 193d 896a 19bc cb1c 223c
00000070: 5fa7 f6bb 374f 7abd 053a 3ebc 806f ed3b
00000080: d648 eb3a 9a79 f6bc 7ac5 b5bc 68c3 293d
00000090: 60b6 ad3d 81ac 96bc abe8 213d 429d 80bd
000000a0: aca4 89bc 9720 0d3b 7ddb 6d3d 4098 1f3c
000000b0: 8447 22bb 6d44 3dbd 8d2e 1ebd 2920 edbb
000000c0: 73bb ea3a e466 5bbd d6ce 2cbd 045a 753b
000000d0: d55a 22bd f738 d8bc f87a 0dbd b6bc 9e3d
000000e0: ee9c 833c 754e 1e3c f519 313c d5a6 98bd
000000f0: a6e4 21bd 5940 2fbd 13f8 373c c4a2 223d
00000100: 9f93 873d e6b1 09bc 48d6 de3c c0a5 c9bd
00000110: d5a0 173d e71b 82bd 90a7 69bc d7e9 91bd
00000120: 7a93 aa3c 4a81 d0bd b032 593c 2b53 493e
00000130: 1348 ed3d 45ab 91bc 93a9 763c a3bf 0abd
00000140: b6d4 42bc 8775 b8bc 509e 17be fee6 3fbd
00000150: 338c 083d 8655 463b ea91 b23c 2c2a 9cbd
00000160: 3d5d d73d 3438 73bc 58d0 d6bc aae2 633c
00000170: 3dcc 283d 1105 c7bb 1194 1fbd d2c3 36bd
00000180: 1b2a a83c 3663 743d cb77 89bd 9151 373d
00000190: ee6f 063d bfa9 be3b 4f05 2fbd 99f8 1ebd
000001a0: bb94 de3c 977d 9e3b 6dd9 96bc b8e3 9abd
000001b0: e6b6 37bd e371 4cbc 9643 2f3c 5949 06bd
000001c0: d1f4 e83c 6567 103e 94a9 9abc b711 b7bc
000001d0: 47df b3bc a9ad 993d 0e9a 3c3d 7320 873d
000001e0: bac7 4a3d 9b80 0ebe 4b3f 7d3c e13b 66bd
000001f0: 63ec 363d 0379 79bc 4056 ccbd d3a0 14bd
00000200: aaa7 85bd 14e2 a03d a3cd d63c 5e5d b6bd
00000210: aff0 14bd ef85 4abd 4415 07bd 9728 fdba
00000220: 30a3 c0bd 68ca 99bb 3790 573c fd00 9e3d
00000230: 8bb2 8f3d a400 c23d c007 e4bd 1620 293d
00000240: 7c2a 9bbc fea2 703c f0cf 27bb 0c28 d7bc
00000250: b200 6a3d 7e2d 2fbd cbaa 07be 2711 82bc
00000260: 189c d83c bde3 603b c720 32bd 021f 2bbb
00000270: dad7 3dbc 8d2d 093c 1dc2 8e3d d254 a83d
00000280: dd49 863c db10 33bb 6fc9 93bd 7a35 34bd
00000290: 6da5 213d 3eb4 36bd 2e93 cc3d 980e ea3c
000002a0: 0817 e2bc 6fbf 643c 4b1d 10bd d7c4 943c
000002b0: 1e92 1e3e 049e ffbb 1374 2cbd 4aa5 5ebb
000002c0: 1418 f9bc baf2 a0bc a0af 113d 81c9 28bc
000002d0: 6054 4e3d d511 26be 7fc4 d13d b97e 8dbd
000002e0: 8671 b83d 8596 013d 50f3 593c e8b4 73bb
000002f0: a918 673c f173 f23c c680 3abd a0bb 0cbd
00000300: d931 7a3d 77bb 263d b45a 2cbd f095 76bd
00000310: c550 b23c 07f2 88bd 272b 503d 6f10 a63d
00000320: 3ea0 393d 91fb f43d d419 b4bd 696d d0bc
00000330: a787 dd3d c40a dc3b 896c fd3d 660f 7bbb
00000340: de7d e4bc 0150 ce3d 9ff1 503d c4f3 c7bc
00000350: 738f a6bc f770 51bd c401 da3c 01b8 353d
00000360: 61d3 0bbe 960d f937 370a ddbd 3fe6 6e3d
00000370: 7921 653d b8dd 37bb caaf 80bc 42e2 433d
00000380: 4ac7 963c 1891 9abd 37a7 083d ab5e e13b
00000390: 1791 84bd 5497 07be a806 47bd 8fd7 40bc
000003a0: bc38 563d 35b7 253c df56 293d 047e aabd
000003b0: ce00 743c 66ed e93c 3fca 3cbd 5f3a 3b3d
000003c0: b53a 5e3d 0528 373d 42f3 70bd 6486 013d
000003d0: a2f9 0b3d 29df 8e3d 9910 3e3b 13c2 e4bd
000003e0: b6d2 ac3d 1e2b fd3c 9f7f e0bb afa7 303d
000003f0: e6d4 83bc 525f 8fbb ac09 3d3d 071f 6f3d
0.0415349 -0.042166024 -0.046166863 -0.01133131 -0.051997475 -0.058720727 0.10512355 0.013497225
-0.09937541 0.08800952 -0.024985043 -0.009267195 0.002809272 -0.07579637 -0.039973192 -0.016871374
0.011192921 0.021792859 -0.11768654 -0.0072131003 -0.13835385 0.045176007 0.07421 -0.06912771
-0.008406368 0.037449468 -0.009363779 0.00989456 -0.0075272764 -0.0611107 -0.011610513 0.007245958
0.0017950784 -0.030087281 -0.02218889 0.04144612 0.08482051 -0.018392803 0.03952853 -0.062799945
-0.016802154 0.0021534318 0.05807065 0.009740889 -0.0024761865 -0.046207834 -0.038618613 -0.0072365
0.0017908647 -0.05356492 -0.04218944 0.0037437687 -0.039637405 -0.02639435 -0.0345411 0.077508375
0.01606604 0.00966226 0.010809411 -0.07453696 -0.039524697 -0.042785976 0.011228579 0.039706007
0.06619953 -0.008404231 0.027201787 -0.098460674 0.037018616 -0.06352978 -0.014261141 -0.071246795
0.020822275 -0.1018091 0.013256714 0.19660632 0.11586013 -0.017781863 0.015055078 -0.033874165
-0.011891535 -0.022516979 -0.14806485 -0.04685115 0.03333683 0.0030263378 0.021798093 -0.07625231
0.10515831 -0.014844943 -0.026222393 0.013909021 0.0412104 -0.006073602 -0.038959567 -0.044620343
0.02052789 0.059664927 -0.06712302 0.044755522 0.03282159 0.005818575 -0.042729672 -0.0388113
0.02717053 0.004836749 -0.018414224 -0.07562965 -0.04485216 -0.012478325 0.010697266 -0.032784794
0.02843705 0.14101942 -0.01887969 -0.022347314 -0.021957053 0.07503826 0.046045355 0.06597986
0.04950688 -0.13916247 0.015456985 -0.05620945 0.04465903 -0.015226605 -0.099773884 -0.036286186
-0.0652612 0.07855621 0.026221102 -0.08904527 -0.036362346 -0.049444135 -0.032979265 -0.0019314465
-0.094061255 -0.004693318 0.013156942 0.07715032 0.07016476 0.094727784 -0.11134291 0.041290365
-0.018941157 0.014687298 -0.0025606118 -0.026264213 0.05712957 -0.042767994 -0.13248746 -0.01587732
0.026441619 0.003431543 -0.04348829 -0.0026111011 -0.011587108 0.008372677 0.06970618 0.08219303
0.016392643 -0.002732328 -0.07216155 -0.04399631 0.039464403 -0.044605486 0.0998901 0.028571412
-0.027598873 0.013961657 -0.035184186 0.018160267 0.15485427 -0.0078008194 -0.042102885 -0.0033973032
-0.03040699 -0.019646991 0.03556788 -0.0103019485 0.050373435 -0.1621774 0.10242557 -0.06908936
0.09006028 0.031637687 0.013302639 -0.0037186686 0.0141050005 0.0295963 -0.045532964 -0.03435862
0.061082695 0.040706124 -0.04207869 -0.060201585 0.02176703 -0.06686788 0.050822403 0.08108603
0.045318834 0.11962045 -0.08793989 -0.025442796 0.10816889 0.0067151506 0.12374217 -0.0038308739
-0.02789205 0.10073853 0.051011678 -0.024408229 -0.020332074 -0.051133122 0.02661217 0.044364933
-0.13654853 2.968944e-05 -0.10792964 0.05832505 0.055940125 -0.0028055739 -0.015708823 0.0478232
0.018405575 -0.07547206 0.033362594 0.0068777404 -0.06472986 -0.13241321 -0.048590332 -0.011770143
0.0523002 0.010114481 0.041342612 -0.08324817 0.01489277 0.028555583 -0.046091314 0.045709964
0.054255206 0.0447159 -0.05882574 0.031622306 0.034173615 0.06976158 0.0029001592 -0.11169829
0.084386274 0.030904349 -0.006851151 0.043128666 -0.016092729 -0.0043753767 0.046151802 0.0583792

sequential/lstm/while/lstm_cell/MatMul_4 f4 [80, 80]
00000000: f85f dc3a 1c76 26bd 663f 203d 877c a7bd
00000010: 9c79 ca38 a535 fabc 1f57 b53c 6085 d2bc
00000020: c6c6 bfbd 51b7 e33d 7890 0a3d cb07 4bbd
00000030: 3607 443d b1fb 45bd 78c4 9abd f611 4f3d
00000040: 7460 a63c 56a3 34bd 15ca bfbd 253b 65bd
00000050: e62a 09bd e45f c63d 1337 163c 53d4 b7bd
00000060: 55e8 2b3d 3c74 a23d 0502 49bc 5418 d23c
00000070: 6988 a8bc c630 a7bd 9a2d 6c3c d348 e6bc
00000080: 69ea 05bd 4246 c1ba ff64 2ebd 0f05 203c
00000090: 55c6 a53c 9c5d 0bbd ce5f 95bc f537 153c
000000a0: bb84 513d f013 0abd 45cd d2bc d087 82bd
000000b0: ccc2 cabb b29f 253e 8b88 3a3c 65df 9cbd
000000c0: 21fa 9ebd 5e8b 93bd c69b babc 6716 89bd
000000d0: 4a2c 5b3d cd1a e53d 5dee 0e3d 7a53 183e
000000e0: 9446 5bbd 6f7c 96bd a2f2 0cbc 5831 1c3d
000000f0: 58cd d1bb 661e 583b 5a8d b0bd 661d 3ebc
00000100: eeed ae3c 1cec 26bd 1bfb 713d f45b d6bc
00000110: 9fd1 91bc 7388 2a3d 2595 55bc d8d6 04bd
00000120: d824 373d 98cf 78bd 60ce d93d b85a 91bc
00000130: fb67 6b3d 7e9c 57bd 0b74 883d d505 113d
00000140: 31a8 82bd 341e 073d a5b1 10be aa84 05be
00000150: 974f d3bc 35e5 9d3c da5f d3bd 1794 5bbd
00000160: f2a9 93bd f773 1e3d 4cf5 90bd eb3d 9f3d
00000170: b5d1 0d3c 22cc 05be 0b8f ecbc b5b7 aa3b
00000180: 6795 5c3d d890 e9bc ff0d d7bc 4979 c2bd
00000190: 189b 8b3d afee 1dbc 1801 d83c a789 8ebc
000001a0: 33b7 583c 58ad e3bc c4be 0d3b b878 babc
000001b0: 9e2d 1e3d 8452 a63b e8e5 77bd b8eb b03d
000001c0: a441 f0bc 45fb 27bd 0623 383c 43e6 fa3c
000001d0: 69c7 343d 8811 59bd 10f1 b7bc 17c0 46bd
000001e0: 9649 fe3c 23df 94bd a245 3b3d e274 df3c
000001f0: 6fdd 7f3c 7f3d 22bd 05a9 32bc 2e70 6bbd
00000200: d157 92bc a74f cbbc eb25 3c3e 431a 1abe
00000210: f818 303d 99a8 25bd ff3e 41bd 7eb6 acbc
00000220: 94fc 5e3e f79e 59bd 8b89 bf3d 59d3 f4bd
00000230: c55b fabc f059 373d 442a 4fbd 010b 6c3d
00000240: 633a 943d aac4 2e3e 5285 2b3d cafd 853d
00000250: cd42 3bbd bc25 46bd f392 eb3d 66d6 17bd
00000260: bd5b b8bc 10a0 97bd 4255 90bc 61ac e93a
00000270: b311 483d 4054 823c 3ba2 9a3d fb39 bcba
00000280: 1250 8dbd de2d bbbc f939 6c3d 6131 1c3d
00000290: 7b09 1e3d e9e5 303a d31d 8dbc 5bbb 2f3d
000002a0: a6f9 9f3c f801 3e3a 97a6 7c3d 32db 233d
000002b0: f094 94bd 559e 9f3b 16ac 283c f82c f43c
000002c0: 0572 2c3b 482a 693b 981b 913d 028c 933c
000002d0: 0323 cebd 68e8 753c a9af edbd 4759 423c
000002e0: 66fc 603c c4a0 473d 3ebf a0ba 66c1 91bc
000002f0: c386 c6bd e158 f63d 29c0 b9bd b699 6e3c
00000300: 6948 503d cc44 673d 6daf c83d 5ac3 173b
00000310: 459a 3e3d b201 eb39 b332 1d3d cf16 b73d
00000320: da2a 8d3c ca9b f8b9 ba90 62bd 1998 89bd
00000330: 6a4c 253d 89f7 cc3d ffe9 b33d b1bc 62bd
00000340: 0678 163d 8a4f bb3d d6d5 ebbc d102 983c
00000350: 1ea9 f8bb 57a0 adbd fded 9a3c c154 47bd
00000360: f685 8f3c 84b7 88bd 3aa8 38bc ab3f 75bc
00000370: ed4d 1a3d 559e b93d 6289 04bc 1aa5 9a3c
00000380: 77f1 acbd f028 efbc 3f13 8d3d 1a6b 3abd
00000390: 14ef 6f3c 0a67 fbba 2a08 883d dbb9 d0bb
000003a0: ef64 65bc 1067 3a3d 965b 183d 1e54 993d
000003b0: 71ce 5c3d 61c1 c63d 608a fc3c 4fc3 ff3c
000003c0: 60cb 313d 3a62 15bd 978c 8ebd 65a6 acbd
000003d0: 10e8 46bd 7f64 913d 9b36 153c a706 7dbd
000003e0: 7be8 db3c 718c c5bb 2cfd 6ebd edcc 3c3d
000003f0: c685 083d dde4 633c abde 283c dcc4 8abd
0.0016813269 -0.04063998 0.03912296 -0.081780486 9.654762e-05 -0.030543158 0.02213627 -0.025698364
-0.09364085 0.11118949 0.033829182 -0.04956798 0.04785844 -0.048335735 -0.07557005 0.05055424
0.020309664 -0.04410108 -0.09364716 -0.055964608 -0.033488177 0.096862584 0.009168404 -0.089760445
0.041969616 0.07932326 -0.012268548 0.025646366 -0.020572858 -0.081636 0.014415169 -0.028110897
-0.032694254 -0.001474567 -0.042576786 0.009766831 0.020236174 -0.03402482 -0.01823416 0.0091075795
0.051151972 -0.03371042 -0.025732646 -0.063735604 -0.0061877724 0.161742 0.011385093 -0.076597966
-0.07762552 -0.072043166 -0.022779357 -0.06693726 0.053509034 0.111867525 0.03489529 0.14875594
-0.053534105 -0.073479526 -0.00860277 0.038132995 -0.0064026527 0.0032977103 -0.08620711 -0.011603689
0.021353688 -0.040752515 0.059077363 -0.026166894 -0.01780015 0.041634034 -0.013036047 -0.032431453
0.04471287 -0.06074485 0.10635066 -0.017743453 0.05747221 -0.052639477 0.066627584 0.035405952
-0.06379736 0.03298779 -0.14130266 -0.13038889 -0.025794787 0.019274333 -0.103210166 -0.053608026
-0.07210149 0.03868481 -0.07078037 0.07775482 0.008655955 -0.13066152 -0.028876802 0.005209888
0.05385342 -0.02851145 -0.026251791 -0.094957896 0.06816691 -0.009639426 0.026367709 -0.017399622
0.013227272 -0.027792618 0.0021628598 -0.022762641 0.038617723 0.0050757546 -0.06052199 0.0863871
-0.029328175 -0.041011114 0.011238819 0.030627375 0.044135485 -0.052995235 -0.022453815 -0.048523035
0.031040948 -0.072691225 0.045720704 0.027277414 0.015616759 -0.03960943 -0.010904555 -0.05748003
-0.01786414 -0.024818255 0.1837384 -0.1504908 0.042992562 -0.04044399 -0.04717922 -0.021083113
0.21776038 -0.053130116 0.09352406 -0.11954374 -0.030561337 0.044763505 -0.050577417 0.05762768
0.07237699 0.17067209 0.04187519 0.06542547 -0.045718003 -0.04837583 0.11502638 -0.0370697
-0.022504682 -0.074035764 -0.01761878 0.0017827862 0.048845004 0.015909314 0.07550474 -0.0014360541
-0.06900038 -0.02284902 0.057672475 0.03813303 0.03858326 0.00067481265 -0.017226135 0.042903285
0.019528221 0.0007248218 0.06168231 0.040003963 -0.0725497 0.0048711696 0.010294935 0.029806599
0.0026313078 0.003557818 0.07085341 0.018011097 -0.10065272 0.015009023 -0.1160577 0.011862106
0.0137320515 0.048737302 -0.0012264026 -0.017792415 -0.096936725 0.12028671 -0.09069855 0.014563015
0.050850306 0.056462094 0.09799085 0.002315721 0.04653384 0.00044823956 0.03837843 0.08939897
0.017232347 -0.00047418318 -0.055313803 -0.067184635 0.040356077 0.10008151 0.087848656 -0.05535573
0.036735557 0.0914603 -0.028788488 0.01855603 -0.0075885197 -0.08477848 0.01891231 -0.048664812
0.017519932 -0.06675628 -0.011270577 -0.014968793 0.037671972 0.090634026 -0.008089395 0.018877555
-0.08444493 -0.029194325 0.068884365 -0.045512296 0.014644403 -0.0019180488 0.06642182 -0.006369812
-0.014001115 0.045508444 0.03719672 0.07486747 0.053907815 0.09704853 0.030827701 0.03122106
0.043406844 -0.03647063 -0.06960409 -0.08430175 -0.048561156 0.07099246 0.009107257 -0.061773922
0.026844254 -0.006028705 -0.058346912 0.04609387 0.0333307 0.013909546 0.010306994 -0.06775829

sequential/lstm/while/lstm_cell/split_1 f4 [80]
00000000: 9289 8e3c 9376 08bc 9570 523c 5d95 15bc
00000010: 85af 873c 0731 f63b ff27 04bc 323b 4e3c
00000020: ff6f dbbb d338 60bc 185f 233c 14fd f7bb
00000030: c730 1a3b 36b6 ebba 3842 3abb cf5e b23c
00000040: 3214 333c 8bd3 183b e5b3 153c e2c2 d13b
00000050: 28b0 23bc fd54 fdbb a8ee d73b bb7f 8f3c
00000060: 9574 a9bb ceec b23b 3fa9 863c 9093 1b3c
00000070: 4011 c0ba 479c 503c 51c0 4b3c 9c9a 5f3c
00000080: 7dbb 963c 1049 ff3b e5c1 60bc c925 363c
00000090: 1995 373c 737d 953c a60a 523a 36d9 263c
000000a0: 6045 6839 c976 aa3c f6c4 ac3b 76d9 613b
000000b0: 0849 8a3c 621d 8b3c 845d 903c 059f 12bc
000000c0: a99b d4bb a253 883c 15c3 473c d771 3f3c
000000d0: 4d7d 0b3b e7d8 9d3c 549b 803b 3733 443c
000000e0: 1a62 fc3b a079 00bc 2af1 7239 2640 2fbc
000000f0: 6efa 093c c233 f1bb 3700 6c3c 17e0 33bc
00000100: d4c9 883c 3f4e b13c dc88 a23a 94c9 8f3c
00000110: cd22 8a3c c532 5c3c 4c12 4bbb 8f70 3b3b
00000120: 282d 9fbb 0ede efbb b16f 3dbc 1b4c 803c
00000130: 1feb 09bc 1ec3 5cb9 485e ba3c ce5a 2a3a
0.017399583 -0.008329052 0.012844224 -0.009129849 0.016563186 0.0075131687 -0.008066176 0.012587355
-0.0066967006 -0.013685423 0.009971403 -0.007568011 0.0023527609 -0.001798338 -0.0028420817 0.021773724
0.010930108 0.0023319449 0.0091371285 0.0064014057 -0.009990729 -0.0077310787 0.0065897293 0.017516961
-0.0051713684 0.005460358 0.016438125 0.009495631 -0.0014653578 0.012732572 0.0124359885 0.013647702
0.018399948 0.007790692 -0.013718103 0.011117407 0.011204981 0.018248295 0.0008012451 0.010183623
0.00022151088 0.020808594 0.005272503 0.0034461892 0.016880527 0.016981784 0.017622717 -0.008949046
-0.0064882827 0.016641442 0.012192507 0.011684856 0.0021284402 0.019268466 0.0039247666 0.011975101
0.0077021243 -0.007841498 0.00023168759 -0.0106964465 0.0084215235 -0.0073609063 0.014404348 -0.01097872
0.016697802 0.021643756 0.0012400406 0.017552175 0.016862297 0.013439839 -0.0030986248 0.0028601026
-0.004857678 -0.007320172 -0.011562274 0.01566129 -0.008417874 -0.00021053522 0.022750035 0.00064985163

sequential/lstm/while/lstm_cell/split_11 f4 [80]
00000000: 604e 823f a11f 7e3f 32eb 813f 3099 7d3f
00000010: 1523 823f fda2 813f ac2a 7e3f 8b10 823f
00000020: 339d 7e3f 6bc9 7c3f 7d3c 813f a110 7e3f
00000030: 0166 813f 5616 7f3f e5a5 7e3f 77cb 823f
00000040: 12a9 813f 3f9c 7f3f bd3e 813f d603 813f
00000050: 3da5 7d3f cb07 7e3f ca48 813f 1346 823f
00000060: 49f1 7e3f 28a2 803f 061f 823f ee8a 813f
00000070: 821e 7f3f 17c7 813f 4b33 813f dba1 813f
00000080: 7042 823f 6e4f 813f f2c0 7c3f c57c 813f
00000090: 747f 813f 1755 823f 75d6 803f 3245 813f
000000a0: 6cf1 7f3f ddb3 823f fdb9 803f 2025 813f
000000b0: cf60 823f 6012 823f dc4f 823f fd1b 7e3f
000000c0: f985 7d3f 3c7a 823f ab5f 813f f37a 813f
000000d0: 8566 813f 3a85 823f e827 803f 84d0 813f
000000e0: f8e2 803f cf95 7d3f 376f 803f 3a05 7d3f
000000f0: 7395 813f a4f8 7e3f 70df 813f 0b62 7d3f
00000100: 6a4c 823f 94c0 823f 41b0 7f3f fe9c 823f
00000110: 8fe5 813f 50a6 813f e032 7f3f 2be4 803f
00000120: cf0f 813f 4e45 7f3f f356 7d3f 323a 823f
00000130: f9f4 7d3f f88b 7f3f e0f3 823f 30f4 7f3f
1.0180168 0.9926701 1.0149901 0.9906187 1.0166956 1.0127865 0.9928386 1.0161299
0.99458617 0.9874484 1.0096585 0.99244124 1.0109254 0.99643457 0.99471885 1.0218343
1.0129721 0.9984779 1.0097271 1.0079296 0.9908026 0.9923064 1.0100338 1.0177635
0.9958692 1.0049486 1.0165718 1.0120523 0.99655926 1.0138882 1.0093778 1.0127519
1.0176525 1.0102365 0.9873191 1.0116202 1.0117021 1.0182217 1.0065447 1.0099242
0.99977756 1.021114 1.0056759 1.0089455 1.0185794 1.0161858 1.0180621 0.99261457
0.9903255 1.0193553 1.010732 1.0115646 1.0109411 1.0196908 1.0012178 1.0141759
1.0069265 0.99056715 1.003394 0.988361 1.0123733 0.99598145 1.0146313 0.98977727
1.017957 1.021502 0.9987832 1.020416 1.0148181 1.012888 0.99687004 1.0069631
1.0082949 0.99715126 0.989608 1.017401 0.99201924 0.9982295 1.0230675 0.99981976

sequential/lstm/while/lstm_cell/split_12 f4 [80]
00000000: daea 1bbc 465a 663c 702f 873c 550c 8b3b
00000010: 3722 24bc e0d7 03bc c29f 32bc 062f 8ebc
00000020: 8bcb 903b 7227 4dbc 7c3e bd3a d97f 85bb
00000030: 8913 733b ad66 86bc 8ad2 fbbb b048 0f3c
00000040: f26e 593c b18e 75bc 3a22 4f3c ff3c 37bc
00000050: 6c2d c33b 8fec 5cbc 5dc0 753c 1961 67bb
00000060: ec5b 763c 76dc 16bc 9c25 5abc 988f 35bc
00000070: 0547 18bc 0dc2 06bc 1c9c 94bb ed6f 653b
00000080: 88d6 323c 4f75 003c d679 d9b9 4da5 16bc
00000090: 370d 38ba c4a8 243c 5905 1cbb fb81 533c
000000a0: a5df a73b 19dd 433c cc1f 043a 5108 5cbc
000000b0: eaf8 4fbb ff1c 4abc da6d b63b be05 e53a
000000c0: c447 e2bb 770e 6fbc f4a1 903c 46b3 47bc
000000d0: cb95 22bc 5ff1 59bc 4ca4 61bc 1e48 993b
000000e0: b2ca cc3b 6819 373c f691 093c 14e3 573c
000000f0: ff12 82bc 2158 5fbc 30f2 52bc f75d 9ebb
00000100: 21cc 7f3c 46ac 36bc dfb2 353c 51bd 44bc
00000110: 0c57 823c d512 883c a177 6eba effb afba
00000120: d2a6 493c 4be9 9f3b 0cd4 66bc c363 023c
00000130: 064b 97bb 6a6b af3b 6235 483c 2578 e33a
-0.009516442 0.014059609 0.016502112 0.0042434135 -0.010017923 -0.008047074 -0.010902347 -0.017356407
0.0044187955 -0.0125216115 0.0014438177 -0.0040740785 0.0037090501 -0.016406382 -0.0076850103 0.008745357
0.01327108 -0.014987634 0.012642438 -0.011183976 0.0059563424 -0.013484134 0.014999476 -0.0035305677
0.015036564 -0.009207835 -0.013314631 -0.011081599 -0.009294276 -0.008224976 -0.0045352113 0.003500934
0.010915406 0.007840469 -0.0004148024 -0.009194684 -0.0007021012 0.0100500025 -0.0023806898 0.012909408
0.005123096 0.011954569 0.00050401385 -0.013429717 -0.0031734058 -0.012336015 0.0055672945 0.0017473025
-0.006905528 -0.014590851 0.01765535 -0.012188738 -0.009923409 -0.013302176 -0.013772082 0.0046777865
0.006249749 0.011175491 0.008396616 0.013176698 -0.015878199 -0.013631851 -0.012875125 -0.004832979
0.015612633 -0.011149472 0.0110900095 -0.012008027 0.015910648 0.016610542 -0.00090968056 -0.0013426522
0.0123078395 0.0048801056 -0.014088642 0.007958355 -0.004617098 0.005353381 0.012219759 0.0017354531

sequential/lstm/while/lstm_cell/split_13 f4 [80]
00000000: c110 8a3c 9bd1 8bbb a527 6b3c 34bf ecbb
00000010: 3dbb 903c e514 123c 710c cebb a730 713c
00000020: 0cb6 a5bb 5a8f 4cbc dd75 3e3c dccf d1bb
00000030: 70f6 4c3c 6260 d6bb 3bbd f4ba 4f8a ba3c
00000040: 6034 6e3c 9235 013c dec2 193c bc9e 043c
00000050: 5657 dabb 84df 16bc 5a5f 173c 0dd6 9c3c
00000060: fe57 98bb 274a 833b c794 903c 1df4 cb3b
00000070: 42d8 71bb fa18 843c 118e 85ba 1a85 863c
00000080: 35fe 903c ecbc 6d3b 5cad 5fbc f1fe 703c
00000090: 7ca7 463c 7519 9f3c 438b 16ba 9340 313c
000000a0: 0700 7eb9 5728 a53c 9f40 183b e841 763a
000000b0: 8db4 973c c32b 243c 3fa2 6c3c a352 00bc
000000c0: 44d0 02bc 30c5 853c 868e 6a3c 7b5f 3f3c
000000d0: 9dc8 6d3c e38d a23c 4c04 02bb b19b 273c
000000e0: 4e05 0c3c dab6 0fbc a4b8 17bb 2b68 64bc
000000f0: 31ac 923c 6a78 303c 4e07 483c 041a 00bc
00000100: d849 953c 4f9e 843c 7324 833b dc01 ab3c
00000110: 311d 903c 05ea 8b3c 364d ca3b afa8 e33b
00000120: 6048 dfbb 2454 4fba 2a75 aebb 2399 853c
00000130: 2577 66bc 914b f3ba 9ce1 bb3c 42c1 3dbb
0.016853692 -0.0042669303 0.014352714 -0.0072249416 0.017667407 0.008916114 -0.006288104 0.014721072
-0.005057102 -0.01248535 0.0116247805 -0.0064029526 0.012509927 -0.0065422514 -0.0018672118 0.022771029
0.014538854 0.007886307 0.009384839 0.008094486 -0.0066632433 -0.009208564 0.009239042 0.019145036
-0.0046491614 0.0040066424 0.017649068 0.006224169 -0.0036902581 0.016125191 -0.0010189434 0.01642089
0.01769934 0.0036275936 -0.013652172 0.01470922 0.012124892 0.019421319 -0.00057427975 0.010818618
-0.00024223338 0.020160837 0.0023231877 0.0009393976 0.01851871 0.010020199 0.014442979 -0.007832202
-0.007984225 0.016329378 0.014316207 0.011680479 0.014513162 0.019843047 -0.0019838987 0.010229991
0.008546187 -0.008771623 -0.0023150826 -0.013940851 0.017904373 0.010770896 0.012208773 -0.007818703
0.018223688 0.016188769 0.004002148 0.02087491 0.017592045 0.017079363 0.006173755 0.006947599
-0.0068140477 -0.0007908961 -0.0053240256 0.016308373 -0.014066492 -0.0018561949 0.022934727 -0.0028954302

sequential/lstm/while/lstm_cell/MatMul f4 [80, 21]
00000000: e776 eb3d cef6 f9bd 76ac fc3d e1bc 963d
00000010: 43f0 53bc 37bc 1abc 8bb0 dfbd c373 16bd
00000020: 2690 0bbe 753a adbd f4ed 94bd 3e8a 883d
00000030: 2d18 aabd 92f3 463c cc88 83bd ccf1 80bd
00000040: 840d aa3d 3648 c4bd 49fa 853c 62fe 82bb
00000050: 330f edbc 5a26 d7bd 5434 7b3c 0165 ca3b
00000060: e79d 0cbe 5dbd d53d d8fa d73d eafd e73d
00000070: 45f0 08be 20af 09be b02f 03bd 5445 fbbc
00000080: 25f6 24bc 4b55 7abd 0240 cebd 4e05 e8bd
00000090: b40b 0cbe 80f2 19be 8e7d a8bd cd3b abbd
000000a0: c7c2 1f3d d9c7 0f3e 21cb e83c 3285 ce3d
000000b0: 6baa 0bbe 1906 4339 275e eabc 92b3 38bc
000000c0: e504 1b3d dd18 c3bd 886e 223d f72c a13d
000000d0: c229 91bd a2bf 9c3c 2dbe 96bd d288 d53d
000000e0: 549f f7bd 23c6 013e e5ce 823c daca 133d
000000f0: e854 013e 3077 2a3d 9cb9 883d 59d5 42bc
00000100: 198e 523d fc16 88bd 9879 ecbb ebe2 793d
00000110: c7cf 6dbd 7022 fd3d 7dde 033d 0d3f a1bd
00000120: 2210 14bd 5aa8 3fbd 0bba 3dba 30ce 8c3d
00000130: 4286 613c 8f4e d6bd a71f c93d 9aa0 f63d
00000140: 51b9 fb3d edb0 963b 76f5 8d3b cf10 403c
00000150: 7598 dd3d 2d2b 0a3e a8ac aa3d ce30 6a3d
00000160: bb20 91bd 5e49 4ebd ae95 f4bd 1164 043e
00000170: 22e9 a03d 456c f2bd e848 623d 47c7 4dbc
00000180: 8d80 133d d818 6f3c 9145 95bd 5d23 a3bd
00000190: a421 cbbc d99c 09be 1973 ce3d 81d1 dabd
000001a0: 7dd6 7abb 32a4 823d 12a3 a03c 8593 b43d
000001b0: 9e5b f13d d94f c0bd c014 7f3d f088 433d
000001c0: 2b93 803d ec48 113e 7f2c f83d 10b8 0b3c
000001d0: de63 1a3e 4af5 103e 4eba 0c3d 60d7 a83d
000001e0: 4d29 143e 2fbf 673d efac cabc 7e15 a63d
000001f0: 3a66 ff3d da51 d2bc 0796 01be 8874 bdbd
00000200: c75e 07bc f0de ff3c 0b07 a83d 09b4 e73d
00000210: 56ce a63c 76d9 0c3e 4478 b33d d268 923d
00000220: 3080 5e3c 574e d1bd d3d7 a23d 8c29 5c3c
00000230: 4e92 92bd 34d2 9a3d 5929 da3d dd05 9ebd
00000240: 10c8 193d 50c1 df3d 0ff8 89bc 996f 48bd
00000250: 268f ffbd 25ae 033d 6fba 1abc 13f9 673d
00000260: f131 ae3d fbf8 143d 7e18 6f3d 5c5a fc3d
00000270: e537 7b3c 1b40 a8bd 89a2 0e3e d001 563b
00000280: 04fa 313b 28c9 113d df64 e7bd 7349 863b
00000290: 59db 4f3d ef66 29bd e0b0 193d 2765 103e
000002a0: 779c 91bd adb9 efbd e762 e13d aee4 ff3b
000002b0: cadf f4bd e26c 2a3d a594 89bd 255a 903c
000002c0: 1046 42bd 29e0 03be 9182 8abd 8316 82bd
000002d0: e088 ffbd 432d 68bd f3ae 5e3d fb3d 9b3d
000002e0: 0d59 c9b8 f723 e8bd 98a2 88bd 5648 1abd
000002f0: 5807 d73d 8e88 09bd e9df b9bc fd38 9f3c
00000300: 2d42 c5bd c89c a03c b479 193c 7a75 f4bd
00000310: e89c ed3d 24aa 993d 3014 02be b089 6c3d
00000320: e1de 06be 0a70 473d de8e aa3c 6afe 973b
00000330: d4c5 30bd 664a b53b 298e c73d 8397 a6bd
00000340: fab5 96bd 80a2 db3c c22a d23d f55e 473c
00000350: a538 183e cff1 d33c b583 a1bd 4818 de3d
00000360: cddc d83d 2e36 df3d edc9 74bb e02e 7a3d
00000370: b673 e5bd 1e67 2dbd 2992 d43d a11a c4bd
00000380: 9b21 913b e9ad 053d 3a8b 4ebb c4a8 f4bd
00000390: 3439 b43d a89a 01be 1c72 c9bc d5d3 85bd
000003a0: fc11 01be 3df0 113e 0b0f 333d 6671 c63d
000003b0: c3d8 883d 656c cd3d f60c c3bd 40c4 283d
000003c0: 8109 dc3b 18e4 043e f3b2 e6bd b9af 0abe
000003d0: 59bf 743d 0fcf 023d a120 ed3d bc78 363d
000003e0: 4262 a13d e3ed 12be 3fe2 0dbd 1f55 30bd
000003f0: a5d7 e3bd 9126 ebbd 47a7 813d 6fb4 a73b
0.11497288 -0.122052774 0.12337582 0.073602445 -0.012935701 -0.009444288 -0.10922345 -0.036731493
-0.13629207 -0.084584154 -0.072719485 0.066669926 -0.083053924 0.012143033 -0.06422576 -0.06296119
0.08303359 -0.09584086 0.016354697 -0.00399761 -0.028937912 -0.10505362 0.0153323 0.0061765914
-0.1373211 0.10436509 0.105458915 0.11327727 -0.13372906 -0.13445711 -0.0320279 -0.030672707
-0.010068451 -0.061116498 -0.10070802 -0.11329137 -0.1367634 -0.15033913 -0.08227073 -0.083610155
0.039004114 0.1404108 0.028417172 0.10083999 -0.13639228 0.0001859892 -0.028609348 -0.011273282
0.037846465 -0.09526227 0.039656192 0.078699045 -0.07088043 0.019134346 -0.07360492 0.10426487
-0.12090936 0.1267324 0.015967796 0.036082126 0.12630045 0.041617572 0.06676027 -0.011891686
0.051405046 -0.06645009 -0.0072166435 0.06100742 -0.05805948 0.12360084 0.032194603 -0.07873354
-0.036148198 -0.046791412 -0.00072375004 0.06875265 0.01376492 -0.104642026 0.0982049 0.12042351
0.12291206 0.004598728 0.0043322397 0.0117227575 0.108200945 0.13493033 0.08333713 0.05717545
-0.07086321 -0.050362937 -0.11942612 0.12928797 0.078569666 -0.11837057 0.05524531 -0.012559718
0.036011267 0.014593326 -0.07288659 -0.079657294 -0.024796315 -0.13438739 0.10080547 -0.10684491
-0.0038274818 0.06378974 0.019609008 0.088171996 0.11785053 -0.0939023 0.062275648 0.047738016
0.0627807 0.14187974 0.12117862 0.008527771 0.15077159 0.1415607 0.03435736 0.082442045
0.1446888 0.05657881 -0.024740664 0.08109568 0.1247067 -0.025673795 -0.12654887 -0.09250742
-0.008262343 0.031234235 0.08204468 0.11313636 0.02036206 0.1375483 0.08763173 0.07148899
0.013580367 -0.1022002 0.079513215 0.01343764 -0.07156812 0.07559624 0.10652418 -0.07715962
0.03754431 0.10925543 -0.016841916 -0.048934553 -0.12478475 0.0321485 -0.009443863 0.05663402
0.08505619 0.03637026 0.058372967 0.12321922 0.0153331505 -0.08215352 0.1392919 0.003265489
0.0027157078 0.03559223 -0.112985365 0.0040981113 0.050746296 -0.04135793 0.037522197 0.14101087
-0.071099214 -0.11705337 0.11005192 0.007809243 -0.11956747 0.041607745 -0.06717805 0.01762111
-0.047430098 -0.12878479 -0.06763185 -0.0635195 -0.12477279 -0.05668379 0.054366063 0.07580181
-9.601014e-05 -0.11334985 -0.06671637 -0.03766664 0.104994476 -0.033577494 -0.022689776 0.019436354
-0.09631763 0.01960601 0.009367395 -0.119364694 0.11602193 0.07503155 -0.12703013 0.057748497
-0.13170959 0.048690833 0.020820078 0.004638483 -0.043157414 0.0055325506 0.09743912 -0.08134367
-0.07358928 0.026810884 0.10262062 0.012168636 0.14865358 0.02587214 -0.07886449 0.10844475
0.105889894 0.10899006 -0.0037351802 0.06107986 -0.11203711 -0.04233467 0.1037944 -0.095753916
0.004429055 0.032636557 -0.003151609 -0.11946252 0.08799973 -0.12656653 -0.024590544 -0.065345444
-0.12604517 0.142518 0.043715518 0.09689598 0.06681969 0.1003044 -0.095239565 0.041202784
0.006715 0.12977636 -0.112646006 -0.13543595 0.059752796 0.031935748 0.11578489 0.044548735
0.07880069 -0.14348559 -0.034639593 -0.043049928 -0.11125115 -0.11481965 0.06330734 0.005117945

sequential/lstm/while/lstm_cell/MatMul_1 f4 [80, 21]
00000000: bd3a 853d 32eb cebc 63a9 c8bc de56 763d
00000010: 593f ec3c 1f93 4abd 689a 593c b8f8 3c3d
00000020: d4d9 043d 5ed2 f9bc 8484 86bd 91fc e1bd
00000030: 087e ffbd 5aae f63c 2704 8e3d 43c6 b23d
00000040: 6e02 13be 7da8 94bd f448 1f3c 5896 dbbd
00000050: e0e3 9fbc 556e 263d 97fb de3d 4bcd e63d
00000060: 7ad5 c33d c345 0dbd 8eac b83a 2162 963d
00000070: 913f cbbd 1b32 a13b 36d8 b23d 809a 72bd
00000080: 935b 5f3d e637 08be cbb4 efbd 5638 ae3c
00000090: 92bd cd3d 1ec5 3ebd ef68 b3bc 93c9 e43d
000000a0: 3b52 c2bd 8be9 51bd 3312 b3bb 00e9 babd
000000b0: 36af bdbd f24c 9a3d 8fac 043e 8e33 3abd
000000c0: 24f4 a6bd 5196 c93d 5372 4dbd 5bff 113e
000000d0: 4028 593c f90c 583d d81d b93c 462b ec3d
000000e0: 0722 88bc 8879 f0bd 8d26 df3d 584f b2bc
000000f0: dc35 d33d 8071 0b3d e079 1bbe bdbd 993d
00000100: 251e f63d 9027 1ebd 471f e8bd 18e6 d6bd
00000110: dea8 373d 46ca a63d bf27 e53c ff3c fcbd
00000120: 6995 bf3d 8d86 b2bd d56f 1ebd 1c7f 963d
00000130: 4f91 01bd 7f99 d3bd 5117 b13d c6e7 013e
00000140: 2076 b43d 0a6c 6cbc 84c8 c8bd 9103 a8bd
00000150: bc3f acbd a42c 63bd dec0 083e 7130 c13d
00000160: 3bc8 41bc c96a c63d b889 953d e77f db3d
00000170: 657e 1e3d fabf 9d3d 8077 53bc b7ec d43d
00000180: 6d8d 983c 4b1e 9bbc 8d9d d5bd 6fc9 123e
00000190: d564 6e3d 4e3c ffbd bb1d 423d fce2 aebd
000001a0: 65c0 dcbd 1328 463d a14b 9e3d cb1d 033e
000001b0: 760c cbbd 3f9f d43d 929f babd f52f 57bd
000001c0: 5401 a03d 1bd7 843d 7177 f33c c054 863c
000001d0: 84fe 8b3c 9592 173d 2d14 c13d 4dfd ad3c
000001e0: c327 a33d 0e11 5abd 4bff cf3c 86ab 8cbd
000001f0: 8096 d5bd 91f3 093d 9d34 e03d db65 b3bd
00000200: 9c9f 013e d2fc 0a3e ec22 2ebd cd77 e9bc
00000210: 8e2f 333c fd3e 753d 3f22 593d 78e0 113e
00000220: f4b7 92bc a4b1 073e 5549 653d a0d2 963d
00000230: a591 163e 7d87 eabd 664a aebd 699c a53c
00000240: 5003 93bb caa1 c4bd dae7 9f3d 155b 8fbd
00000250: db5e e7bd 0a51 883c 681b 1a3d 7250 963d
00000260: eaf2 e3bd 4215 acbd 271e a0bc 48ff 80bb
00000270: 72c3 c3bd f06b 473c 9454 cebd 48d5 863d
00000280: 3d8e 973d 1af7 953d 3067 f83d de47 133e
00000290: 91b6 12be 90d4 013d 2ce8 b3bd d76f c03d
000002a0: 4826 b4bd f57a 3bbd 18fb 70bd 0e2b a63c
000002b0: b13c b13c 0661 d33d 0aa9 ffbc 3a98 9ebd
000002c0: 69f8 08be e75d f6bd 48e2 54bd 08d1 e63d
000002d0: 3686 ed3d ea12 03be 2f31 3d3b 18d8 1fbd
000002e0: 5fe9 d93d 7e32 d63d 52c5 e23c d629 bc3d
000002f0: 70aa abbc 1b73 453d 38f9 9abd 6e05 fbb8
00000300: 46bd b73d ab4b fb3d f33c c3bc 4f76 c3bd
00000310: 3041 d5bb cd91 9bbd 3cf3 e63d 6e6f 933d
00000320: 2a04 8abc 8e5b 63bc 21bb 7f3d 2538 803d
00000330: c5be a13d eafe 7bbd 317f d83d 5fe2 08bd
00000340: 6b17 2d3d dd6f cd3b 8505 98bd 8a65 f83d
00000350: 14e2 9cbd 283b 0cbe abef 00be ddbe 963d
00000360: 692f c7bc 3983 3ebd 67b5 3bbd ad9c d63c
00000370: ca7d 0fbd ff97 333c 9391 1cbd b76c a93d
00000380: 7212 8f3d f998 703d 5b57 473c 8553 c63d
00000390: 93fc eabc 9217 ad3d 2ac0 c63d 9bfb 34bd
000003a0: c365 11bd d121 e83d f97e 9c3d 4ce7 ccbc
000003b0: 211b f8bd eafb aabd 7831 58bb 9f46 453d
000003c0: ae5d aabd 1628 c0bd c7f6 03be 1b80 333d
000003d0: a899 b4bb 90f5 e3bd 0401 263d d59d cebd
000003e0: 0618 c03d 17b8 61bd 447c 883d 1ea1 043e
000003f0: 737a 483d 0a78 d33c 2e66 e33d c9db c73d
0.06505344 -0.025258634 -0.024494832 0.060141437 0.0288388 -0.04945671 0.013281442 0.046135634
0.0324343 -0.030495819 -0.06568244 -0.11034501 -0.124752104 0.030112434 0.06934386 0.08729222
-0.14356396 -0.07258699 0.009721983 -0.10722035 -0.019517839 0.040632565 0.10887831 0.11269625
0.09562202 -0.034490358 0.0014089511 0.07342935 -0.09924234 0.004919303 0.08732645 -0.059229374
0.05453069 -0.13302574 -0.117044054 0.021267097 0.10045923 -0.046574704 -0.021900622 0.1117126
-0.094883405 -0.051248115 -0.005464816 -0.091264725 -0.092619345 0.075342074 0.12956451 -0.045459323
-0.08152035 0.09843124 -0.050157856 0.14257567 0.013254225 0.052746747 0.022597238 0.11531691
-0.016617788 -0.1174193 0.10896025 -0.02176635 0.10313007 0.03404379 -0.1518321 0.07506893
0.12017468 -0.03861195 -0.11334091 -0.10493106 0.04483878 0.08144049 0.027973054 -0.123163216
0.093546696 -0.0871707 -0.03868087 0.07348463 -0.031632718 -0.103320114 0.086470254 0.12686071
0.08811593 -0.014430055 -0.0980387 -0.08203805 -0.08410594 -0.055462494 0.13354823 0.094330676
-0.011827524 0.096883364 0.073016584 0.10717755 0.038694758 0.07702632 -0.012906909 0.10396712
0.018622125 -0.018935343 -0.10430441 0.14334653 0.05820163 -0.12462674 0.047391634 -0.085393876
-0.10778884 0.04837806 0.07729269 0.12804334 -0.09914486 0.10381936 -0.09112467 -0.05253597
0.07812753 0.064863406 0.02972004 0.016397834 0.017089136 0.037005026 0.09427676 0.021238947
0.07966568 -0.05323892 0.025390288 -0.06868653 -0.10429096 0.03367955 0.10947535 -0.08759662
0.12658542 0.13573006 -0.042513773 -0.028499508 0.010936631 0.059874523 0.053011175 0.14245784
-0.017909981 0.13251358 0.055978138 0.07364392 0.14703996 -0.114516236 -0.08510284 0.020216184
-0.004486479 -0.09601171 0.07807894 -0.069997944 -0.11297389 0.016640205 0.037623793 0.073395625
-0.111303166 -0.08402492 -0.019545628 -0.003936682 -0.095587626 0.01217173 -0.10074726 0.06583649
0.07400177 0.073225215 0.121290565 0.14382884 -0.14327456 0.031696856 -0.08784518 0.09396332
-0.08796364 -0.045771558 -0.05883321 0.020284202 0.021635385 0.1032124 -0.031208534 -0.07743879
-0.13376011 -0.12029629 -0.05197361 0.11270338 0.11597864 -0.12800184 0.0028868427 -0.039024442
0.10640215 0.10458849 0.02768198 0.09187667 -0.020955294 0.048205476 -0.07567066 -0.00011969624
0.08971648 0.12270292 -0.023832774 -0.0954405 -0.006508015 -0.07596169 0.11276862 0.07198988
-0.016847689 -0.013876809 0.06243432 0.06260709 0.078977145 -0.061522402 0.10571135 -0.03341901
0.04225866 0.0062694387 -0.07422928 0.12128742 -0.076603085 -0.13694441 -0.12591426 0.07360623
-0.0243146 -0.046511862 -0.045827296 0.026197756 -0.03503207 0.010961532 -0.038224768 0.08272689
0.0698594 0.058739636 0.012166823 0.09683899 -0.02868489 0.08451761 0.09704621 -0.044185262
-0.03549744 0.11334575 0.076414056 -0.025012635 -0.121145494 -0.0834883 -0.003298847 0.048163053
-0.08318649 -0.09382646 -0.12887107 0.043823343 -0.0055114813 -0.11130822 0.040528312 -0.10088698
0.09379582 -0.055107202 0.06664327 0.12952086 0.0489449 0.025814075 0.111034736 0.097587176
